…
    source: "/home/mpopovic/workspace/weedNet-devel/SegNet-Tutorial/train_and_test_data/rit-18/10m_15m_20m_978_images/trainir3.txt"
    batch_size: 5
    shuffle: false
    new_height: 360
    new_width: 480
    is_color: false
  }
}
layer {
  name: "dataRGB"
  type: "DenseImageData"
  top: "dataRGB"
  top: "label"
  dense_image_data_param {
    source: "/home/mpopovic/workspace/weedNet-devel/SegNet-Tutorial/train_and_test_data/rit-18/10m_15m_20m_978_images/train.txt"
    batch_size: 5
    shuffle: false
    new_height: 360
    new_width: 480
    is_color: true
  }
}
layer {
  name: "data"
  type: "Concat"
  bottom: "dataIR1"
  bottom: "dataIR2"
  bottom: "dataIR3"
  bottom: "dataRGB"
  top: "data"
  concat_param {
    axis: 1
  }
}
layer {
  name: "multiconv1_1"
  type: "Convolution"
  bottom: "data"
  top: "conv1_1"
  param {
    lr_mult: 1
    decay_mult: 1
  }
  param {
    lr_mult: 2
    decay_mult: 0
  }
  convolution_param {
    num_output: 64
    pad: 1
    kernel_size: 3
    weight_filler {
      type: "msra"
    }
    bias_filler {
      type: "constant"
    }
  }
}
layer {
  name: "conv1_1_bn"
  type: "BN"
  bottom: "conv1_1"
  top: "conv1_1"
  param {
    lr_mult: 1
    decay_mult: 1
  }
  param {
    lr_mult: 1
    decay_mult: 0
  }
  bn_param {
    scale_filler {
      type: "constant"
      value: 1
    }
    shift_filler {
      type: "constant"
      value: 0.001
    }
  }
}
layer {
  name: "relu1_1"
  type: "ReLU"
  bottom: "conv1_1"
  top: "conv1_1"
}
layer {
  name: "conv1_2"
  type: "Convolution"
  bottom: "conv1_1"
  top: "conv1_2"
  param {
    lr_mult: 1
    decay_mult: 1
  }
  param {
    lr_mult: 2
    decay_mult: 0
  }
  convolution_param {
    num_output: 64
    pad: 1
    kernel_size: 3
    weight_filler {
      type: "msra"
    }
    bias_filler {
      type: "constant"
    }
  }
}
layer {
  name: "conv1_2_bn"
  type: "BN"
  bottom: "conv1_2"
  top: "conv1_2"
  param {
    lr_mult: 1
    decay_mult: 1
  }
  param {
    lr_mult: 1
    decay_mult: 0
  }
  bn_param {
    scale_filler {
      type: "constant"
      value: 1
    }
    shift_filler {
      type: "constant"
      value: 0.001
    }
  }
}
layer {
  name: "relu1_2"
  type: "ReLU"
  bottom: "conv1_2"
  top: "conv1_2"
}
layer {
  name: "pool1"
  type: "Pooling"
  bottom: "conv1_2"
  top: "pool1"
  top: "pool1_mask"
  pooling_param {
    pool: MAX
    kernel_size: 2
    stride: 2
  }
}
layer {
  name: "conv2_1"
  type: "Convolution"
  bottom: "pool1"
  top: "conv2_1"
  param {
    lr_mult: 1
    decay_mult: 1
  }
  param {
    lr_mult: 2
    decay_mult: 0
  }
  convolution_param {
    num_output: 128
    pad: 1
    kernel_size: 3
    weight_filler {
      type: "msra"
    }
    bias_filler {
      type: "constant"
    }
  }
}
layer {
  name: "conv2_1_bn"
  type: "BN"
  bottom: "conv2_1"
  top: "conv2_1"
  param {
    lr_mult: 1
    decay_mult: 1
  }
  param {
    lr_mult: 1
    decay_mult: 0
  }
  bn_param {
    scale_filler {
      type: "constant"
      value: 1
    }
    shift_filler {
      type: "constant"
      value: 0.001
    }
  }
}
layer {
  name: "relu2_1"
  type: "ReLU"
  bottom: "conv2_1"
  top: "conv2_1"
}
layer {
  name: "conv2_2"
  type: "Convolution"
  bottom: "conv2_1"
  top: "conv2_2"
  param {
    lr_mult: 1
    decay_mult: 1
  }
  param {
    lr_mult: 2
    decay_mult: 0
  }
  convolution_param {
    num_output: 128
    pad: 1
    kernel_size: 3
    weight_filler {
      type: "msra"
    }
    bias_filler {
      type: "constant"
    }
  }
}
layer {
  name: "conv2_2_bn"
  type: "BN"
  bottom: "conv2_2"
  top: "conv2_2"
  param {
    lr_mult: 1
    decay_mult: 1
  }
  param {
    lr_mult: 1
    decay_mult: 0
  }
  bn_param {
    scale_filler {
      type: "constant"
      value: 1
    }
    shift_filler {
      type: "constant"
      value: 0.001
    }
  }
}
layer {
  name: "relu2_2"
  type: "ReLU"
  bottom: "conv2_2"
  top: "conv2_2"
}
layer {
  name: "pool2"
  type: "Pooling"
  bottom: "conv2_2"
  top: "pool2"
  top: "pool2_mask"
  pooling_param {
    pool: MAX
    kernel_size: 2
    stride: 2
  }
}
layer {
  name: "conv3_1"
  type: "Convolution"
  bottom: "pool2"
  top: "conv3_1"
  param {
    lr_mult: 1
    decay_mult: 1
  }
  param {
    lr_mult: 2
    decay_mult: 0
  }
  convolution_param {
    num_output: 256
    pad: 1
    kernel_size: 3
    weight_filler {
      type: "msra"
    }
    bias_filler {
      type: "constant"
    }
  }
}
layer {
  name: "conv3_1_bn"
  type: "BN"
  bottom: "conv3_1"
  top: "conv3_1"
  param {
    lr_mult: 1
    decay_mult: 1
  }
  param {
    lr_mult: 1
    decay_mult: 0
  }
  bn_param {
    scale_filler {
      type: "constant"
      value: 1
    }
    shift_filler {
      type: "constant"
      value: 0.001
    }
  }
}
layer {
  name: "relu3_1"
  type: "ReLU"
  bottom: "conv3_1"
  top: "conv3_1"
}
layer {
  name: "conv3_2"
  type: "Convolution"
  bottom: "conv3_1"
  top: "conv3_2"
  param {
    lr_mult: 1
    decay_mult: 1
  }
  param {
    lr_mult: 2
    decay_mult: 0
  }
  convolution_param {
    num_output: 256
    pad: 1
    kernel_size: 3
    weight_filler {
      type: "msra"
    }
    bias_filler {
      type: "constant"
    }
  }
}
layer {
  name: "conv3_2_bn"
  type: "BN"
  bottom: "conv3_2"
  top: "conv3_2"
  param {
    lr_mult: 1
    decay_mult: 1
  }
  param {
    lr_mult: 1
    decay_mult: 0
  }
  bn_param {
    scale_filler {
      type: "constant"
      value: 1
    }
    shift_filler {
      type: "constant"
      value: 0.001
    }
  }
}
layer {
  name: "relu3_2"
  type: "ReLU"
  bottom: "conv3_2"
  top: "conv3_2"
}
layer {
  name: "conv3_3"
  type: "Convolution"
  bottom: "conv3_2"
  top: "conv3_3"
  param {
    lr_mult: 1
    decay_mult: 1
  }
  param {
    lr_mult: 2
    decay_mult: 0
  }
  convolution_param {
    num_output: 256
    pad: 1
    kernel_size: 3
    weight_filler {
      type: "msra"
    }
    bias_filler {
      type: "constant"
    }
  }
}
layer {
  name: "conv3_3_bn"
  type: "BN"
  bottom: "conv3_3"
  top: "conv3_3"
  param {
    lr_mult: 1
    decay_mult: 1
  }
  param {
    lr_mult: 1
    decay_mult: 0
  }
  bn_param {
    scale_filler {
      type: "constant"
      value: 1
    }
    shift_filler {
      type: "constant"
      value: 0.001
    }
  }
}
layer {
  name: "relu3_3"
  type: "ReLU"
  bottom: "conv3_3"
  top: "conv3_3"
}
layer {
  name: "pool3"
  type: "Pooling"
  bottom: "conv3_3"
  top: "pool3"
  top: "pool3_mask"
  pooling_param {
    pool: MAX
    kernel_size: 2
    stride: 2
  }
}
layer {
  name: "conv4_1"
  type: "Convolution"
  bottom: "pool3"
  top: "conv4_1"
  param {
    lr_mult: 1
    decay_mult: 1
  }
  param {
    lr_mult: 2
    decay_mult: 0
  }
  convolution_param {
    num_output: 512
    pad: 1
    kernel_size: 3
    weight_filler {
      type: "msra"
    }
    bias_filler {
      type: "constant"
    }
  }
}
layer {
  name: "conv4_1_bn"
  type: "BN"
  bottom: "conv4_1"
  top: "conv4_1"
  param {
    lr_mult: 1
    decay_mult: 1
  }
  param {
    lr_mult: 1
    decay_mult: 0
  }
  bn_param {
    scale_filler {
      type: "constant"
      value: 1
    }
    shift_filler {
      type: "constant"
      value: 0.001
    }
  }
}
layer {
  name: "relu4_1"
  type: "ReLU"
  bottom: "conv4_1"
  top: "conv4_1"
}
layer {
  name: "conv4_2"
  type: "Convolution"
  bottom: "conv4_1"
  top: "conv4_2"
  param {
    lr_mult: 1
    decay_mult: 1
  }
  param {
    lr_mult: 2
    decay_mult: 0
  }
  convolution_param {
    num_output: 512
    pad: 1
    kernel_size: 3
    weight_filler {
      type: "msra"
    }
    bias_filler {
      type: "constant"
    }
  }
}
layer {
  name: "conv4_2_bn"
  type: "BN"
  bottom: "conv4_2"
  top: "conv4_2"
  param {
    lr_mult: 1
    decay_mult: 1
  }
  param {
    lr_mult: 1
    decay_mult: 0
  }
  bn_param {
    scale_filler {
      type: "constant"
      value: 1
    }
    shift_filler {
      type: "constant"
      value: 0.001
    }
  }
}
layer {
  name: "relu4_2"
  type: "ReLU"
  bottom: "conv4_2"
  top: "conv4_2"
}
layer {
  name: "conv4_3"
  type: "Convolution"
  bottom: "conv4_2"
  top: "conv4_3"
  param {
    lr_mult: 1
    decay_mult: 1
  }
  param {
    lr_mult: 2
    decay_mult: 0
  }
  convolution_param {
    num_output: 512
    pad: 1
    kernel_size: 3
    weight_filler {
      type: "msra"
    }
    bias_filler {
      type: "constant"
    }
  }
}
layer {
  name: "conv4_3_bn"
  type: "BN"
  bottom: "conv4_3"
  top: "conv4_3"
  param {
    lr_mult: 1
    decay_mult: 1
  }
  param {
    lr_mult: 1
    decay_mult: 0
  }
  bn_param {
    scale_filler {
      type: "constant"
      value: 1
    }
    shift_filler {
      type: "constant"
      value: 0.001
    }
  }
}
layer {
  name: "relu4_3"
  type: "ReLU"
  bottom: "conv4_3"
  top: "conv4_3"
}
layer {
  name: "pool4"
  type: "Pooling"
  bottom: "conv4_3"
  top: "pool4"
  top: "pool4_mask"
  pooling_param {
    pool: MAX
    kernel_size: 2
    stride: 2
  }
}
layer {
  name: "conv5_1"
  type: "Convolution"
  bottom: "pool4"
  top: "conv5_1"
  param {
    lr_mult: 1
    decay_mult: 1
  }
  param {
    lr_mult: 2
    decay_mult: 0
  }
  convolution_param {
    num_output: 512
    pad: 1
    kernel_size: 3
    weight_filler {
      type: "msra"
    }
    bias_filler {
      type: "constant"
    }
  }
}
layer {
  name: "conv5_1_bn"
  type: "BN"
  bottom: "conv5_1"
  top: "conv5_1"
  param {
    lr_mult: 1
    decay_mult: 1
  }
  param {
    lr_mult: 1
    decay_mult: 0
  }
  bn_param {
    scale_filler {
      type: "constant"
      value: 1
    }
    shift_filler {
      type: "constant"
      value: 0.001
    }
  }
}
layer {
  name: "relu5_1"
  type: "ReLU"
  bottom: "conv5_1"
  top: "conv5_1"
}
layer {
  name: "conv5_2"
  type: "Convolution"
  bottom: "conv5_1"
  top: "conv5_2"
  param {
    lr_mult: 1
    decay_mult: 1
  }
  param {
    lr_mult: 2
    decay_mult: 0
  }
  convolution_param {
    num_output: 512
    pad: 1
    kernel_size: 3
    weight_filler {
      type: "msra"
    }
    bias_filler {
      type: "constant"
    }
  }
}
layer {
  name: "conv5_2_bn"
  type: "BN"
  bottom: "conv5_2"
  top: "conv5_2"
  param {
    lr_mult: 1
    decay_mult: 1
  }
  param {
    lr_mult: 1
    decay_mult: 0
  }
  bn_param {
    scale_filler {
      type: "constant"
      value: 1
    }
    shift_filler {
      type: "constant"
      value: 0.001
    }
  }
}
layer {
  name: "relu5_2"
  type: "ReLU"
  bottom: "conv5_2"
  top: "conv5_2"
}
layer {
  name: "conv5_3"
  type: "Convolution"
  bottom: "conv5_2"
  top: "conv5_3"
  param {
    lr_mult: 1
    decay_mult: 1
  }
  param {
    lr_mult: 2
    decay_mult: 0
  }
  convolution_param {
    num_output: 512
    pad: 1
    kernel_size: 3
    weight_filler {
      type: "msra"
    }
    bias_filler {
      type: "constant"
    }
  }
}
layer {
  name: "conv5_3_bn"
  type: "BN"
  bottom: "conv5_3"
  top: "conv5_3"
  param {
    lr_mult: 1
    decay_mult: 1
  }
  param {
    lr_mult: 1
    decay_mult: 0
  }
  bn_param {
    scale_filler {
      type: "constant"
      value: 1
    }
    shift_filler {
      type: "constant"
      value: 0.001
    }
  }
}
layer {
  name: "relu5_3"
  type: "ReLU"
  bottom: "conv5_3"
  top: "conv5_3"
}
layer {
  name: "pool5"
  type: "Pooling"
  bottom: "conv5_3"
  top: "pool5"
  top: "pool5_mask"
  pooling_param {
    pool: MAX
    kernel_size: 2
    stride: 2
  }
}
layer {
  name: "upsample5"
  type: "Upsample"
  bottom: "pool5"
  bottom: "pool5_mask"
  top: "pool5_D"
  upsample_param {
    scale: 2
    upsample_h: 23
    upsample_w: 30
  }
}
layer {
  name: "conv5_3_D"
  type: "Convolution"
  bottom: "pool5_D"
  top: "conv5_3_D"
  param {
    lr_mult: 1
    decay_mult: 1
  }
  param {
    lr_mult: 2
    decay_mult: 0
  }
  convolution_param {
    num_output: 512
    pad: 1
    kernel_size: 3
    weight_filler {
      type: "msra"
    }
    bias_filler {
      type: "constant"
    }
  }
}
layer {
  name: "conv5_3_D_bn"
  type: "BN"
  bottom: "conv5_3_D"
  top: "conv5_3_D"
  param {
    lr_mult: 1
    decay_mult: 1
  }
  param {
    lr_mult: 1
    decay_mult: 0
  }
  bn_param {
    scale_filler {
      type: "constant"
      value: 1
    }
    shift_filler {
      type: "constant"
      value: 0.001
    }
  }
}
layer {
  name: "relu5_3_D"
  type: "ReLU"
  bottom: "conv5_3_D"
  top: "conv5_3_D"
}
layer {
  name: "conv5_2_D"
  type: "Convolution"
  bottom: "conv5_3_D"
  top: "conv5_2_D"
  param {
    lr_mult: 1
    decay_mult: 1
  }
  param {
    lr_mult: 2
    decay_mult: 0
  }
  convolution_param {
    num_output: 512
    pad: 1
    kernel_size: 3
    weight_filler {
      type: "msra"
    }
    bias_filler {
      type: "constant"
    }
  }
}
layer {
  name: "conv5_2_D_bn"
  type: "BN"
  bottom: "conv5_2_D"
  top: "conv5_2_D"
  param {
    lr_mult: 1
    decay_mult: 1
  }
  param {
    lr_mult: 1
    decay_mult: 0
  }
  bn_param {
    scale_filler {
      type: "constant"
      value: 1
    }
    shift_filler {
      type: "constant"
      value: 0.001
    }
  }
}
layer {
  name: "relu5_2_D"
  type: "ReLU"
  bottom: "conv5_2_D"
  top: "conv5_2_D"
}
layer {
  name: "conv5_1_D"
  type: "Convolution"
  bottom: "conv5_2_D"
  top: "conv5_1_D"
  param {
    lr_mult: 1
    decay_mult: 1
  }
  param {
    lr_mult: 2
    decay_mult: 0
  }
  convolution_param {
    num_output: 512
    pad: 1
    kernel_size: 3
    weight_filler {
      type: "msra"
    }
    bias_filler {
      type: "constant"
    }
  }
}
layer {
  name: "conv5_1_D_bn"
  type: "BN"
  bottom: "conv5_1_D"
  top: "conv5_1_D"
  param {
    lr_mult: 1
    decay_mult: 1
  }
  param {
    lr_mult: 1
    decay_mult: 0
  }
  bn_param {
    scale_filler {
      type: "constant"
      value: 1
    }
    shift_filler {
      type: "constant"
      value: 0.001
    }
  }
}
layer {
  name: "relu5_1_D"
  type: "ReLU"
  bottom: "conv5_1_D"
  top: "conv5_1_D"
}
layer {
  name: "upsample4"
  type: "Upsample"
  bottom: "conv5_1_D"
  bottom: "pool4_mask"
  top: "pool4_D"
  upsample_param {
    scale: 2
    upsample_h: 45
    upsample_w: 60
  }
}
layer {
  name: "conv4_3_D"
  type: "Convolution"
  bottom: "pool4_D"
  top: "conv4_3_D"
  param {
    lr_mult: 1
    decay_mult: 1
  }
  param {
    lr_mult: 2
    decay_mult: 0
  }
  convolution_param {
    num_output: 512
    pad: 1
    kernel_size: 3
    weight_filler {
      type: "msra"
    }
    bias_filler {
      type: "constant"
    }
  }
}
layer {
  name: "conv4_3_D_bn"
  type: "BN"
  bottom: "conv4_3_D"
  top: "conv4_3_D"
  param {
    lr_mult: 1
    decay_mult: 1
  }
  param {
    lr_mult: 1
    decay_mult: 0
  }
  bn_param {
    scale_filler {
      type: "constant"
      value: 1
    }
    shift_filler {
      type: "constant"
      value: 0.001
    }
  }
}
layer {
  name: "relu4_3_D"
  type: "ReLU"
  bottom: "conv4_3_D"
  top: "conv4_3_D"
}
layer {
  name: "conv4_2_D"
  type: "Convolution"
  bottom: "conv4_3_D"
  top: "conv4_2_D"
  param {
    lr_mult: 1
    decay_mult: 1
  }
  param {
    lr_mult: 2
    decay_mult: 0
  }
  convolution_param {
    num_output: 512
    pad: 1
    kernel_size: 3
    weight_filler {
      type: "msra"
    }
    bias_filler {
      type: "constant"
    }
  }
}
layer {
  name: "conv4_2_D_bn"
  type: "BN"
  bottom: "conv4_2_D"
  top: "conv4_2_D"
  param {
    lr_mult: 1
    decay_mult: 1
  }
  param {
    lr_mult: 1
    decay_mult: 0
  }
  bn_param {
    scale_filler {
      type: "constant"
      value: 1
    }
    shift_filler {
      type: "constant"
      value: 0.001
    }
  }
}
layer {
  name: "relu4_2_D"
  type: "ReLU"
  bottom: "conv4_2_D"
  top: "conv4_2_D"
}
layer {
  name: "conv4_1_D"
  type: "Convolution"
  bottom: "conv4_2_D"
  top: "conv4_1_D"
  param {
    lr_mult: 1
    decay_mult: 1
  }
  param {
    lr_mult: 2
    decay_mult: 0
  }
  convolution_param {
    num_output: 256
    pad: 1
    kernel_size: 3
    weight_filler {
      type: "msra"
    }
    bias_filler {
      type: "constant"
    }
  }
}
layer {
  name: "conv4_1_D_bn"
  type: "BN"
  bottom: "conv4_1_D"
  top: "conv4_1_D"
  param {
    lr_mult: 1
    decay_mult: 1
  }
  param {
    lr_mult: 1
    decay_mult: 0
  }
  bn_param {
    scale_filler {
      type: "constant"
      value: 1
    }
    shift_filler {
      type: "constant"
      value: 0.001
    }
  }
}
layer {
  name: "relu4_1_D"
  type: "ReLU"
  bottom: "conv4_1_D"
  top: "conv4_1_D"
}
layer {
  name: "upsample3"
  type: "Upsample"
  bottom: "conv4_1_D"
  bottom: "pool3_mask"
  top: "pool3_D"
  upsample_param {
    scale: 2
  }
}
layer {
  name: "conv3_3_D"
  type: "Convolution"
  bottom: "pool3_D"
  top: "conv3_3_D"
  param {
    lr_mult: 1
    decay_mult: 1
  }
  param {
    lr_mult: 2
    decay_mult: 0
  }
  convolution_param {
    num_output: 256
    pad: 1
    kernel_size: 3
    weight_filler {
      type: "msra"
    }
    bias_filler {
      type: "constant"
    }
  }
}
layer {
  name: "conv3_3_D_bn"
  type: "BN"
  bottom: "conv3_3_D"
  top: "conv3_3_D"
  param {
    lr_mult: 1
    decay_mult: 1
  }
  param {
    lr_mult: 1
    decay_mult: 0
  }
  bn_param {
    scale_filler {
      type: "constant"
      value: 1
    }
    shift_filler {
      type: "constant"
      value: 0.001
    }
  }
}
layer {
  name: "relu3_3_D"
  type: "ReLU"
  bottom: "conv3_3_D"
  top: "conv3_3_D"
}
layer {
  name: "conv3_2_D"
  type: "Convolution"
  bottom: "conv3_3_D"
  top: "conv3_2_D"
  param {
    lr_mult: 1
    decay_mult: 1
  }
  param {
    lr_mult: 2
    decay_mult: 0
  }
  convolution_param {
    num_output: 256
    pad: 1
    kernel_size: 3
    weight_filler {
      type: "msra"
    }
    bias_filler {
      type: "constant"
    }
  }
}
layer {
  name: "conv3_2_D_bn"
  type: "BN"
  bottom: "conv3_2_D"
  top: "conv3_2_D"
  param {
    lr_mult: 1
    decay_mult: 1
  }
  param {
    lr_mult: 1
    decay_mult: 0
  }
  bn_param {
    scale_filler {
      type: "constant"
      value: 1
    }
    shift_filler {
      type: "constant"
      value: 0.001
    }
  }
}
layer {
  name: "relu3_2_D"
  type: "ReLU"
  bottom: "conv3_2_D"
  top: "conv3_2_D"
}
layer {
  name: "conv3_1_D"
  type: "Convolution"
  bottom: "conv3_2_D"
  top: "conv3_1_D"
  param {
    lr_mult: 1
    decay_mult: 1
  }
  param {
    lr_mult: 2
    decay_mult: 0
  }
  convolution_param {
    num_output: 128
    pad: 1
    kernel_size: 3
    weight_filler {
      type: "msra"
    }
    bias_filler {
      type: "constant"
    }
  }
}
layer {
  name: "conv3_1_D_bn"
  type: "BN"
  bottom: "conv3_1_D"
  top: "conv3_1_D"
  param {
    lr_mult: 1
    decay_mult: 1
  }
  param {
    lr_mult: 1
    decay_mult: 0
  }
  bn_param {
    scale_filler {
      type: "constant"
      value: 1
    }
    shift_filler {
      type: "constant"
      value: 0.001
    }
  }
}
layer {
  name: "relu3_1_D"
  type: "ReLU"
  bottom: "conv3_1_D"
  top: "conv3_1_D"
}
layer {
  name: "upsample2"
  type: "Upsample"
  bottom: "conv3_1_D"
  bottom: "pool2_mask"
  top: "pool2_D"
  upsample_param {
    scale: 2
  }
}
layer {
  name: "conv2_2_D"
  type: "Convolution"
  bottom: "pool2_D"
  top: "conv2_2_D"
  param {
    lr_mult: 1
    decay_mult: 1
  }
  param {
    lr_mult: 2
    decay_mult: 0
  }
  convolution_param {
    num_output: 128
    pad: 1
    kernel_size: 3
    weight_filler {
      type: "msra"
    }
    bias_filler {
      type: "constant"
    }
  }
}
layer {
  name: "conv2_2_D_bn"
  type: "BN"
  bottom: "conv2_2_D"
  top: "conv2_2_D"
  param {
    lr_mult: 1
    decay_mult: 1
  }
  param {
    lr_mult: 1
    decay_mult: 0
  }
  bn_param {
    scale_filler {
      type: "constant"
      value: 1
    }
    shift_filler {
      type: "constant"
      value: 0.001
    }
  }
}
layer {
  name: "relu2_2_D"
  type: "ReLU"
  bottom: "conv2_2_D"
  top: "conv2_2_D"
}
layer {
  name: "conv2_1_D"
  type: "Convolution"
  bottom: "conv2_2_D"
  top: "conv2_1_D"
  param {
    lr_mult: 1
    decay_mult: 1
  }
  param {
    lr_mult: 2
    decay_mult: 0
  }
  convolution_param {
    num_output: 64
    pad: 1
    kernel_size: 3
    weight_filler {
      type: "msra"
    }
    bias_filler {
      type: "constant"
    }
  }
}
layer {
  name: "conv2_1_D_bn"
  type: "BN"
  bottom: "conv2_1_D"
  top: "conv2_1_D"
  param {
    lr_mult: 1
    decay_mult: 1
  }
  param {
    lr_mult: 1
    decay_mult: 0
  }
  bn_param {
    scale_filler {
      type: "constant"
      value: 1
    }
    shift_filler {
      type: "constant"
      value: 0.001
    }
  }
}
layer {
  name: "relu2_1_D"
  type: "ReLU"
  bottom: "conv2_1_D"
  top: "conv2_1_D"
}
layer {
  name: "upsample1"
  type: "Upsample"
  bottom: "conv2_1_D"
  bottom: "pool1_mask"
  top: "pool1_D"
  upsample_param {
    scale: 2
  }
}
layer {
  name: "conv1_2_D"
  type: "Convolution"
  bottom: "pool1_D"
  top: "conv1_2_D"
  param {
    lr_mult: 1
    decay_mult: 1
  }
  param {
    lr_mult: 2
    decay_mult: 0
  }
  convolution_param {
    num_output: 64
    pad: 1
    kernel_size: 3
    weight_filler {
      type: "msra"
    }
    bias_filler {
      type: "constant"
    }
  }
}
layer {
  name: "conv1_2_D_bn"
  type: "BN"
  bottom: "conv1_2_D"
  top: "conv1_2_D"
  param {
    lr_mult: 1
    decay_mult: 1
  }
  param {
    lr_mult: 1
    decay_mult: 0
  }
  bn_param {
    scale_filler {
      type: "constant"
      value: 1
    }
    shift_filler {
      type: "constant"
      value: 0.001
    }
  }
}
layer {
  name: "relu1_2_D"
  type: "ReLU"
  bottom: "conv1_2_D"
  top: "conv1_2_D"
}
layer {
  name: "conv1_1_D"
  type: "Convolution"
  bottom: "conv1_2_D"
  top: "conv1_1_D"
  param {
    lr_mult: 1
    decay_mult: 1
  }
  param {
    lr_mult: 2
    decay_mult: 0
  }
  convolution_param {
    num_output: 4
    pad: 1
    kernel_size: 3
    weight_filler {
      type: "msra"
    }
    bias_filler {
      type: "constant"
    }
  }
}
layer {
  name: "loss"
  type: "SoftmaxWithLoss"
  bottom: "conv1_1_D"
  bottom: "label"
  top: "loss"
  loss_param {
    weight_by_label_freqs: true
    class_weighting: 0.9571
    class_weighting: 0.4144
    class_weighting: 1.173
    class_weighting: 1.0469
  }
  softmax_param {
    engine: CAFFE
  }
}
layer {
  name: "accuracy"
  type: "Accuracy"
  bottom: "conv1_1_D"
  bottom: "label"
  top: "accuracy"
  top: "per_class_accuracy"
}
I0619 12:26:14.695536 20124 layer_factory.hpp:77] Creating layer dataIR1
I0619 12:26:14.695569 20124 net.cpp:100] Creating Layer dataIR1
I0619 12:26:14.695574 20124 net.cpp:408] dataIR1 -> dataIR1
I0619 12:26:14.695596 20124 dense_image_only_data_layer.cpp:49] Opening file /home/mpopovic/workspace/weedNet-devel/SegNet-Tutorial/train_and_test_data/rit-18/10m_15m_20m_978_images/trainir1.txt
I0619 12:26:14.695909 20124 dense_image_only_data_layer.cpp:65] A total of 978 examples.
I0619 12:26:14.703531 20124 dense_image_only_data_layer.cpp:118] output data size: 5,1,360,480
I0619 12:26:14.704488 20124 net.cpp:150] Setting up dataIR1
I0619 12:26:14.704512 20124 net.cpp:157] Top shape: 5 1 360 480 (864000)
I0619 12:26:14.704530 20124 net.cpp:165] Memory required for data: 3456000
I0619 12:26:14.704537 20124 layer_factory.hpp:77] Creating layer dataIR2
I0619 12:26:14.704555 20124 net.cpp:100] Creating Layer dataIR2
I0619 12:26:14.704560 20124 net.cpp:408] dataIR2 -> dataIR2
I0619 12:26:14.704567 20124 dense_image_only_data_layer.cpp:49] Opening file /home/mpopovic/workspace/weedNet-devel/SegNet-Tutorial/train_and_test_data/rit-18/10m_15m_20m_978_images/trainir2.txt
I0619 12:26:14.704795 20124 dense_image_only_data_layer.cpp:65] A total of 978 examples.
I0619 12:26:14.707618 20124 dense_image_only_data_layer.cpp:118] output data size: 5,1,360,480
I0619 12:26:14.711592 20124 net.cpp:150] Setting up dataIR2
I0619 12:26:14.711609 20124 net.cpp:157] Top shape: 5 1 360 480 (864000)
I0619 12:26:14.711612 20124 net.cpp:165] Memory required for data: 6912000
I0619 12:26:14.711617 20124 layer_factory.hpp:77] Creating layer dataIR3
I0619 12:26:14.711625 20124 net.cpp:100] Creating Layer dataIR3
I0619 12:26:14.711629 20124 net.cpp:408] dataIR3 -> dataIR3
I0619 12:26:14.711637 20124 dense_image_only_data_layer.cpp:49] Opening file /home/mpopovic/workspace/weedNet-devel/SegNet-Tutorial/train_and_test_data/rit-18/10m_15m_20m_978_images/trainir3.txt
I0619 12:26:14.711855 20124 dense_image_only_data_layer.cpp:65] A total of 978 examples.
I0619 12:26:14.714618 20124 dense_image_only_data_layer.cpp:118] output data size: 5,1,360,480
I0619 12:26:14.715721 20124 net.cpp:150] Setting up dataIR3
I0619 12:26:14.715732 20124 net.cpp:157] Top shape: 5 1 360 480 (864000)
I0619 12:26:14.715734 20124 net.cpp:165] Memory required for data: 10368000
I0619 12:26:14.715739 20124 layer_factory.hpp:77] Creating layer dataRGB
I0619 12:26:14.715744 20124 net.cpp:100] Creating Layer dataRGB
I0619 12:26:14.715749 20124 net.cpp:408] dataRGB -> dataRGB
I0619 12:26:14.715754 20124 net.cpp:408] dataRGB -> label
I0619 12:26:14.715764 20124 dense_image_data_layer.cpp:49] Opening file /home/mpopovic/workspace/weedNet-devel/SegNet-Tutorial/train_and_test_data/rit-18/10m_15m_20m_978_images/train.txt
I0619 12:26:14.716727 20124 dense_image_data_layer.cpp:64] A total of 978 examples.
I0619 12:26:14.725431 20124 dense_image_data_layer.cpp:117] output data size: 5,3,360,480
I0619 12:26:14.731458 20124 net.cpp:150] Setting up dataRGB
I0619 12:26:14.731477 20124 net.cpp:157] Top shape: 5 3 360 480 (2592000)
I0619 12:26:14.731482 20124 net.cpp:157] Top shape: 5 1 360 480 (864000)
I0619 12:26:14.731485 20124 net.cpp:165] Memory required for data: 24192000
I0619 12:26:14.731489 20124 layer_factory.hpp:77] Creating layer label_dataRGB_1_split
I0619 12:26:14.731504 20124 net.cpp:100] Creating Layer label_dataRGB_1_split
I0619 12:26:14.731519 20124 net.cpp:434] label_dataRGB_1_split <- label
I0619 12:26:14.731532 20124 net.cpp:408] label_dataRGB_1_split -> label_dataRGB_1_split_0
I0619 12:26:14.731539 20124 net.cpp:408] label_dataRGB_1_split -> label_dataRGB_1_split_1
I0619 12:26:14.731601 20124 net.cpp:150] Setting up label_dataRGB_1_split
I0619 12:26:14.731606 20124 net.cpp:157] Top shape: 5 1 360 480 (864000)
I0619 12:26:14.731611 20124 net.cpp:157] Top shape: 5 1 360 480 (864000)
I0619 12:26:14.731616 20124 net.cpp:165] Memory required for data: 31104000
I0619 12:26:14.731619 20124 layer_factory.hpp:77] Creating layer data
I0619 12:26:14.731626 20124 net.cpp:100] Creating Layer data
I0619 12:26:14.731629 20124 net.cpp:434] data <- dataIR1
I0619 12:26:14.731633 20124 net.cpp:434] data <- dataIR2
I0619 12:26:14.731637 20124 net.cpp:434] data <- dataIR3
I0619 12:26:14.731642 20124 net.cpp:434] data <- dataRGB
I0619 12:26:14.731647 20124 net.cpp:408] data -> data
I0619 12:26:14.731664 20124 net.cpp:150] Setting up data
I0619 12:26:14.731669 20124 net.cpp:157] Top shape: 5 6 360 480 (5184000)
I0619 12:26:14.731673 20124 net.cpp:165] Memory required for data: 51840000
I0619 12:26:14.731676 20124 layer_factory.hpp:77] Creating layer multiconv1_1
I0619 12:26:14.731686 20124 net.cpp:100] Creating Layer multiconv1_1
I0619 12:26:14.731689 20124 net.cpp:434] multiconv1_1 <- data
I0619 12:26:14.731703 20124 net.cpp:408] multiconv1_1 -> conv1_1
I0619 12:26:15.099572 20124 net.cpp:150] Setting up multiconv1_1
I0619 12:26:15.099591 20124 net.cpp:157] Top shape: 5 64 360 480 (55296000)
I0619 12:26:15.099594 20124 net.cpp:165] Memory required for data: 273024000
I0619 12:26:15.099611 20124 layer_factory.hpp:77] Creating layer conv1_1_bn
I0619 12:26:15.099624 20124 net.cpp:100] Creating Layer conv1_1_bn
I0619 12:26:15.099628 20124 net.cpp:434] conv1_1_bn <- conv1_1
I0619 12:26:15.099637 20124 net.cpp:395] conv1_1_bn -> conv1_1 (in-place)
I0619 12:26:15.099921 20124 net.cpp:150] Setting up conv1_1_bn
I0619 12:26:15.099927 20124 net.cpp:157] Top shape: 5 64 360 480 (55296000)
I0619 12:26:15.099930 20124 net.cpp:165] Memory required for data: 494208000
I0619 12:26:15.099936 20124 layer_factory.hpp:77] Creating layer relu1_1
I0619 12:26:15.099943 20124 net.cpp:100] Creating Layer relu1_1
I0619 12:26:15.099946 20124 net.cpp:434] relu1_1 <- conv1_1
I0619 12:26:15.099951 20124 net.cpp:395] relu1_1 -> conv1_1 (in-place)
I0619 12:26:15.100097 20124 net.cpp:150] Setting up relu1_1
I0619 12:26:15.100103 20124 net.cpp:157] Top shape: 5 64 360 480 (55296000)
I0619 12:26:15.100106 20124 net.cpp:165] Memory required for data: 715392000
I0619 12:26:15.100109 20124 layer_factory.hpp:77] Creating layer conv1_2
I0619 12:26:15.100116 20124 net.cpp:100] Creating Layer conv1_2
I0619 12:26:15.100119 20124 net.cpp:434] conv1_2 <- conv1_1
I0619 12:26:15.100126 20124 net.cpp:408] conv1_2 -> conv1_2
I0619 12:26:15.102924 20124 net.cpp:150] Setting up conv1_2
I0619 12:26:15.102936 20124 net.cpp:157] Top shape: 5 64 360 480 (55296000)
I0619 12:26:15.102938 20124 net.cpp:165] Memory required for data: 936576000
I0619 12:26:15.102947 20124 layer_factory.hpp:77] Creating layer conv1_2_bn
I0619 12:26:15.102955 20124 net.cpp:100] Creating Layer conv1_2_bn
I0619 12:26:15.102959 20124 net.cpp:434] conv1_2_bn <- conv1_2
I0619 12:26:15.102965 20124 net.cpp:395] conv1_2_bn -> conv1_2 (in-place)
I0619 12:26:15.103247 20124 net.cpp:150] Setting up conv1_2_bn
I0619 12:26:15.103253 20124 net.cpp:157] Top shape: 5 64 360 480 (55296000)
I0619 12:26:15.103256 20124 net.cpp:165] Memory required for data: 1157760000
I0619 12:26:15.103261 20124 layer_factory.hpp:77] Creating layer relu1_2
I0619 12:26:15.103266 20124 net.cpp:100] Creating Layer relu1_2
I0619 12:26:15.103271 20124 net.cpp:434] relu1_2 <- conv1_2
I0619 12:26:15.103273 20124 net.cpp:395] relu1_2 -> conv1_2 (in-place)
I0619 12:26:15.103399 20124 net.cpp:150] Setting up relu1_2
I0619 12:26:15.103404 20124 net.cpp:157] Top shape: 5 64 360 480 (55296000)
I0619 12:26:15.103407 20124 net.cpp:165] Memory required for data: 1378944000
I0619 12:26:15.103410 20124 layer_factory.hpp:77] Creating layer pool1
I0619 12:26:15.103415 20124 layer_factory.cpp:91] cuDNN does not support multiple tops. Using Caffe's own pooling layer.
I0619 12:26:15.103420 20124 net.cpp:100] Creating Layer pool1
I0619 12:26:15.103422 20124 net.cpp:434] pool1 <- conv1_2
I0619 12:26:15.103427 20124 net.cpp:408] pool1 -> pool1
I0619 12:26:15.103435 20124 net.cpp:408] pool1 -> pool1_mask
I0619 12:26:15.103479 20124 net.cpp:150] Setting up pool1
I0619 12:26:15.103483 20124 net.cpp:157] Top shape: 5 64 180 240 (13824000)
I0619 12:26:15.103487 20124 net.cpp:157] Top shape: 5 64 180 240 (13824000)
I0619 12:26:15.103490 20124 net.cpp:165] Memory required for data: 1489536000
I0619 12:26:15.103493 20124 layer_factory.hpp:77] Creating layer conv2_1
I0619 12:26:15.103500 20124 net.cpp:100] Creating Layer conv2_1
I0619 12:26:15.103503 20124 net.cpp:434] conv2_1 <- pool1
I0619 12:26:15.103509 20124 net.cpp:408] conv2_1 -> conv2_1
I0619 12:26:15.106444 20124 net.cpp:150] Setting up conv2_1
I0619 12:26:15.106456 20124 net.cpp:157] Top shape: 5 128 180 240 (27648000)
I0619 12:26:15.106458 20124 net.cpp:165] Memory required for data: 1600128000
I0619 12:26:15.106467 20124 layer_factory.hpp:77] Creating layer conv2_1_bn
I0619 12:26:15.106473 20124 net.cpp:100] Creating Layer conv2_1_bn
I0619 12:26:15.106477 20124 net.cpp:434] conv2_1_bn <- conv2_1
I0619 12:26:15.106492 20124 net.cpp:395] conv2_1_bn -> conv2_1 (in-place)
I0619 12:26:15.106745 20124 net.cpp:150] Setting up conv2_1_bn
I0619 12:26:15.106750 20124 net.cpp:157] Top shape: 5 128 180 240 (27648000)
I0619 12:26:15.106753 20124 net.cpp:165] Memory required for data: 1710720000
I0619 12:26:15.106760 20124 layer_factory.hpp:77] Creating layer relu2_1
I0619 12:26:15.106765 20124 net.cpp:100] Creating Layer relu2_1
I0619 12:26:15.106767 20124 net.cpp:434] relu2_1 <- conv2_1
I0619 12:26:15.106772 20124 net.cpp:395] relu2_1 -> conv2_1 (in-place)
I0619 12:26:15.107121 20124 net.cpp:150] Setting up relu2_1
I0619 12:26:15.107128 20124 net.cpp:157] Top shape: 5 128 180 240 (27648000)
I0619 12:26:15.107131 20124 net.cpp:165] Memory required for data: 1821312000
I0619 12:26:15.107136 20124 layer_factory.hpp:77] Creating layer conv2_2
I0619 12:26:15.107144 20124 net.cpp:100] Creating Layer conv2_2
I0619 12:26:15.107147 20124 net.cpp:434] conv2_2 <- conv2_1
I0619 12:26:15.107153 20124 net.cpp:408] conv2_2 -> conv2_2
I0619 12:26:15.110582 20124 net.cpp:150] Setting up conv2_2
I0619 12:26:15.110590 20124 net.cpp:157] Top shape: 5 128 180 240 (27648000)
I0619 12:26:15.110594 20124 net.cpp:165] Memory required for data: 1931904000
I0619 12:26:15.110602 20124 layer_factory.hpp:77] Creating layer conv2_2_bn
I0619 12:26:15.110610 20124 net.cpp:100] Creating Layer conv2_2_bn
I0619 12:26:15.110612 20124 net.cpp:434] conv2_2_bn <- conv2_2
I0619 12:26:15.110617 20124 net.cpp:395] conv2_2_bn -> conv2_2 (in-place)
I0619 12:26:15.110868 20124 net.cpp:150] Setting up conv2_2_bn
I0619 12:26:15.110874 20124 net.cpp:157] Top shape: 5 128 180 240 (27648000)
I0619 12:26:15.110877 20124 net.cpp:165] Memory required for data: 2042496000
I0619 12:26:15.110882 20124 layer_factory.hpp:77] Creating layer relu2_2
I0619 12:26:15.110888 20124 net.cpp:100] Creating Layer relu2_2
I0619 12:26:15.110891 20124 net.cpp:434] relu2_2 <- conv2_2
I0619 12:26:15.110895 20124 net.cpp:395] relu2_2 -> conv2_2 (in-place)
I0619 12:26:15.111016 20124 net.cpp:150] Setting up relu2_2
I0619 12:26:15.111021 20124 net.cpp:157] Top shape: 5 128 180 240 (27648000)
I0619 12:26:15.111024 20124 net.cpp:165] Memory required for data: 2153088000
I0619 12:26:15.111027 20124 layer_factory.hpp:77] Creating layer pool2
I0619 12:26:15.111032 20124 layer_factory.cpp:91] cuDNN does not support multiple tops. Using Caffe's own pooling layer.
I0619 12:26:15.111037 20124 net.cpp:100] Creating Layer pool2
I0619 12:26:15.111040 20124 net.cpp:434] pool2 <- conv2_2
I0619 12:26:15.111045 20124 net.cpp:408] pool2 -> pool2
I0619 12:26:15.111050 20124 net.cpp:408] pool2 -> pool2_mask
I0619 12:26:15.111091 20124 net.cpp:150] Setting up pool2
I0619 12:26:15.111095 20124 net.cpp:157] Top shape: 5 128 90 120 (6912000)
I0619 12:26:15.111100 20124 net.cpp:157] Top shape: 5 128 90 120 (6912000)
I0619 12:26:15.111104 20124 net.cpp:165] Memory required for data: 2208384000
I0619 12:26:15.111106 20124 layer_factory.hpp:77] Creating layer conv3_1
I0619 12:26:15.111111 20124 net.cpp:100] Creating Layer conv3_1
I0619 12:26:15.111114 20124 net.cpp:434] conv3_1 <- pool2
I0619 12:26:15.111121 20124 net.cpp:408] conv3_1 -> conv3_1
I0619 12:26:15.117626 20124 net.cpp:150] Setting up conv3_1
I0619 12:26:15.117637 20124 net.cpp:157] Top shape: 5 256 90 120 (13824000)
I0619 12:26:15.117640 20124 net.cpp:165] Memory required for data: 2263680000
I0619 12:26:15.117650 20124 layer_factory.hpp:77] Creating layer conv3_1_bn
I0619 12:26:15.117657 20124 net.cpp:100] Creating Layer conv3_1_bn
I0619 12:26:15.117660 20124 net.cpp:434] conv3_1_bn <- conv3_1
I0619 12:26:15.117666 20124 net.cpp:395] conv3_1_bn -> conv3_1 (in-place)
I0619 12:26:15.117897 20124 net.cpp:150] Setting up conv3_1_bn
I0619 12:26:15.117902 20124 net.cpp:157] Top shape: 5 256 90 120 (13824000)
I0619 12:26:15.117904 20124 net.cpp:165] Memory required for data: 2318976000
I0619 12:26:15.117909 20124 layer_factory.hpp:77] Creating layer relu3_1
I0619 12:26:15.117914 20124 net.cpp:100] Creating Layer relu3_1
I0619 12:26:15.117918 20124 net.cpp:434] relu3_1 <- conv3_1
I0619 12:26:15.117931 20124 net.cpp:395] relu3_1 -> conv3_1 (in-place)
I0619 12:26:15.118059 20124 net.cpp:150] Setting up relu3_1
I0619 12:26:15.118065 20124 net.cpp:157] Top shape: 5 256 90 120 (13824000)
I0619 12:26:15.118068 20124 net.cpp:165] Memory required for data: 2374272000
I0619 12:26:15.118072 20124 layer_factory.hpp:77] Creating layer conv3_2
I0619 12:26:15.118079 20124 net.cpp:100] Creating Layer conv3_2
I0619 12:26:15.118083 20124 net.cpp:434] conv3_2 <- conv3_1
I0619 12:26:15.118088 20124 net.cpp:408] conv3_2 -> conv3_2
I0619 12:26:15.129341 20124 net.cpp:150] Setting up conv3_2
I0619 12:26:15.129351 20124 net.cpp:157] Top shape: 5 256 90 120 (13824000)
I0619 12:26:15.129355 20124 net.cpp:165] Memory required for data: 2429568000
I0619 12:26:15.129361 20124 layer_factory.hpp:77] Creating layer conv3_2_bn
I0619 12:26:15.129369 20124 net.cpp:100] Creating Layer conv3_2_bn
I0619 12:26:15.129372 20124 net.cpp:434] conv3_2_bn <- conv3_2
I0619 12:26:15.129379 20124 net.cpp:395] conv3_2_bn -> conv3_2 (in-place)
I0619 12:26:15.129606 20124 net.cpp:150] Setting up conv3_2_bn
I0619 12:26:15.129611 20124 net.cpp:157] Top shape: 5 256 90 120 (13824000)
I0619 12:26:15.129613 20124 net.cpp:165] Memory required for data: 2484864000
I0619 12:26:15.129621 20124 layer_factory.hpp:77] Creating layer relu3_2
I0619 12:26:15.129626 20124 net.cpp:100] Creating Layer relu3_2
I0619 12:26:15.129628 20124 net.cpp:434] relu3_2 <- conv3_2
I0619 12:26:15.129634 20124 net.cpp:395] relu3_2 -> conv3_2 (in-place)
I0619 12:26:15.129983 20124 net.cpp:150] Setting up relu3_2
I0619 12:26:15.129992 20124 net.cpp:157] Top shape: 5 256 90 120 (13824000)
I0619 12:26:15.129994 20124 net.cpp:165] Memory required for data: 2540160000
I0619 12:26:15.129997 20124 layer_factory.hpp:77] Creating layer conv3_3
I0619 12:26:15.130005 20124 net.cpp:100] Creating Layer conv3_3
I0619 12:26:15.130008 20124 net.cpp:434] conv3_3 <- conv3_2
I0619 12:26:15.130013 20124 net.cpp:408] conv3_3 -> conv3_3
I0619 12:26:15.141278 20124 net.cpp:150] Setting up conv3_3
I0619 12:26:15.141289 20124 net.cpp:157] Top shape: 5 256 90 120 (13824000)
I0619 12:26:15.141293 20124 net.cpp:165] Memory required for data: 2595456000
I0619 12:26:15.141299 20124 layer_factory.hpp:77] Creating layer conv3_3_bn
I0619 12:26:15.141306 20124 net.cpp:100] Creating Layer conv3_3_bn
I0619 12:26:15.141310 20124 net.cpp:434] conv3_3_bn <- conv3_3
I0619 12:26:15.141316 20124 net.cpp:395] conv3_3_bn -> conv3_3 (in-place)
I0619 12:26:15.141546 20124 net.cpp:150] Setting up conv3_3_bn
I0619 12:26:15.141551 20124 net.cpp:157] Top shape: 5 256 90 120 (13824000)
I0619 12:26:15.141554 20124 net.cpp:165] Memory required for data: 2650752000
I0619 12:26:15.141559 20124 layer_factory.hpp:77] Creating layer relu3_3
I0619 12:26:15.141564 20124 net.cpp:100] Creating Layer relu3_3
I0619 12:26:15.141568 20124 net.cpp:434] relu3_3 <- conv3_3
I0619 12:26:15.141574 20124 net.cpp:395] relu3_3 -> conv3_3 (in-place)
I0619 12:26:15.141695 20124 net.cpp:150] Setting up relu3_3
I0619 12:26:15.141701 20124 net.cpp:157] Top shape: 5 256 90 120 (13824000)
I0619 12:26:15.141705 20124 net.cpp:165] Memory required for data: 2706048000
I0619 12:26:15.141707 20124 layer_factory.hpp:77] Creating layer pool3
I0619 12:26:15.141712 20124 layer_factory.cpp:91] cuDNN does not support multiple tops. Using Caffe's own pooling layer.
I0619 12:26:15.141716 20124 net.cpp:100] Creating Layer pool3
I0619 12:26:15.141719 20124 net.cpp:434] pool3 <- conv3_3
I0619 12:26:15.141726 20124 net.cpp:408] pool3 -> pool3
I0619 12:26:15.141732 20124 net.cpp:408] pool3 -> pool3_mask
I0619 12:26:15.141773 20124 net.cpp:150] Setting up pool3
I0619 12:26:15.141778 20124 net.cpp:157] Top shape: 5 256 45 60 (3456000)
I0619 12:26:15.141782 20124 net.cpp:157] Top shape: 5 256 45 60 (3456000)
I0619 12:26:15.141785 20124 net.cpp:165] Memory required for data: 2733696000
I0619 12:26:15.141788 20124 layer_factory.hpp:77] Creating layer conv4_1
I0619 12:26:15.141795 20124 net.cpp:100] Creating Layer conv4_1
I0619 12:26:15.141798 20124 net.cpp:434] conv4_1 <- pool3
I0619 12:26:15.141813 20124 net.cpp:408] conv4_1 -> conv4_1
I0619 12:26:15.163779 20124 net.cpp:150] Setting up conv4_1
I0619 12:26:15.163792 20124 net.cpp:157] Top shape: 5 512 45 60 (6912000)
I0619 12:26:15.163795 20124 net.cpp:165] Memory required for data: 2761344000
I0619 12:26:15.163803 20124 layer_factory.hpp:77] Creating layer conv4_1_bn
I0619 12:26:15.163813 20124 net.cpp:100] Creating Layer conv4_1_bn
I0619 12:26:15.163818 20124 net.cpp:434] conv4_1_bn <- conv4_1
I0619 12:26:15.163826 20124 net.cpp:395] conv4_1_bn -> conv4_1 (in-place)
I0619 12:26:15.164062 20124 net.cpp:150] Setting up conv4_1_bn
I0619 12:26:15.164067 20124 net.cpp:157] Top shape: 5 512 45 60 (6912000)
I0619 12:26:15.164070 20124 net.cpp:165] Memory required for data: 2788992000
I0619 12:26:15.164075 20124 layer_factory.hpp:77] Creating layer relu4_1
I0619 12:26:15.164084 20124 net.cpp:100] Creating Layer relu4_1
I0619 12:26:15.164088 20124 net.cpp:434] relu4_1 <- conv4_1
I0619 12:26:15.164093 20124 net.cpp:395] relu4_1 -> conv4_1 (in-place)
I0619 12:26:15.164222 20124 net.cpp:150] Setting up relu4_1
I0619 12:26:15.164228 20124 net.cpp:157] Top shape: 5 512 45 60 (6912000)
I0619 12:26:15.164232 20124 net.cpp:165] Memory required for data: 2816640000
I0619 12:26:15.164234 20124 layer_factory.hpp:77] Creating layer conv4_2
I0619 12:26:15.164242 20124 net.cpp:100] Creating Layer conv4_2
I0619 12:26:15.164245 20124 net.cpp:434] conv4_2 <- conv4_1
I0619 12:26:15.164250 20124 net.cpp:408] conv4_2 -> conv4_2
I0619 12:26:15.205272 20124 net.cpp:150] Setting up conv4_2
I0619 12:26:15.205286 20124 net.cpp:157] Top shape: 5 512 45 60 (6912000)
I0619 12:26:15.205289 20124 net.cpp:165] Memory required for data: 2844288000
I0619 12:26:15.205307 20124 layer_factory.hpp:77] Creating layer conv4_2_bn
I0619 12:26:15.205317 20124 net.cpp:100] Creating Layer conv4_2_bn
I0619 12:26:15.205322 20124 net.cpp:434] conv4_2_bn <- conv4_2
I0619 12:26:15.205329 20124 net.cpp:395] conv4_2_bn -> conv4_2 (in-place)
I0619 12:26:15.205559 20124 net.cpp:150] Setting up conv4_2_bn
I0619 12:26:15.205564 20124 net.cpp:157] Top shape: 5 512 45 60 (6912000)
I0619 12:26:15.205567 20124 net.cpp:165] Memory required for data: 2871936000
I0619 12:26:15.205572 20124 layer_factory.hpp:77] Creating layer relu4_2
I0619 12:26:15.205579 20124 net.cpp:100] Creating Layer relu4_2
I0619 12:26:15.205581 20124 net.cpp:434] relu4_2 <- conv4_2
I0619 12:26:15.205586 20124 net.cpp:395] relu4_2 -> conv4_2 (in-place)
I0619 12:26:15.205711 20124 net.cpp:150] Setting up relu4_2
I0619 12:26:15.205716 20124 net.cpp:157] Top shape: 5 512 45 60 (6912000)
I0619 12:26:15.205719 20124 net.cpp:165] Memory required for data: 2899584000
I0619 12:26:15.205723 20124 layer_factory.hpp:77] Creating layer conv4_3
I0619 12:26:15.205730 20124 net.cpp:100] Creating Layer conv4_3
I0619 12:26:15.205734 20124 net.cpp:434] conv4_3 <- conv4_2
I0619 12:26:15.205739 20124 net.cpp:408] conv4_3 -> conv4_3
I0619 12:26:15.246856 20124 net.cpp:150] Setting up conv4_3
I0619 12:26:15.246871 20124 net.cpp:157] Top shape: 5 512 45 60 (6912000)
I0619 12:26:15.246875 20124 net.cpp:165] Memory required for data: 2927232000
I0619 12:26:15.246882 20124 layer_factory.hpp:77] Creating layer conv4_3_bn
I0619 12:26:15.246891 20124 net.cpp:100] Creating Layer conv4_3_bn
I0619 12:26:15.246896 20124 net.cpp:434] conv4_3_bn <- conv4_3
I0619 12:26:15.246904 20124 net.cpp:395] conv4_3_bn -> conv4_3 (in-place)
I0619 12:26:15.247134 20124 net.cpp:150] Setting up conv4_3_bn
I0619 12:26:15.247140 20124 net.cpp:157] Top shape: 5 512 45 60 (6912000)
I0619 12:26:15.247143 20124 net.cpp:165] Memory required for data: 2954880000
I0619 12:26:15.247148 20124 layer_factory.hpp:77] Creating layer relu4_3
I0619 12:26:15.247154 20124 net.cpp:100] Creating Layer relu4_3
I0619 12:26:15.247157 20124 net.cpp:434] relu4_3 <- conv4_3
I0619 12:26:15.247160 20124 net.cpp:395] relu4_3 -> conv4_3 (in-place)
I0619 12:26:15.247556 20124 net.cpp:150] Setting up relu4_3
I0619 12:26:15.247565 20124 net.cpp:157] Top shape: 5 512 45 60 (6912000)
I0619 12:26:15.247577 20124 net.cpp:165] Memory required for data: 2982528000
I0619 12:26:15.247579 20124 layer_factory.hpp:77] Creating layer pool4
I0619 12:26:15.247582 20124 layer_factory.cpp:91] cuDNN does not support multiple tops. Using Caffe's own pooling layer.
I0619 12:26:15.247584 20124 net.cpp:100] Creating Layer pool4
I0619 12:26:15.247586 20124 net.cpp:434] pool4 <- conv4_3
I0619 12:26:15.247591 20124 net.cpp:408] pool4 -> pool4
I0619 12:26:15.247596 20124 net.cpp:408] pool4 -> pool4_mask
I0619 12:26:15.247640 20124 net.cpp:150] Setting up pool4
I0619 12:26:15.247644 20124 net.cpp:157] Top shape: 5 512 23 30 (1766400)
I0619 12:26:15.247648 20124 net.cpp:157] Top shape: 5 512 23 30 (1766400)
I0619 12:26:15.247649 20124 net.cpp:165] Memory required for data: 2996659200
I0619 12:26:15.247650 20124 layer_factory.hpp:77] Creating layer conv5_1
I0619 12:26:15.247656 20124 net.cpp:100] Creating Layer conv5_1
I0619 12:26:15.247658 20124 net.cpp:434] conv5_1 <- pool4
I0619 12:26:15.247663 20124 net.cpp:408] conv5_1 -> conv5_1
I0619 12:26:15.288542 20124 net.cpp:150] Setting up conv5_1
I0619 12:26:15.288558 20124 net.cpp:157] Top shape: 5 512 23 30 (1766400)
I0619 12:26:15.288560 20124 net.cpp:165] Memory required for data: 3003724800
I0619 12:26:15.288568 20124 layer_factory.hpp:77] Creating layer conv5_1_bn
I0619 12:26:15.288575 20124 net.cpp:100] Creating Layer conv5_1_bn
I0619 12:26:15.288580 20124 net.cpp:434] conv5_1_bn <- conv5_1
I0619 12:26:15.288585 20124 net.cpp:395] conv5_1_bn -> conv5_1 (in-place)
I0619 12:26:15.288812 20124 net.cpp:150] Setting up conv5_1_bn
I0619 12:26:15.288817 20124 net.cpp:157] Top shape: 5 512 23 30 (1766400)
I0619 12:26:15.288818 20124 net.cpp:165] Memory required for data: 3010790400
I0619 12:26:15.288822 20124 layer_factory.hpp:77] Creating layer relu5_1
I0619 12:26:15.288826 20124 net.cpp:100] Creating Layer relu5_1
I0619 12:26:15.288828 20124 net.cpp:434] relu5_1 <- conv5_1
I0619 12:26:15.288830 20124 net.cpp:395] relu5_1 -> conv5_1 (in-place)
I0619 12:26:15.288954 20124 net.cpp:150] Setting up relu5_1
I0619 12:26:15.288959 20124 net.cpp:157] Top shape: 5 512 23 30 (1766400)
I0619 12:26:15.288960 20124 net.cpp:165] Memory required for data: 3017856000
I0619 12:26:15.288962 20124 layer_factory.hpp:77] Creating layer conv5_2
I0619 12:26:15.288967 20124 net.cpp:100] Creating Layer conv5_2
I0619 12:26:15.288970 20124 net.cpp:434] conv5_2 <- conv5_1
I0619 12:26:15.288975 20124 net.cpp:408] conv5_2 -> conv5_2
I0619 12:26:15.329891 20124 net.cpp:150] Setting up conv5_2
I0619 12:26:15.329905 20124 net.cpp:157] Top shape: 5 512 23 30 (1766400)
I0619 12:26:15.329908 20124 net.cpp:165] Memory required for data: 3024921600
I0619 12:26:15.329916 20124 layer_factory.hpp:77] Creating layer conv5_2_bn
I0619 12:26:15.329922 20124 net.cpp:100] Creating Layer conv5_2_bn
I0619 12:26:15.329926 20124 net.cpp:434] conv5_2_bn <- conv5_2
I0619 12:26:15.329936 20124 net.cpp:395] conv5_2_bn -> conv5_2 (in-place)
I0619 12:26:15.330166 20124 net.cpp:150] Setting up conv5_2_bn
I0619 12:26:15.330171 20124 net.cpp:157] Top shape: 5 512 23 30 (1766400)
I0619 12:26:15.330173 20124 net.cpp:165] Memory required for data: 3031987200
I0619 12:26:15.330175 20124 layer_factory.hpp:77] Creating layer relu5_2
I0619 12:26:15.330179 20124 net.cpp:100] Creating Layer relu5_2
I0619 12:26:15.330183 20124 net.cpp:434] relu5_2 <- conv5_2
I0619 12:26:15.330184 20124 net.cpp:395] relu5_2 -> conv5_2 (in-place)
I0619 12:26:15.330307 20124 net.cpp:150] Setting up relu5_2
I0619 12:26:15.330312 20124 net.cpp:157] Top shape: 5 512 23 30 (1766400)
I0619 12:26:15.330313 20124 net.cpp:165] Memory required for data: 3039052800
I0619 12:26:15.330315 20124 layer_factory.hpp:77] Creating layer conv5_3
I0619 12:26:15.330320 20124 net.cpp:100] Creating Layer conv5_3
I0619 12:26:15.330323 20124 net.cpp:434] conv5_3 <- conv5_2
I0619 12:26:15.330327 20124 net.cpp:408] conv5_3 -> conv5_3
I0619 12:26:15.371284 20124 net.cpp:150] Setting up conv5_3
I0619 12:26:15.371301 20124 net.cpp:157] Top shape: 5 512 23 30 (1766400)
I0619 12:26:15.371304 20124 net.cpp:165] Memory required for data: 3046118400
I0619 12:26:15.371325 20124 layer_factory.hpp:77] Creating layer conv5_3_bn
I0619 12:26:15.371333 20124 net.cpp:100] Creating Layer conv5_3_bn
I0619 12:26:15.371338 20124 net.cpp:434] conv5_3_bn <- conv5_3
I0619 12:26:15.371343 20124 net.cpp:395] conv5_3_bn -> conv5_3 (in-place)
I0619 12:26:15.371577 20124 net.cpp:150] Setting up conv5_3_bn
I0619 12:26:15.371582 20124 net.cpp:157] Top shape: 5 512 23 30 (1766400)
I0619 12:26:15.371584 20124 net.cpp:165] Memory required for data: 3053184000
I0619 12:26:15.371587 20124 layer_factory.hpp:77] Creating layer relu5_3
I0619 12:26:15.371592 20124 net.cpp:100] Creating Layer relu5_3
I0619 12:26:15.371593 20124 net.cpp:434] relu5_3 <- conv5_3
I0619 12:26:15.371598 20124 net.cpp:395] relu5_3 -> conv5_3 (in-place)
I0619 12:26:15.371997 20124 net.cpp:150] Setting up relu5_3
I0619 12:26:15.372004 20124 net.cpp:157] Top shape: 5 512 23 30 (1766400)
I0619 12:26:15.372007 20124 net.cpp:165] Memory required for data: 3060249600
I0619 12:26:15.372009 20124 layer_factory.hpp:77] Creating layer pool5
I0619 12:26:15.372012 20124 layer_factory.cpp:91] cuDNN does not support multiple tops. Using Caffe's own pooling layer.
I0619 12:26:15.372015 20124 net.cpp:100] Creating Layer pool5
I0619 12:26:15.372017 20124 net.cpp:434] pool5 <- conv5_3
I0619 12:26:15.372020 20124 net.cpp:408] pool5 -> pool5
I0619 12:26:15.372025 20124 net.cpp:408] pool5 -> pool5_mask
I0619 12:26:15.372071 20124 net.cpp:150] Setting up pool5
I0619 12:26:15.372076 20124 net.cpp:157] Top shape: 5 512 12 15 (460800)
I0619 12:26:15.372077 20124 net.cpp:157] Top shape: 5 512 12 15 (460800)
I0619 12:26:15.372079 20124 net.cpp:165] Memory required for data: 3063936000
I0619 12:26:15.372081 20124 layer_factory.hpp:77] Creating layer upsample5
I0619 12:26:15.372093 20124 net.cpp:100] Creating Layer upsample5
I0619 12:26:15.372097 20124 net.cpp:434] upsample5 <- pool5
I0619 12:26:15.372099 20124 net.cpp:434] upsample5 <- pool5_mask
I0619 12:26:15.372103 20124 net.cpp:408] upsample5 -> pool5_D
I0619 12:26:15.372130 20124 net.cpp:150] Setting up upsample5
I0619 12:26:15.372134 20124 net.cpp:157] Top shape: 5 512 23 30 (1766400)
I0619 12:26:15.372136 20124 net.cpp:165] Memory required for data: 3071001600
I0619 12:26:15.372138 20124 layer_factory.hpp:77] Creating layer conv5_3_D
I0619 12:26:15.372143 20124 net.cpp:100] Creating Layer conv5_3_D
I0619 12:26:15.372145 20124 net.cpp:434] conv5_3_D <- pool5_D
I0619 12:26:15.372149 20124 net.cpp:408] conv5_3_D -> conv5_3_D
I0619 12:26:15.413249 20124 net.cpp:150] Setting up conv5_3_D
I0619 12:26:15.413267 20124 net.cpp:157] Top shape: 5 512 23 30 (1766400)
I0619 12:26:15.413269 20124 net.cpp:165] Memory required for data: 3078067200
I0619 12:26:15.413277 20124 layer_factory.hpp:77] Creating layer conv5_3_D_bn
I0619 12:26:15.413286 20124 net.cpp:100] Creating Layer conv5_3_D_bn
I0619 12:26:15.413290 20124 net.cpp:434] conv5_3_D_bn <- conv5_3_D
I0619 12:26:15.413296 20124 net.cpp:395] conv5_3_D_bn -> conv5_3_D (in-place)
I0619 12:26:15.413527 20124 net.cpp:150] Setting up conv5_3_D_bn
I0619 12:26:15.413532 20124 net.cpp:157] Top shape: 5 512 23 30 (1766400)
I0619 12:26:15.413533 20124 net.cpp:165] Memory required for data: 3085132800
I0619 12:26:15.413537 20124 layer_factory.hpp:77] Creating layer relu5_3_D
I0619 12:26:15.413540 20124 net.cpp:100] Creating Layer relu5_3_D
I0619 12:26:15.413543 20124 net.cpp:434] relu5_3_D <- conv5_3_D
I0619 12:26:15.413545 20124 net.cpp:395] relu5_3_D -> conv5_3_D (in-place)
I0619 12:26:15.413671 20124 net.cpp:150] Setting up relu5_3_D
I0619 12:26:15.413676 20124 net.cpp:157] Top shape: 5 512 23 30 (1766400)
I0619 12:26:15.413678 20124 net.cpp:165] Memory required for data: 3092198400
I0619 12:26:15.413681 20124 layer_factory.hpp:77] Creating layer conv5_2_D
I0619 12:26:15.413686 20124 net.cpp:100] Creating Layer conv5_2_D
I0619 12:26:15.413688 20124 net.cpp:434] conv5_2_D <- conv5_3_D
I0619 12:26:15.413691 20124 net.cpp:408] conv5_2_D -> conv5_2_D
I0619 12:26:15.455085 20124 net.cpp:150] Setting up conv5_2_D
I0619 12:26:15.455111 20124 net.cpp:157] Top shape: 5 512 23 30 (1766400)
I0619 12:26:15.455113 20124 net.cpp:165] Memory required for data: 3099264000
I0619 12:26:15.455121 20124 layer_factory.hpp:77] Creating layer conv5_2_D_bn
I0619 12:26:15.455128 20124 net.cpp:100] Creating Layer conv5_2_D_bn
I0619 12:26:15.455132 20124 net.cpp:434] conv5_2_D_bn <- conv5_2_D
I0619 12:26:15.455137 20124 net.cpp:395] conv5_2_D_bn -> conv5_2_D (in-place)
I0619 12:26:15.455382 20124 net.cpp:150] Setting up conv5_2_D_bn
I0619 12:26:15.455387 20124 net.cpp:157] Top shape: 5 512 23 30 (1766400)
I0619 12:26:15.455389 20124 net.cpp:165] Memory required for data: 3106329600
I0619 12:26:15.455392 20124 layer_factory.hpp:77] Creating layer relu5_2_D
I0619 12:26:15.455396 20124 net.cpp:100] Creating Layer relu5_2_D
I0619 12:26:15.455399 20124 net.cpp:434] relu5_2_D <- conv5_2_D
I0619 12:26:15.455402 20124 net.cpp:395] relu5_2_D -> conv5_2_D (in-place)
I0619 12:26:15.455535 20124 net.cpp:150] Setting up relu5_2_D
I0619 12:26:15.455540 20124 net.cpp:157] Top shape: 5 512 23 30 (1766400)
I0619 12:26:15.455541 20124 net.cpp:165] Memory required for data: 3113395200
I0619 12:26:15.455564 20124 layer_factory.hpp:77] Creating layer conv5_1_D
I0619 12:26:15.455572 20124 net.cpp:100] Creating Layer conv5_1_D
I0619 12:26:15.455576 20124 net.cpp:434] conv5_1_D <- conv5_2_D
I0619 12:26:15.455584 20124 net.cpp:408] conv5_1_D -> conv5_1_D
I0619 12:26:15.496505 20124 net.cpp:150] Setting up conv5_1_D
I0619 12:26:15.496520 20124 net.cpp:157] Top shape: 5 512 23 30 (1766400)
I0619 12:26:15.496522 20124 net.cpp:165] Memory required for data: 3120460800
I0619 12:26:15.496531 20124 layer_factory.hpp:77] Creating layer conv5_1_D_bn
I0619 12:26:15.496541 20124 net.cpp:100] Creating Layer conv5_1_D_bn
I0619 12:26:15.496546 20124 net.cpp:434] conv5_1_D_bn <- conv5_1_D
I0619 12:26:15.496554 20124 net.cpp:395] conv5_1_D_bn -> conv5_1_D (in-place)
I0619 12:26:15.496794 20124 net.cpp:150] Setting up conv5_1_D_bn
I0619 12:26:15.496800 20124 net.cpp:157] Top shape: 5 512 23 30 (1766400)
I0619 12:26:15.496803 20124 net.cpp:165] Memory required for data: 3127526400
I0619 12:26:15.496809 20124 layer_factory.hpp:77] Creating layer relu5_1_D
I0619 12:26:15.496814 20124 net.cpp:100] Creating Layer relu5_1_D
I0619 12:26:15.496817 20124 net.cpp:434] relu5_1_D <- conv5_1_D
I0619 12:26:15.496821 20124 net.cpp:395] relu5_1_D -> conv5_1_D (in-place)
I0619 12:26:15.497215 20124 net.cpp:150] Setting up relu5_1_D
I0619 12:26:15.497225 20124 net.cpp:157] Top shape: 5 512 23 30 (1766400)
I0619 12:26:15.497227 20124 net.cpp:165] Memory required for data: 3134592000
I0619 12:26:15.497231 20124 layer_factory.hpp:77] Creating layer upsample4
I0619 12:26:15.497236 20124 net.cpp:100] Creating Layer upsample4
I0619 12:26:15.497239 20124 net.cpp:434] upsample4 <- conv5_1_D
I0619 12:26:15.497243 20124 net.cpp:434] upsample4 <- pool4_mask
I0619 12:26:15.497248 20124 net.cpp:408] upsample4 -> pool4_D
I0619 12:26:15.497282 20124 net.cpp:150] Setting up upsample4
I0619 12:26:15.497287 20124 net.cpp:157] Top shape: 5 512 45 60 (6912000)
I0619 12:26:15.497289 20124 net.cpp:165] Memory required for data: 3162240000
I0619 12:26:15.497292 20124 layer_factory.hpp:77] Creating layer conv4_3_D
I0619 12:26:15.497300 20124 net.cpp:100] Creating Layer conv4_3_D
I0619 12:26:15.497303 20124 net.cpp:434] conv4_3_D <- pool4_D
I0619 12:26:15.497309 20124 net.cpp:408] conv4_3_D -> conv4_3_D
I0619 12:26:15.538259 20124 net.cpp:150] Setting up conv4_3_D
I0619 12:26:15.538275 20124 net.cpp:157] Top shape: 5 512 45 60 (6912000)
I0619 12:26:15.538277 20124 net.cpp:165] Memory required for data: 3189888000
I0619 12:26:15.538302 20124 layer_factory.hpp:77] Creating layer conv4_3_D_bn
I0619 12:26:15.538312 20124 net.cpp:100] Creating Layer conv4_3_D_bn
I0619 12:26:15.538317 20124 net.cpp:434] conv4_3_D_bn <- conv4_3_D
I0619 12:26:15.538326 20124 net.cpp:395] conv4_3_D_bn -> conv4_3_D (in-place)
I0619 12:26:15.538574 20124 net.cpp:150] Setting up conv4_3_D_bn
I0619 12:26:15.538580 20124 net.cpp:157] Top shape: 5 512 45 60 (6912000)
I0619 12:26:15.538594 20124 net.cpp:165] Memory required for data: 3217536000
I0619 12:26:15.538599 20124 layer_factory.hpp:77] Creating layer relu4_3_D
I0619 12:26:15.538604 20124 net.cpp:100] Creating Layer relu4_3_D
I0619 12:26:15.538607 20124 net.cpp:434] relu4_3_D <- conv4_3_D
I0619 12:26:15.538612 20124 net.cpp:395] relu4_3_D -> conv4_3_D (in-place)
I0619 12:26:15.538743 20124 net.cpp:150] Setting up relu4_3_D
I0619 12:26:15.538749 20124 net.cpp:157] Top shape: 5 512 45 60 (6912000)
I0619 12:26:15.538753 20124 net.cpp:165] Memory required for data: 3245184000
I0619 12:26:15.538755 20124 layer_factory.hpp:77] Creating layer conv4_2_D
I0619 12:26:15.538766 20124 net.cpp:100] Creating Layer conv4_2_D
I0619 12:26:15.538770 20124 net.cpp:434] conv4_2_D <- conv4_3_D
I0619 12:26:15.538776 20124 net.cpp:408] conv4_2_D -> conv4_2_D
I0619 12:26:15.579708 20124 net.cpp:150] Setting up conv4_2_D
I0619 12:26:15.579723 20124 net.cpp:157] Top shape: 5 512 45 60 (6912000)
I0619 12:26:15.579726 20124 net.cpp:165] Memory required for data: 3272832000
I0619 12:26:15.579735 20124 layer_factory.hpp:77] Creating layer conv4_2_D_bn
I0619 12:26:15.579749 20124 net.cpp:100] Creating Layer conv4_2_D_bn
I0619 12:26:15.579756 20124 net.cpp:434] conv4_2_D_bn <- conv4_2_D
I0619 12:26:15.579761 20124 net.cpp:395] conv4_2_D_bn -> conv4_2_D (in-place)
I0619 12:26:15.580008 20124 net.cpp:150] Setting up conv4_2_D_bn
I0619 12:26:15.580014 20124 net.cpp:157] Top shape: 5 512 45 60 (6912000)
I0619 12:26:15.580016 20124 net.cpp:165] Memory required for data: 3300480000
I0619 12:26:15.580021 20124 layer_factory.hpp:77] Creating layer relu4_2_D
I0619 12:26:15.580027 20124 net.cpp:100] Creating Layer relu4_2_D
I0619 12:26:15.580032 20124 net.cpp:434] relu4_2_D <- conv4_2_D
I0619 12:26:15.580036 20124 net.cpp:395] relu4_2_D -> conv4_2_D (in-place)
I0619 12:26:15.580164 20124 net.cpp:150] Setting up relu4_2_D
I0619 12:26:15.580170 20124 net.cpp:157] Top shape: 5 512 45 60 (6912000)
I0619 12:26:15.580173 20124 net.cpp:165] Memory required for data: 3328128000
I0619 12:26:15.580178 20124 layer_factory.hpp:77] Creating layer conv4_1_D
I0619 12:26:15.580184 20124 net.cpp:100] Creating Layer conv4_1_D
I0619 12:26:15.580188 20124 net.cpp:434] conv4_1_D <- conv4_2_D
I0619 12:26:15.580193 20124 net.cpp:408] conv4_1_D -> conv4_1_D
I0619 12:26:15.601621 20124 net.cpp:150] Setting up conv4_1_D
I0619 12:26:15.601636 20124 net.cpp:157] Top shape: 5 256 45 60 (3456000)
I0619 12:26:15.601639 20124 net.cpp:165] Memory required for data: 3341952000
I0619 12:26:15.601647 20124 layer_factory.hpp:77] Creating layer conv4_1_D_bn
I0619 12:26:15.601656 20124 net.cpp:100] Creating Layer conv4_1_D_bn
I0619 12:26:15.601662 20124 net.cpp:434] conv4_1_D_bn <- conv4_1_D
I0619 12:26:15.601670 20124 net.cpp:395] conv4_1_D_bn -> conv4_1_D (in-place)
I0619 12:26:15.601934 20124 net.cpp:150] Setting up conv4_1_D_bn
I0619 12:26:15.601940 20124 net.cpp:157] Top shape: 5 256 45 60 (3456000)
I0619 12:26:15.601943 20124 net.cpp:165] Memory required for data: 3355776000
I0619 12:26:15.601949 20124 layer_factory.hpp:77] Creating layer relu4_1_D
I0619 12:26:15.601954 20124 net.cpp:100] Creating Layer relu4_1_D
I0619 12:26:15.601958 20124 net.cpp:434] relu4_1_D <- conv4_1_D
I0619 12:26:15.601963 20124 net.cpp:395] relu4_1_D -> conv4_1_D (in-place)
I0619 12:26:15.602095 20124 net.cpp:150] Setting up relu4_1_D
I0619 12:26:15.602100 20124 net.cpp:157] Top shape: 5 256 45 60 (3456000)
I0619 12:26:15.602103 20124 net.cpp:165] Memory required for data: 3369600000
I0619 12:26:15.602108 20124 layer_factory.hpp:77] Creating layer upsample3
I0619 12:26:15.602113 20124 net.cpp:100] Creating Layer upsample3
I0619 12:26:15.602118 20124 net.cpp:434] upsample3 <- conv4_1_D
I0619 12:26:15.602121 20124 net.cpp:434] upsample3 <- pool3_mask
I0619 12:26:15.602128 20124 net.cpp:408] upsample3 -> pool3_D
I0619 12:26:15.602133 20124 upsample_layer.cpp:27] Params 'pad_out_{}_' are deprecated. Please declare upsample height and width useing the upsample_h, upsample_w parameters.
I0619 12:26:15.602162 20124 net.cpp:150] Setting up upsample3
I0619 12:26:15.602174 20124 net.cpp:157] Top shape: 5 256 90 120 (13824000)
I0619 12:26:15.602177 20124 net.cpp:165] Memory required for data: 3424896000
I0619 12:26:15.602180 20124 layer_factory.hpp:77] Creating layer conv3_3_D
I0619 12:26:15.602188 20124 net.cpp:100] Creating Layer conv3_3_D
I0619 12:26:15.602191 20124 net.cpp:434] conv3_3_D <- pool3_D
I0619 12:26:15.602197 20124 net.cpp:408] conv3_3_D -> conv3_3_D
I0619 12:26:15.613579 20124 net.cpp:150] Setting up conv3_3_D
I0619 12:26:15.613590 20124 net.cpp:157] Top shape: 5 256 90 120 (13824000)
I0619 12:26:15.613593 20124 net.cpp:165] Memory required for data: 3480192000
I0619 12:26:15.613600 20124 layer_factory.hpp:77] Creating layer conv3_3_D_bn
I0619 12:26:15.613606 20124 net.cpp:100] Creating Layer conv3_3_D_bn
I0619 12:26:15.613610 20124 net.cpp:434] conv3_3_D_bn <- conv3_3_D
I0619 12:26:15.613616 20124 net.cpp:395] conv3_3_D_bn -> conv3_3_D (in-place)
I0619 12:26:15.613879 20124 net.cpp:150] Setting up conv3_3_D_bn
I0619 12:26:15.613885 20124 net.cpp:157] Top shape: 5 256 90 120 (13824000)
I0619 12:26:15.613888 20124 net.cpp:165] Memory required for data: 3535488000
I0619 12:26:15.613893 20124 layer_factory.hpp:77] Creating layer relu3_3_D
I0619 12:26:15.613898 20124 net.cpp:100] Creating Layer relu3_3_D
I0619 12:26:15.613903 20124 net.cpp:434] relu3_3_D <- conv3_3_D
I0619 12:26:15.613907 20124 net.cpp:395] relu3_3_D -> conv3_3_D (in-place)
I0619 12:26:15.614284 20124 net.cpp:150] Setting up relu3_3_D
I0619 12:26:15.614291 20124 net.cpp:157] Top shape: 5 256 90 120 (13824000)
I0619 12:26:15.614295 20124 net.cpp:165] Memory required for data: 3590784000
I0619 12:26:15.614297 20124 layer_factory.hpp:77] Creating layer conv3_2_D
I0619 12:26:15.614305 20124 net.cpp:100] Creating Layer conv3_2_D
I0619 12:26:15.614308 20124 net.cpp:434] conv3_2_D <- conv3_3_D
I0619 12:26:15.614315 20124 net.cpp:408] conv3_2_D -> conv3_2_D
I0619 12:26:15.625712 20124 net.cpp:150] Setting up conv3_2_D
I0619 12:26:15.625725 20124 net.cpp:157] Top shape: 5 256 90 120 (13824000)
I0619 12:26:15.625727 20124 net.cpp:165] Memory required for data: 3646080000
I0619 12:26:15.625735 20124 layer_factory.hpp:77] Creating layer conv3_2_D_bn
I0619 12:26:15.625741 20124 net.cpp:100] Creating Layer conv3_2_D_bn
I0619 12:26:15.625746 20124 net.cpp:434] conv3_2_D_bn <- conv3_2_D
I0619 12:26:15.625751 20124 net.cpp:395] conv3_2_D_bn -> conv3_2_D (in-place)
I0619 12:26:15.626016 20124 net.cpp:150] Setting up conv3_2_D_bn
I0619 12:26:15.626022 20124 net.cpp:157] Top shape: 5 256 90 120 (13824000)
I0619 12:26:15.626024 20124 net.cpp:165] Memory required for data: 3701376000
I0619 12:26:15.626029 20124 layer_factory.hpp:77] Creating layer relu3_2_D
I0619 12:26:15.626035 20124 net.cpp:100] Creating Layer relu3_2_D
I0619 12:26:15.626039 20124 net.cpp:434] relu3_2_D <- conv3_2_D
I0619 12:26:15.626044 20124 net.cpp:395] relu3_2_D -> conv3_2_D (in-place)
I0619 12:26:15.626174 20124 net.cpp:150] Setting up relu3_2_D
I0619 12:26:15.626180 20124 net.cpp:157] Top shape: 5 256 90 120 (13824000)
I0619 12:26:15.626183 20124 net.cpp:165] Memory required for data: 3756672000
I0619 12:26:15.626186 20124 layer_factory.hpp:77] Creating layer conv3_1_D
I0619 12:26:15.626194 20124 net.cpp:100] Creating Layer conv3_1_D
I0619 12:26:15.626196 20124 net.cpp:434] conv3_1_D <- conv3_2_D
I0619 12:26:15.626204 20124 net.cpp:408] conv3_1_D -> conv3_1_D
I0619 12:26:15.632787 20124 net.cpp:150] Setting up conv3_1_D
I0619 12:26:15.632797 20124 net.cpp:157] Top shape: 5 128 90 120 (6912000)
I0619 12:26:15.632799 20124 net.cpp:165] Memory required for data: 3784320000
I0619 12:26:15.632807 20124 layer_factory.hpp:77] Creating layer conv3_1_D_bn
I0619 12:26:15.632815 20124 net.cpp:100] Creating Layer conv3_1_D_bn
I0619 12:26:15.632818 20124 net.cpp:434] conv3_1_D_bn <- conv3_1_D
I0619 12:26:15.632823 20124 net.cpp:395] conv3_1_D_bn -> conv3_1_D (in-place)
I0619 12:26:15.633102 20124 net.cpp:150] Setting up conv3_1_D_bn
I0619 12:26:15.633108 20124 net.cpp:157] Top shape: 5 128 90 120 (6912000)
I0619 12:26:15.633111 20124 net.cpp:165] Memory required for data: 3811968000
I0619 12:26:15.633126 20124 layer_factory.hpp:77] Creating layer relu3_1_D
I0619 12:26:15.633132 20124 net.cpp:100] Creating Layer relu3_1_D
I0619 12:26:15.633136 20124 net.cpp:434] relu3_1_D <- conv3_1_D
I0619 12:26:15.633139 20124 net.cpp:395] relu3_1_D -> conv3_1_D (in-place)
I0619 12:26:15.633270 20124 net.cpp:150] Setting up relu3_1_D
I0619 12:26:15.633275 20124 net.cpp:157] Top shape: 5 128 90 120 (6912000)
I0619 12:26:15.633278 20124 net.cpp:165] Memory required for data: 3839616000
I0619 12:26:15.633281 20124 layer_factory.hpp:77] Creating layer upsample2
I0619 12:26:15.633287 20124 net.cpp:100] Creating Layer upsample2
I0619 12:26:15.633291 20124 net.cpp:434] upsample2 <- conv3_1_D
I0619 12:26:15.633296 20124 net.cpp:434] upsample2 <- pool2_mask
I0619 12:26:15.633301 20124 net.cpp:408] upsample2 -> pool2_D
I0619 12:26:15.633306 20124 upsample_layer.cpp:27] Params 'pad_out_{}_' are deprecated. Please declare upsample height and width useing the upsample_h, upsample_w parameters.
I0619 12:26:15.633334 20124 net.cpp:150] Setting up upsample2
I0619 12:26:15.633342 20124 net.cpp:157] Top shape: 5 128 180 240 (27648000)
I0619 12:26:15.633344 20124 net.cpp:165] Memory required for data: 3950208000
I0619 12:26:15.633347 20124 layer_factory.hpp:77] Creating layer conv2_2_D
I0619 12:26:15.633354 20124 net.cpp:100] Creating Layer conv2_2_D
I0619 12:26:15.633358 20124 net.cpp:434] conv2_2_D <- pool2_D
I0619 12:26:15.633363 20124 net.cpp:408] conv2_2_D -> conv2_2_D
I0619 12:26:15.636940 20124 net.cpp:150] Setting up conv2_2_D
I0619 12:26:15.636947 20124 net.cpp:157] Top shape: 5 128 180 240 (27648000)
I0619 12:26:15.636951 20124 net.cpp:165] Memory required for data: 4060800000
I0619 12:26:15.636957 20124 layer_factory.hpp:77] Creating layer conv2_2_D_bn
I0619 12:26:15.636965 20124 net.cpp:100] Creating Layer conv2_2_D_bn
I0619 12:26:15.636967 20124 net.cpp:434] conv2_2_D_bn <- conv2_2_D
I0619 12:26:15.636973 20124 net.cpp:395] conv2_2_D_bn -> conv2_2_D (in-place)
I0619 12:26:15.637264 20124 net.cpp:150] Setting up conv2_2_D_bn
I0619 12:26:15.637269 20124 net.cpp:157] Top shape: 5 128 180 240 (27648000)
I0619 12:26:15.637272 20124 net.cpp:165] Memory required for data: 4171392000
I0619 12:26:15.637277 20124 layer_factory.hpp:77] Creating layer relu2_2_D
I0619 12:26:15.637284 20124 net.cpp:100] Creating Layer relu2_2_D
I0619 12:26:15.637287 20124 net.cpp:434] relu2_2_D <- conv2_2_D
I0619 12:26:15.637290 20124 net.cpp:395] relu2_2_D -> conv2_2_D (in-place)
I0619 12:26:15.637678 20124 net.cpp:150] Setting up relu2_2_D
I0619 12:26:15.637687 20124 net.cpp:157] Top shape: 5 128 180 240 (27648000)
I0619 12:26:15.637691 20124 net.cpp:165] Memory required for data: 4281984000
I0619 12:26:15.637693 20124 layer_factory.hpp:77] Creating layer conv2_1_D
I0619 12:26:15.637701 20124 net.cpp:100] Creating Layer conv2_1_D
I0619 12:26:15.637703 20124 net.cpp:434] conv2_1_D <- conv2_2_D
I0619 12:26:15.637709 20124 net.cpp:408] conv2_1_D -> conv2_1_D
I0619 12:26:15.640097 20124 net.cpp:150] Setting up conv2_1_D
I0619 12:26:15.640105 20124 net.cpp:157] Top shape: 5 64 180 240 (13824000)
I0619 12:26:15.640110 20124 net.cpp:165] Memory required for data: 4337280000
I0619 12:26:15.640115 20124 layer_factory.hpp:77] Creating layer conv2_1_D_bn
I0619 12:26:15.640123 20124 net.cpp:100] Creating Layer conv2_1_D_bn
I0619 12:26:15.640126 20124 net.cpp:434] conv2_1_D_bn <- conv2_1_D
I0619 12:26:15.640131 20124 net.cpp:395] conv2_1_D_bn -> conv2_1_D (in-place)
I0619 12:26:15.641134 20124 net.cpp:150] Setting up conv2_1_D_bn
I0619 12:26:15.641141 20124 net.cpp:157] Top shape: 5 64 180 240 (13824000)
I0619 12:26:15.641144 20124 net.cpp:165] Memory required for data: 4392576000
I0619 12:26:15.641149 20124 layer_factory.hpp:77] Creating layer relu2_1_D
I0619 12:26:15.641155 20124 net.cpp:100] Creating Layer relu2_1_D
I0619 12:26:15.641156 20124 net.cpp:434] relu2_1_D <- conv2_1_D
I0619 12:26:15.641160 20124 net.cpp:395] relu2_1_D -> conv2_1_D (in-place)
I0619 12:26:15.641296 20124 net.cpp:150] Setting up relu2_1_D
I0619 12:26:15.641307 20124 net.cpp:157] Top shape: 5 64 180 240 (13824000)
I0619 12:26:15.641310 20124 net.cpp:165] Memory required for data: 4447872000
I0619 12:26:15.641312 20124 layer_factory.hpp:77] Creating layer upsample1
I0619 12:26:15.641315 20124 net.cpp:100] Creating Layer upsample1
I0619 12:26:15.641317 20124 net.cpp:434] upsample1 <- conv2_1_D
I0619 12:26:15.641320 20124 net.cpp:434] upsample1 <- pool1_mask
I0619 12:26:15.641324 20124 net.cpp:408] upsample1 -> pool1_D
I0619 12:26:15.641330 20124 upsample_layer.cpp:27] Params 'pad_out_{}_' are deprecated. Please declare upsample height and width useing the upsample_h, upsample_w parameters.
I0619 12:26:15.641356 20124 net.cpp:150] Setting up upsample1
I0619 12:26:15.641360 20124 net.cpp:157] Top shape: 5 64 360 480 (55296000)
I0619 12:26:15.641361 20124 net.cpp:165] Memory required for data: 4669056000
I0619 12:26:15.641363 20124 layer_factory.hpp:77] Creating layer conv1_2_D
I0619 12:26:15.641371 20124 net.cpp:100] Creating Layer conv1_2_D
I0619 12:26:15.641373 20124 net.cpp:434] conv1_2_D <- pool1_D
I0619 12:26:15.641376 20124 net.cpp:408] conv1_2_D -> conv1_2_D
I0619 12:26:15.643647 20124 net.cpp:150] Setting up conv1_2_D
I0619 12:26:15.643656 20124 net.cpp:157] Top shape: 5 64 360 480 (55296000)
I0619 12:26:15.643657 20124 net.cpp:165] Memory required for data: 4890240000
I0619 12:26:15.643661 20124 layer_factory.hpp:77] Creating layer conv1_2_D_bn
I0619 12:26:15.643669 20124 net.cpp:100] Creating Layer conv1_2_D_bn
I0619 12:26:15.643672 20124 net.cpp:434] conv1_2_D_bn <- conv1_2_D
I0619 12:26:15.643676 20124 net.cpp:395] conv1_2_D_bn -> conv1_2_D (in-place)
I0619 12:26:15.644006 20124 net.cpp:150] Setting up conv1_2_D_bn
I0619 12:26:15.644011 20124 net.cpp:157] Top shape: 5 64 360 480 (55296000)
I0619 12:26:15.644012 20124 net.cpp:165] Memory required for data: 5111424000
I0619 12:26:15.644016 20124 layer_factory.hpp:77] Creating layer relu1_2_D
I0619 12:26:15.644021 20124 net.cpp:100] Creating Layer relu1_2_D
I0619 12:26:15.644022 20124 net.cpp:434] relu1_2_D <- conv1_2_D
I0619 12:26:15.644026 20124 net.cpp:395] relu1_2_D -> conv1_2_D (in-place)
I0619 12:26:15.644158 20124 net.cpp:150] Setting up relu1_2_D
I0619 12:26:15.644163 20124 net.cpp:157] Top shape: 5 64 360 480 (55296000)
I0619 12:26:15.644165 20124 net.cpp:165] Memory required for data: 5332608000
I0619 12:26:15.644167 20124 layer_factory.hpp:77] Creating layer conv1_1_D
I0619 12:26:15.644171 20124 net.cpp:100] Creating Layer conv1_1_D
I0619 12:26:15.644174 20124 net.cpp:434] conv1_1_D <- conv1_2_D
I0619 12:26:15.644178 20124 net.cpp:408] conv1_1_D -> conv1_1_D
I0619 12:26:15.645879 20124 net.cpp:150] Setting up conv1_1_D
I0619 12:26:15.645886 20124 net.cpp:157] Top shape: 5 4 360 480 (3456000)
I0619 12:26:15.645889 20124 net.cpp:165] Memory required for data: 5346432000
I0619 12:26:15.645891 20124 layer_factory.hpp:77] Creating layer conv1_1_D_conv1_1_D_0_split
I0619 12:26:15.645896 20124 net.cpp:100] Creating Layer conv1_1_D_conv1_1_D_0_split
I0619 12:26:15.645900 20124 net.cpp:434] conv1_1_D_conv1_1_D_0_split <- conv1_1_D
I0619 12:26:15.645902 20124 net.cpp:408] conv1_1_D_conv1_1_D_0_split -> conv1_1_D_conv1_1_D_0_split_0
I0619 12:26:15.645907 20124 net.cpp:408] conv1_1_D_conv1_1_D_0_split -> conv1_1_D_conv1_1_D_0_split_1
I0619 12:26:15.645956 20124 net.cpp:150] Setting up conv1_1_D_conv1_1_D_0_split
I0619 12:26:15.645959 20124 net.cpp:157] Top shape: 5 4 360 480 (3456000)
I0619 12:26:15.645961 20124 net.cpp:157] Top shape: 5 4 360 480 (3456000)
I0619 12:26:15.645963 20124 net.cpp:165] Memory required for data: 5374080000
I0619 12:26:15.645965 20124 layer_factory.hpp:77] Creating layer loss
I0619 12:26:15.645972 20124 net.cpp:100] Creating Layer loss
I0619 12:26:15.645974 20124 net.cpp:434] loss <- conv1_1_D_conv1_1_D_0_split_0
I0619 12:26:15.645977 20124 net.cpp:434] loss <- label_dataRGB_1_split_0
I0619 12:26:15.645979 20124 net.cpp:408] loss -> loss
I0619 12:26:15.645987 20124 layer_factory.hpp:77] Creating layer loss
I0619 12:26:15.650593 20124 net.cpp:150] Setting up loss
I0619 12:26:15.650614 20124 net.cpp:157] Top shape: (1)
I0619 12:26:15.650633 20124 net.cpp:160]     with loss weight 1
I0619 12:26:15.650652 20124 net.cpp:165] Memory required for data: 5374080004
I0619 12:26:15.650656 20124 layer_factory.hpp:77] Creating layer accuracy
I0619 12:26:15.650663 20124 net.cpp:100] Creating Layer accuracy
I0619 12:26:15.650667 20124 net.cpp:434] accuracy <- conv1_1_D_conv1_1_D_0_split_1
I0619 12:26:15.650672 20124 net.cpp:434] accuracy <- label_dataRGB_1_split_1
I0619 12:26:15.650678 20124 net.cpp:408] accuracy -> accuracy
I0619 12:26:15.650684 20124 net.cpp:408] accuracy -> per_class_accuracy
I0619 12:26:15.650775 20124 net.cpp:150] Setting up accuracy
I0619 12:26:15.650780 20124 net.cpp:157] Top shape: (1)
I0619 12:26:15.650782 20124 net.cpp:157] Top shape: 4 (4)
I0619 12:26:15.650784 20124 net.cpp:165] Memory required for data: 5374080024
I0619 12:26:15.650786 20124 net.cpp:228] accuracy does not need backward computation.
I0619 12:26:15.650789 20124 net.cpp:226] loss needs backward computation.
I0619 12:26:15.650790 20124 net.cpp:226] conv1_1_D_conv1_1_D_0_split needs backward computation.
I0619 12:26:15.650792 20124 net.cpp:226] conv1_1_D needs backward computation.
…
