…
  dense_image_data_param {
    source: "/home/mpopovic/workspace/weedNet-devel/SegNet-Tutorial/train_and_test_data/rit-18/10m_15m_20m/trainir3.txt"
    batch_size: 5
    shuffle: false
    new_height: 360
    new_width: 480
    is_color: false
  }
}
layer {
  name: "dataRGB"
  type: "DenseImageData"
  top: "dataRGB"
  top: "label"
  dense_image_data_param {
    source: "/home/mpopovic/workspace/weedNet-devel/SegNet-Tutorial/train_and_test_data/rit-18/10m_15m_20m/train.txt"
    batch_size: 5
    shuffle: false
    new_height: 360
    new_width: 480
    is_color: true
  }
}
layer {
  name: "data"
  type: "Concat"
  bottom: "dataIR1"
  bottom: "dataIR2"
  bottom: "dataIR3"
  bottom: "dataRGB"
  top: "data"
  concat_param {
    axis: 1
  }
}
layer {
  name: "multiconv1_1"
  type: "Convolution"
  bottom: "data"
  top: "conv1_1"
  param {
    lr_mult: 1
    decay_mult: 1
  }
  param {
    lr_mult: 2
    decay_mult: 0
  }
  convolution_param {
    num_output: 64
    pad: 1
    kernel_size: 3
    weight_filler {
      type: "msra"
    }
    bias_filler {
      type: "constant"
    }
  }
}
layer {
  name: "conv1_1_bn"
  type: "BN"
  bottom: "conv1_1"
  top: "conv1_1"
  param {
    lr_mult: 1
    decay_mult: 1
  }
  param {
    lr_mult: 1
    decay_mult: 0
  }
  bn_param {
    scale_filler {
      type: "constant"
      value: 1
    }
    shift_filler {
      type: "constant"
      value: 0.001
    }
  }
}
layer {
  name: "relu1_1"
  type: "ReLU"
  bottom: "conv1_1"
  top: "conv1_1"
}
layer {
  name: "conv1_2"
  type: "Convolution"
  bottom: "conv1_1"
  top: "conv1_2"
  param {
    lr_mult: 1
    decay_mult: 1
  }
  param {
    lr_mult: 2
    decay_mult: 0
  }
  convolution_param {
    num_output: 64
    pad: 1
    kernel_size: 3
    weight_filler {
      type: "msra"
    }
    bias_filler {
      type: "constant"
    }
  }
}
layer {
  name: "conv1_2_bn"
  type: "BN"
  bottom: "conv1_2"
  top: "conv1_2"
  param {
    lr_mult: 1
    decay_mult: 1
  }
  param {
    lr_mult: 1
    decay_mult: 0
  }
  bn_param {
    scale_filler {
      type: "constant"
      value: 1
    }
    shift_filler {
      type: "constant"
      value: 0.001
    }
  }
}
layer {
  name: "relu1_2"
  type: "ReLU"
  bottom: "conv1_2"
  top: "conv1_2"
}
layer {
  name: "pool1"
  type: "Pooling"
  bottom: "conv1_2"
  top: "pool1"
  top: "pool1_mask"
  pooling_param {
    pool: MAX
    kernel_size: 2
    stride: 2
  }
}
layer {
  name: "conv2_1"
  type: "Convolution"
  bottom: "pool1"
  top: "conv2_1"
  param {
    lr_mult: 1
    decay_mult: 1
  }
  param {
    lr_mult: 2
    decay_mult: 0
  }
  convolution_param {
    num_output: 128
    pad: 1
    kernel_size: 3
    weight_filler {
      type: "msra"
    }
    bias_filler {
      type: "constant"
    }
  }
}
layer {
  name: "conv2_1_bn"
  type: "BN"
  bottom: "conv2_1"
  top: "conv2_1"
  param {
    lr_mult: 1
    decay_mult: 1
  }
  param {
    lr_mult: 1
    decay_mult: 0
  }
  bn_param {
    scale_filler {
      type: "constant"
      value: 1
    }
    shift_filler {
      type: "constant"
      value: 0.001
    }
  }
}
layer {
  name: "relu2_1"
  type: "ReLU"
  bottom: "conv2_1"
  top: "conv2_1"
}
layer {
  name: "conv2_2"
  type: "Convolution"
  bottom: "conv2_1"
  top: "conv2_2"
  param {
    lr_mult: 1
    decay_mult: 1
  }
  param {
    lr_mult: 2
    decay_mult: 0
  }
  convolution_param {
    num_output: 128
    pad: 1
    kernel_size: 3
    weight_filler {
      type: "msra"
    }
    bias_filler {
      type: "constant"
    }
  }
}
layer {
  name: "conv2_2_bn"
  type: "BN"
  bottom: "conv2_2"
  top: "conv2_2"
  param {
    lr_mult: 1
    decay_mult: 1
  }
  param {
    lr_mult: 1
    decay_mult: 0
  }
  bn_param {
    scale_filler {
      type: "constant"
      value: 1
    }
    shift_filler {
      type: "constant"
      value: 0.001
    }
  }
}
layer {
  name: "relu2_2"
  type: "ReLU"
  bottom: "conv2_2"
  top: "conv2_2"
}
layer {
  name: "pool2"
  type: "Pooling"
  bottom: "conv2_2"
  top: "pool2"
  top: "pool2_mask"
  pooling_param {
    pool: MAX
    kernel_size: 2
    stride: 2
  }
}
layer {
  name: "conv3_1"
  type: "Convolution"
  bottom: "pool2"
  top: "conv3_1"
  param {
    lr_mult: 1
    decay_mult: 1
  }
  param {
    lr_mult: 2
    decay_mult: 0
  }
  convolution_param {
    num_output: 256
    pad: 1
    kernel_size: 3
    weight_filler {
      type: "msra"
    }
    bias_filler {
      type: "constant"
    }
  }
}
layer {
  name: "conv3_1_bn"
  type: "BN"
  bottom: "conv3_1"
  top: "conv3_1"
  param {
    lr_mult: 1
    decay_mult: 1
  }
  param {
    lr_mult: 1
    decay_mult: 0
  }
  bn_param {
    scale_filler {
      type: "constant"
      value: 1
    }
    shift_filler {
      type: "constant"
      value: 0.001
    }
  }
}
layer {
  name: "relu3_1"
  type: "ReLU"
  bottom: "conv3_1"
  top: "conv3_1"
}
layer {
  name: "conv3_2"
  type: "Convolution"
  bottom: "conv3_1"
  top: "conv3_2"
  param {
    lr_mult: 1
    decay_mult: 1
  }
  param {
    lr_mult: 2
    decay_mult: 0
  }
  convolution_param {
    num_output: 256
    pad: 1
    kernel_size: 3
    weight_filler {
      type: "msra"
    }
    bias_filler {
      type: "constant"
    }
  }
}
layer {
  name: "conv3_2_bn"
  type: "BN"
  bottom: "conv3_2"
  top: "conv3_2"
  param {
    lr_mult: 1
    decay_mult: 1
  }
  param {
    lr_mult: 1
    decay_mult: 0
  }
  bn_param {
    scale_filler {
      type: "constant"
      value: 1
    }
    shift_filler {
      type: "constant"
      value: 0.001
    }
  }
}
layer {
  name: "relu3_2"
  type: "ReLU"
  bottom: "conv3_2"
  top: "conv3_2"
}
layer {
  name: "conv3_3"
  type: "Convolution"
  bottom: "conv3_2"
  top: "conv3_3"
  param {
    lr_mult: 1
    decay_mult: 1
  }
  param {
    lr_mult: 2
    decay_mult: 0
  }
  convolution_param {
    num_output: 256
    pad: 1
    kernel_size: 3
    weight_filler {
      type: "msra"
    }
    bias_filler {
      type: "constant"
    }
  }
}
layer {
  name: "conv3_3_bn"
  type: "BN"
  bottom: "conv3_3"
  top: "conv3_3"
  param {
    lr_mult: 1
    decay_mult: 1
  }
  param {
    lr_mult: 1
    decay_mult: 0
  }
  bn_param {
    scale_filler {
      type: "constant"
      value: 1
    }
    shift_filler {
      type: "constant"
      value: 0.001
    }
  }
}
layer {
  name: "relu3_3"
  type: "ReLU"
  bottom: "conv3_3"
  top: "conv3_3"
}
layer {
  name: "pool3"
  type: "Pooling"
  bottom: "conv3_3"
  top: "pool3"
  top: "pool3_mask"
  pooling_param {
    pool: MAX
    kernel_size: 2
    stride: 2
  }
}
layer {
  name: "conv4_1"
  type: "Convolution"
  bottom: "pool3"
  top: "conv4_1"
  param {
    lr_mult: 1
    decay_mult: 1
  }
  param {
    lr_mult: 2
    decay_mult: 0
  }
  convolution_param {
    num_output: 512
    pad: 1
    kernel_size: 3
    weight_filler {
      type: "msra"
    }
    bias_filler {
      type: "constant"
    }
  }
}
layer {
  name: "conv4_1_bn"
  type: "BN"
  bottom: "conv4_1"
  top: "conv4_1"
  param {
    lr_mult: 1
    decay_mult: 1
  }
  param {
    lr_mult: 1
    decay_mult: 0
  }
  bn_param {
    scale_filler {
      type: "constant"
      value: 1
    }
    shift_filler {
      type: "constant"
      value: 0.001
    }
  }
}
layer {
  name: "relu4_1"
  type: "ReLU"
  bottom: "conv4_1"
  top: "conv4_1"
}
layer {
  name: "conv4_2"
  type: "Convolution"
  bottom: "conv4_1"
  top: "conv4_2"
  param {
    lr_mult: 1
    decay_mult: 1
  }
  param {
    lr_mult: 2
    decay_mult: 0
  }
  convolution_param {
    num_output: 512
    pad: 1
    kernel_size: 3
    weight_filler {
      type: "msra"
    }
    bias_filler {
      type: "constant"
    }
  }
}
layer {
  name: "conv4_2_bn"
  type: "BN"
  bottom: "conv4_2"
  top: "conv4_2"
  param {
    lr_mult: 1
    decay_mult: 1
  }
  param {
    lr_mult: 1
    decay_mult: 0
  }
  bn_param {
    scale_filler {
      type: "constant"
      value: 1
    }
    shift_filler {
      type: "constant"
      value: 0.001
    }
  }
}
layer {
  name: "relu4_2"
  type: "ReLU"
  bottom: "conv4_2"
  top: "conv4_2"
}
layer {
  name: "conv4_3"
  type: "Convolution"
  bottom: "conv4_2"
  top: "conv4_3"
  param {
    lr_mult: 1
    decay_mult: 1
  }
  param {
    lr_mult: 2
    decay_mult: 0
  }
  convolution_param {
    num_output: 512
    pad: 1
    kernel_size: 3
    weight_filler {
      type: "msra"
    }
    bias_filler {
      type: "constant"
    }
  }
}
layer {
  name: "conv4_3_bn"
  type: "BN"
  bottom: "conv4_3"
  top: "conv4_3"
  param {
    lr_mult: 1
    decay_mult: 1
  }
  param {
    lr_mult: 1
    decay_mult: 0
  }
  bn_param {
    scale_filler {
      type: "constant"
      value: 1
    }
    shift_filler {
      type: "constant"
      value: 0.001
    }
  }
}
layer {
  name: "relu4_3"
  type: "ReLU"
  bottom: "conv4_3"
  top: "conv4_3"
}
layer {
  name: "pool4"
  type: "Pooling"
  bottom: "conv4_3"
  top: "pool4"
  top: "pool4_mask"
  pooling_param {
    pool: MAX
    kernel_size: 2
    stride: 2
  }
}
layer {
  name: "conv5_1"
  type: "Convolution"
  bottom: "pool4"
  top: "conv5_1"
  param {
    lr_mult: 1
    decay_mult: 1
  }
  param {
    lr_mult: 2
    decay_mult: 0
  }
  convolution_param {
    num_output: 512
    pad: 1
    kernel_size: 3
    weight_filler {
      type: "msra"
    }
    bias_filler {
      type: "constant"
    }
  }
}
layer {
  name: "conv5_1_bn"
  type: "BN"
  bottom: "conv5_1"
  top: "conv5_1"
  param {
    lr_mult: 1
    decay_mult: 1
  }
  param {
    lr_mult: 1
    decay_mult: 0
  }
  bn_param {
    scale_filler {
      type: "constant"
      value: 1
    }
    shift_filler {
      type: "constant"
      value: 0.001
    }
  }
}
layer {
  name: "relu5_1"
  type: "ReLU"
  bottom: "conv5_1"
  top: "conv5_1"
}
layer {
  name: "conv5_2"
  type: "Convolution"
  bottom: "conv5_1"
  top: "conv5_2"
  param {
    lr_mult: 1
    decay_mult: 1
  }
  param {
    lr_mult: 2
    decay_mult: 0
  }
  convolution_param {
    num_output: 512
    pad: 1
    kernel_size: 3
    weight_filler {
      type: "msra"
    }
    bias_filler {
      type: "constant"
    }
  }
}
layer {
  name: "conv5_2_bn"
  type: "BN"
  bottom: "conv5_2"
  top: "conv5_2"
  param {
    lr_mult: 1
    decay_mult: 1
  }
  param {
    lr_mult: 1
    decay_mult: 0
  }
  bn_param {
    scale_filler {
      type: "constant"
      value: 1
    }
    shift_filler {
      type: "constant"
      value: 0.001
    }
  }
}
layer {
  name: "relu5_2"
  type: "ReLU"
  bottom: "conv5_2"
  top: "conv5_2"
}
layer {
  name: "conv5_3"
  type: "Convolution"
  bottom: "conv5_2"
  top: "conv5_3"
  param {
    lr_mult: 1
    decay_mult: 1
  }
  param {
    lr_mult: 2
    decay_mult: 0
  }
  convolution_param {
    num_output: 512
    pad: 1
    kernel_size: 3
    weight_filler {
      type: "msra"
    }
    bias_filler {
      type: "constant"
    }
  }
}
layer {
  name: "conv5_3_bn"
  type: "BN"
  bottom: "conv5_3"
  top: "conv5_3"
  param {
    lr_mult: 1
    decay_mult: 1
  }
  param {
    lr_mult: 1
    decay_mult: 0
  }
  bn_param {
    scale_filler {
      type: "constant"
      value: 1
    }
    shift_filler {
      type: "constant"
      value: 0.001
    }
  }
}
layer {
  name: "relu5_3"
  type: "ReLU"
  bottom: "conv5_3"
  top: "conv5_3"
}
layer {
  name: "pool5"
  type: "Pooling"
  bottom: "conv5_3"
  top: "pool5"
  top: "pool5_mask"
  pooling_param {
    pool: MAX
    kernel_size: 2
    stride: 2
  }
}
layer {
  name: "upsample5"
  type: "Upsample"
  bottom: "pool5"
  bottom: "pool5_mask"
  top: "pool5_D"
  upsample_param {
    scale: 2
    upsample_h: 23
    upsample_w: 30
  }
}
layer {
  name: "conv5_3_D"
  type: "Convolution"
  bottom: "pool5_D"
  top: "conv5_3_D"
  param {
    lr_mult: 1
    decay_mult: 1
  }
  param {
    lr_mult: 2
    decay_mult: 0
  }
  convolution_param {
    num_output: 512
    pad: 1
    kernel_size: 3
    weight_filler {
      type: "msra"
    }
    bias_filler {
      type: "constant"
    }
  }
}
layer {
  name: "conv5_3_D_bn"
  type: "BN"
  bottom: "conv5_3_D"
  top: "conv5_3_D"
  param {
    lr_mult: 1
    decay_mult: 1
  }
  param {
    lr_mult: 1
    decay_mult: 0
  }
  bn_param {
    scale_filler {
      type: "constant"
      value: 1
    }
    shift_filler {
      type: "constant"
      value: 0.001
    }
  }
}
layer {
  name: "relu5_3_D"
  type: "ReLU"
  bottom: "conv5_3_D"
  top: "conv5_3_D"
}
layer {
  name: "conv5_2_D"
  type: "Convolution"
  bottom: "conv5_3_D"
  top: "conv5_2_D"
  param {
    lr_mult: 1
    decay_mult: 1
  }
  param {
    lr_mult: 2
    decay_mult: 0
  }
  convolution_param {
    num_output: 512
    pad: 1
    kernel_size: 3
    weight_filler {
      type: "msra"
    }
    bias_filler {
      type: "constant"
    }
  }
}
layer {
  name: "conv5_2_D_bn"
  type: "BN"
  bottom: "conv5_2_D"
  top: "conv5_2_D"
  param {
    lr_mult: 1
    decay_mult: 1
  }
  param {
    lr_mult: 1
    decay_mult: 0
  }
  bn_param {
    scale_filler {
      type: "constant"
      value: 1
    }
    shift_filler {
      type: "constant"
      value: 0.001
    }
  }
}
layer {
  name: "relu5_2_D"
  type: "ReLU"
  bottom: "conv5_2_D"
  top: "conv5_2_D"
}
layer {
  name: "conv5_1_D"
  type: "Convolution"
  bottom: "conv5_2_D"
  top: "conv5_1_D"
  param {
    lr_mult: 1
    decay_mult: 1
  }
  param {
    lr_mult: 2
    decay_mult: 0
  }
  convolution_param {
    num_output: 512
    pad: 1
    kernel_size: 3
    weight_filler {
      type: "msra"
    }
    bias_filler {
      type: "constant"
    }
  }
}
layer {
  name: "conv5_1_D_bn"
  type: "BN"
  bottom: "conv5_1_D"
  top: "conv5_1_D"
  param {
    lr_mult: 1
    decay_mult: 1
  }
  param {
    lr_mult: 1
    decay_mult: 0
  }
  bn_param {
    scale_filler {
      type: "constant"
      value: 1
    }
    shift_filler {
      type: "constant"
      value: 0.001
    }
  }
}
layer {
  name: "relu5_1_D"
  type: "ReLU"
  bottom: "conv5_1_D"
  top: "conv5_1_D"
}
layer {
  name: "upsample4"
  type: "Upsample"
  bottom: "conv5_1_D"
  bottom: "pool4_mask"
  top: "pool4_D"
  upsample_param {
    scale: 2
    upsample_h: 45
    upsample_w: 60
  }
}
layer {
  name: "conv4_3_D"
  type: "Convolution"
  bottom: "pool4_D"
  top: "conv4_3_D"
  param {
    lr_mult: 1
    decay_mult: 1
  }
  param {
    lr_mult: 2
    decay_mult: 0
  }
  convolution_param {
    num_output: 512
    pad: 1
    kernel_size: 3
    weight_filler {
      type: "msra"
    }
    bias_filler {
      type: "constant"
    }
  }
}
layer {
  name: "conv4_3_D_bn"
  type: "BN"
  bottom: "conv4_3_D"
  top: "conv4_3_D"
  param {
    lr_mult: 1
    decay_mult: 1
  }
  param {
    lr_mult: 1
    decay_mult: 0
  }
  bn_param {
    scale_filler {
      type: "constant"
      value: 1
    }
    shift_filler {
      type: "constant"
      value: 0.001
    }
  }
}
layer {
  name: "relu4_3_D"
  type: "ReLU"
  bottom: "conv4_3_D"
  top: "conv4_3_D"
}
layer {
  name: "conv4_2_D"
  type: "Convolution"
  bottom: "conv4_3_D"
  top: "conv4_2_D"
  param {
    lr_mult: 1
    decay_mult: 1
  }
  param {
    lr_mult: 2
    decay_mult: 0
  }
  convolution_param {
    num_output: 512
    pad: 1
    kernel_size: 3
    weight_filler {
      type: "msra"
    }
    bias_filler {
      type: "constant"
    }
  }
}
layer {
  name: "conv4_2_D_bn"
  type: "BN"
  bottom: "conv4_2_D"
  top: "conv4_2_D"
  param {
    lr_mult: 1
    decay_mult: 1
  }
  param {
    lr_mult: 1
    decay_mult: 0
  }
  bn_param {
    scale_filler {
      type: "constant"
      value: 1
    }
    shift_filler {
      type: "constant"
      value: 0.001
    }
  }
}
layer {
  name: "relu4_2_D"
  type: "ReLU"
  bottom: "conv4_2_D"
  top: "conv4_2_D"
}
layer {
  name: "conv4_1_D"
  type: "Convolution"
  bottom: "conv4_2_D"
  top: "conv4_1_D"
  param {
    lr_mult: 1
    decay_mult: 1
  }
  param {
    lr_mult: 2
    decay_mult: 0
  }
  convolution_param {
    num_output: 256
    pad: 1
    kernel_size: 3
    weight_filler {
      type: "msra"
    }
    bias_filler {
      type: "constant"
    }
  }
}
layer {
  name: "conv4_1_D_bn"
  type: "BN"
  bottom: "conv4_1_D"
  top: "conv4_1_D"
  param {
    lr_mult: 1
    decay_mult: 1
  }
  param {
    lr_mult: 1
    decay_mult: 0
  }
  bn_param {
    scale_filler {
      type: "constant"
      value: 1
    }
    shift_filler {
      type: "constant"
      value: 0.001
    }
  }
}
layer {
  name: "relu4_1_D"
  type: "ReLU"
  bottom: "conv4_1_D"
  top: "conv4_1_D"
}
layer {
  name: "upsample3"
  type: "Upsample"
  bottom: "conv4_1_D"
  bottom: "pool3_mask"
  top: "pool3_D"
  upsample_param {
    scale: 2
  }
}
layer {
  name: "conv3_3_D"
  type: "Convolution"
  bottom: "pool3_D"
  top: "conv3_3_D"
  param {
    lr_mult: 1
    decay_mult: 1
  }
  param {
    lr_mult: 2
    decay_mult: 0
  }
  convolution_param {
    num_output: 256
    pad: 1
    kernel_size: 3
    weight_filler {
      type: "msra"
    }
    bias_filler {
      type: "constant"
    }
  }
}
layer {
  name: "conv3_3_D_bn"
  type: "BN"
  bottom: "conv3_3_D"
  top: "conv3_3_D"
  param {
    lr_mult: 1
    decay_mult: 1
  }
  param {
    lr_mult: 1
    decay_mult: 0
  }
  bn_param {
    scale_filler {
      type: "constant"
      value: 1
    }
    shift_filler {
      type: "constant"
      value: 0.001
    }
  }
}
layer {
  name: "relu3_3_D"
  type: "ReLU"
  bottom: "conv3_3_D"
  top: "conv3_3_D"
}
layer {
  name: "conv3_2_D"
  type: "Convolution"
  bottom: "conv3_3_D"
  top: "conv3_2_D"
  param {
    lr_mult: 1
    decay_mult: 1
  }
  param {
    lr_mult: 2
    decay_mult: 0
  }
  convolution_param {
    num_output: 256
    pad: 1
    kernel_size: 3
    weight_filler {
      type: "msra"
    }
    bias_filler {
      type: "constant"
    }
  }
}
layer {
  name: "conv3_2_D_bn"
  type: "BN"
  bottom: "conv3_2_D"
  top: "conv3_2_D"
  param {
    lr_mult: 1
    decay_mult: 1
  }
  param {
    lr_mult: 1
    decay_mult: 0
  }
  bn_param {
    scale_filler {
      type: "constant"
      value: 1
    }
    shift_filler {
      type: "constant"
      value: 0.001
    }
  }
}
layer {
  name: "relu3_2_D"
  type: "ReLU"
  bottom: "conv3_2_D"
  top: "conv3_2_D"
}
layer {
  name: "conv3_1_D"
  type: "Convolution"
  bottom: "conv3_2_D"
  top: "conv3_1_D"
  param {
    lr_mult: 1
    decay_mult: 1
  }
  param {
    lr_mult: 2
    decay_mult: 0
  }
  convolution_param {
    num_output: 128
    pad: 1
    kernel_size: 3
    weight_filler {
      type: "msra"
    }
    bias_filler {
      type: "constant"
    }
  }
}
layer {
  name: "conv3_1_D_bn"
  type: "BN"
  bottom: "conv3_1_D"
  top: "conv3_1_D"
  param {
    lr_mult: 1
    decay_mult: 1
  }
  param {
    lr_mult: 1
    decay_mult: 0
  }
  bn_param {
    scale_filler {
      type: "constant"
      value: 1
    }
    shift_filler {
      type: "constant"
      value: 0.001
    }
  }
}
layer {
  name: "relu3_1_D"
  type: "ReLU"
  bottom: "conv3_1_D"
  top: "conv3_1_D"
}
layer {
  name: "upsample2"
  type: "Upsample"
  bottom: "conv3_1_D"
  bottom: "pool2_mask"
  top: "pool2_D"
  upsample_param {
    scale: 2
  }
}
layer {
  name: "conv2_2_D"
  type: "Convolution"
  bottom: "pool2_D"
  top: "conv2_2_D"
  param {
    lr_mult: 1
    decay_mult: 1
  }
  param {
    lr_mult: 2
    decay_mult: 0
  }
  convolution_param {
    num_output: 128
    pad: 1
    kernel_size: 3
    weight_filler {
      type: "msra"
    }
    bias_filler {
      type: "constant"
    }
  }
}
layer {
  name: "conv2_2_D_bn"
  type: "BN"
  bottom: "conv2_2_D"
  top: "conv2_2_D"
  param {
    lr_mult: 1
    decay_mult: 1
  }
  param {
    lr_mult: 1
    decay_mult: 0
  }
  bn_param {
    scale_filler {
      type: "constant"
      value: 1
    }
    shift_filler {
      type: "constant"
      value: 0.001
    }
  }
}
layer {
  name: "relu2_2_D"
  type: "ReLU"
  bottom: "conv2_2_D"
  top: "conv2_2_D"
}
layer {
  name: "conv2_1_D"
  type: "Convolution"
  bottom: "conv2_2_D"
  top: "conv2_1_D"
  param {
    lr_mult: 1
    decay_mult: 1
  }
  param {
    lr_mult: 2
    decay_mult: 0
  }
  convolution_param {
    num_output: 64
    pad: 1
    kernel_size: 3
    weight_filler {
      type: "msra"
    }
    bias_filler {
      type: "constant"
    }
  }
}
layer {
  name: "conv2_1_D_bn"
  type: "BN"
  bottom: "conv2_1_D"
  top: "conv2_1_D"
  param {
    lr_mult: 1
    decay_mult: 1
  }
  param {
    lr_mult: 1
    decay_mult: 0
  }
  bn_param {
    scale_filler {
      type: "constant"
      value: 1
    }
    shift_filler {
      type: "constant"
      value: 0.001
    }
  }
}
layer {
  name: "relu2_1_D"
  type: "ReLU"
  bottom: "conv2_1_D"
  top: "conv2_1_D"
}
layer {
  name: "upsample1"
  type: "Upsample"
  bottom: "conv2_1_D"
  bottom: "pool1_mask"
  top: "pool1_D"
  upsample_param {
    scale: 2
  }
}
layer {
  name: "conv1_2_D"
  type: "Convolution"
  bottom: "pool1_D"
  top: "conv1_2_D"
  param {
    lr_mult: 1
    decay_mult: 1
  }
  param {
    lr_mult: 2
    decay_mult: 0
  }
  convolution_param {
    num_output: 64
    pad: 1
    kernel_size: 3
    weight_filler {
      type: "msra"
    }
    bias_filler {
      type: "constant"
    }
  }
}
layer {
  name: "conv1_2_D_bn"
  type: "BN"
  bottom: "conv1_2_D"
  top: "conv1_2_D"
  param {
    lr_mult: 1
    decay_mult: 1
  }
  param {
    lr_mult: 1
    decay_mult: 0
  }
  bn_param {
    scale_filler {
      type: "constant"
      value: 1
    }
    shift_filler {
      type: "constant"
      value: 0.001
    }
  }
}
layer {
  name: "relu1_2_D"
  type: "ReLU"
  bottom: "conv1_2_D"
  top: "conv1_2_D"
}
layer {
  name: "conv1_1_D"
  type: "Convolution"
  bottom: "conv1_2_D"
  top: "conv1_1_D"
  param {
    lr_mult: 1
    decay_mult: 1
  }
  param {
    lr_mult: 2
    decay_mult: 0
  }
  convolution_param {
    num_output: 3
    pad: 1
    kernel_size: 3
    weight_filler {
      type: "msra"
    }
    bias_filler {
      type: "constant"
    }
  }
}
layer {
  name: "loss"
  type: "SoftmaxWithLoss"
  bottom: "conv1_1_D"
  bottom: "label"
  top: "loss"
  loss_param {
    weight_by_label_freqs: true
    class_weighting: 1
    class_weighting: 0.7817
    class_weighting: 1.4893
    class_weighting: 1
    class_weighting: 0.7209
    class_weighting: 2.3795
  }
  softmax_param {
    engine: CAFFE
  }
}
layer {
  name: "accuracy"
  type: "Accuracy"
  bottom: "conv1_1_D"
  bottom: "label"
  top: "accuracy"
  top: "per_class_accuracy"
}
I0613 11:51:46.356426  1531 layer_factory.hpp:77] Creating layer dataIR1
I0613 11:51:46.356441  1531 net.cpp:100] Creating Layer dataIR1
I0613 11:51:46.356446  1531 net.cpp:408] dataIR1 -> dataIR1
I0613 11:51:46.356465  1531 dense_image_only_data_layer.cpp:49] Opening file /home/mpopovic/workspace/weedNet-devel/SegNet-Tutorial/train_and_test_data/rit-18/10m_15m_20m/trainir1.txt
I0613 11:51:46.356732  1531 dense_image_only_data_layer.cpp:65] A total of 754 examples.
I0613 11:51:46.364675  1531 dense_image_only_data_layer.cpp:118] output data size: 5,1,360,480
I0613 11:51:46.365495  1531 net.cpp:150] Setting up dataIR1
I0613 11:51:46.365515  1531 net.cpp:157] Top shape: 5 1 360 480 (864000)
I0613 11:51:46.365531  1531 net.cpp:165] Memory required for data: 3456000
I0613 11:51:46.365538  1531 layer_factory.hpp:77] Creating layer dataIR2
I0613 11:51:46.365550  1531 net.cpp:100] Creating Layer dataIR2
I0613 11:51:46.365555  1531 net.cpp:408] dataIR2 -> dataIR2
I0613 11:51:46.365566  1531 dense_image_only_data_layer.cpp:49] Opening file /home/mpopovic/workspace/weedNet-devel/SegNet-Tutorial/train_and_test_data/rit-18/10m_15m_20m/trainir2.txt
I0613 11:51:46.365754  1531 dense_image_only_data_layer.cpp:65] A total of 754 examples.
I0613 11:51:46.366979  1531 dense_image_only_data_layer.cpp:118] output data size: 5,1,360,480
I0613 11:51:46.367871  1531 net.cpp:150] Setting up dataIR2
I0613 11:51:46.367887  1531 net.cpp:157] Top shape: 5 1 360 480 (864000)
I0613 11:51:46.367890  1531 net.cpp:165] Memory required for data: 6912000
I0613 11:51:46.367893  1531 layer_factory.hpp:77] Creating layer dataIR3
I0613 11:51:46.367902  1531 net.cpp:100] Creating Layer dataIR3
I0613 11:51:46.367908  1531 net.cpp:408] dataIR3 -> dataIR3
I0613 11:51:46.367916  1531 dense_image_only_data_layer.cpp:49] Opening file /home/mpopovic/workspace/weedNet-devel/SegNet-Tutorial/train_and_test_data/rit-18/10m_15m_20m/trainir3.txt
I0613 11:51:46.368165  1531 dense_image_only_data_layer.cpp:65] A total of 754 examples.
I0613 11:51:46.369341  1531 dense_image_only_data_layer.cpp:118] output data size: 5,1,360,480
I0613 11:51:46.370219  1531 net.cpp:150] Setting up dataIR3
I0613 11:51:46.370229  1531 net.cpp:157] Top shape: 5 1 360 480 (864000)
I0613 11:51:46.370232  1531 net.cpp:165] Memory required for data: 10368000
I0613 11:51:46.370236  1531 layer_factory.hpp:77] Creating layer dataRGB
I0613 11:51:46.370247  1531 net.cpp:100] Creating Layer dataRGB
I0613 11:51:46.370251  1531 net.cpp:408] dataRGB -> dataRGB
I0613 11:51:46.370257  1531 net.cpp:408] dataRGB -> label
I0613 11:51:46.370266  1531 dense_image_data_layer.cpp:49] Opening file /home/mpopovic/workspace/weedNet-devel/SegNet-Tutorial/train_and_test_data/rit-18/10m_15m_20m/train.txt
I0613 11:51:46.370652  1531 dense_image_data_layer.cpp:64] A total of 754 examples.
I0613 11:51:46.376432  1531 dense_image_data_layer.cpp:117] output data size: 5,3,360,480
I0613 11:51:46.380101  1531 net.cpp:150] Setting up dataRGB
I0613 11:51:46.380139  1531 net.cpp:157] Top shape: 5 3 360 480 (2592000)
I0613 11:51:46.380151  1531 net.cpp:157] Top shape: 5 1 360 480 (864000)
I0613 11:51:46.380157  1531 net.cpp:165] Memory required for data: 24192000
I0613 11:51:46.380165  1531 layer_factory.hpp:77] Creating layer label_dataRGB_1_split
I0613 11:51:46.380183  1531 net.cpp:100] Creating Layer label_dataRGB_1_split
I0613 11:51:46.380199  1531 net.cpp:434] label_dataRGB_1_split <- label
I0613 11:51:46.380216  1531 net.cpp:408] label_dataRGB_1_split -> label_dataRGB_1_split_0
I0613 11:51:46.380224  1531 net.cpp:408] label_dataRGB_1_split -> label_dataRGB_1_split_1
I0613 11:51:46.380270  1531 net.cpp:150] Setting up label_dataRGB_1_split
I0613 11:51:46.380276  1531 net.cpp:157] Top shape: 5 1 360 480 (864000)
I0613 11:51:46.380280  1531 net.cpp:157] Top shape: 5 1 360 480 (864000)
I0613 11:51:46.380283  1531 net.cpp:165] Memory required for data: 31104000
I0613 11:51:46.380286  1531 layer_factory.hpp:77] Creating layer data
I0613 11:51:46.380291  1531 net.cpp:100] Creating Layer data
I0613 11:51:46.380295  1531 net.cpp:434] data <- dataIR1
I0613 11:51:46.380300  1531 net.cpp:434] data <- dataIR2
I0613 11:51:46.380303  1531 net.cpp:434] data <- dataIR3
I0613 11:51:46.380306  1531 net.cpp:434] data <- dataRGB
I0613 11:51:46.380311  1531 net.cpp:408] data -> data
I0613 11:51:46.380328  1531 net.cpp:150] Setting up data
I0613 11:51:46.380333  1531 net.cpp:157] Top shape: 5 6 360 480 (5184000)
I0613 11:51:46.380336  1531 net.cpp:165] Memory required for data: 51840000
I0613 11:51:46.380339  1531 layer_factory.hpp:77] Creating layer multiconv1_1
I0613 11:51:46.380354  1531 net.cpp:100] Creating Layer multiconv1_1
I0613 11:51:46.380358  1531 net.cpp:434] multiconv1_1 <- data
I0613 11:51:46.380363  1531 net.cpp:408] multiconv1_1 -> conv1_1
I0613 11:51:52.636353  1531 net.cpp:150] Setting up multiconv1_1
I0613 11:51:52.636373  1531 net.cpp:157] Top shape: 5 64 360 480 (55296000)
I0613 11:51:52.636375  1531 net.cpp:165] Memory required for data: 273024000
I0613 11:51:52.636394  1531 layer_factory.hpp:77] Creating layer conv1_1_bn
I0613 11:51:52.636406  1531 net.cpp:100] Creating Layer conv1_1_bn
I0613 11:51:52.636411  1531 net.cpp:434] conv1_1_bn <- conv1_1
I0613 11:51:52.636418  1531 net.cpp:395] conv1_1_bn -> conv1_1 (in-place)
I0613 11:51:52.636633  1531 net.cpp:150] Setting up conv1_1_bn
I0613 11:51:52.636641  1531 net.cpp:157] Top shape: 5 64 360 480 (55296000)
I0613 11:51:52.636643  1531 net.cpp:165] Memory required for data: 494208000
I0613 11:51:52.636651  1531 layer_factory.hpp:77] Creating layer relu1_1
I0613 11:51:52.636658  1531 net.cpp:100] Creating Layer relu1_1
I0613 11:51:52.636662  1531 net.cpp:434] relu1_1 <- conv1_1
I0613 11:51:52.636665  1531 net.cpp:395] relu1_1 -> conv1_1 (in-place)
I0613 11:51:52.636790  1531 net.cpp:150] Setting up relu1_1
I0613 11:51:52.636795  1531 net.cpp:157] Top shape: 5 64 360 480 (55296000)
I0613 11:51:52.636798  1531 net.cpp:165] Memory required for data: 715392000
I0613 11:51:52.636801  1531 layer_factory.hpp:77] Creating layer conv1_2
I0613 11:51:52.636808  1531 net.cpp:100] Creating Layer conv1_2
I0613 11:51:52.636811  1531 net.cpp:434] conv1_2 <- conv1_1
I0613 11:51:52.636816  1531 net.cpp:408] conv1_2 -> conv1_2
I0613 11:51:52.639060  1531 net.cpp:150] Setting up conv1_2
I0613 11:51:52.639070  1531 net.cpp:157] Top shape: 5 64 360 480 (55296000)
I0613 11:51:52.639073  1531 net.cpp:165] Memory required for data: 936576000
I0613 11:51:52.639082  1531 layer_factory.hpp:77] Creating layer conv1_2_bn
I0613 11:51:52.639091  1531 net.cpp:100] Creating Layer conv1_2_bn
I0613 11:51:52.639093  1531 net.cpp:434] conv1_2_bn <- conv1_2
I0613 11:51:52.639098  1531 net.cpp:395] conv1_2_bn -> conv1_2 (in-place)
I0613 11:51:52.639287  1531 net.cpp:150] Setting up conv1_2_bn
I0613 11:51:52.639293  1531 net.cpp:157] Top shape: 5 64 360 480 (55296000)
I0613 11:51:52.639295  1531 net.cpp:165] Memory required for data: 1157760000
I0613 11:51:52.639302  1531 layer_factory.hpp:77] Creating layer relu1_2
I0613 11:51:52.639307  1531 net.cpp:100] Creating Layer relu1_2
I0613 11:51:52.639309  1531 net.cpp:434] relu1_2 <- conv1_2
I0613 11:51:52.639314  1531 net.cpp:395] relu1_2 -> conv1_2 (in-place)
I0613 11:51:52.639425  1531 net.cpp:150] Setting up relu1_2
I0613 11:51:52.639431  1531 net.cpp:157] Top shape: 5 64 360 480 (55296000)
I0613 11:51:52.639434  1531 net.cpp:165] Memory required for data: 1378944000
I0613 11:51:52.639437  1531 layer_factory.hpp:77] Creating layer pool1
I0613 11:51:52.639441  1531 layer_factory.cpp:91] cuDNN does not support multiple tops. Using Caffe's own pooling layer.
I0613 11:51:52.639447  1531 net.cpp:100] Creating Layer pool1
I0613 11:51:52.639451  1531 net.cpp:434] pool1 <- conv1_2
I0613 11:51:52.639456  1531 net.cpp:408] pool1 -> pool1
I0613 11:51:52.639462  1531 net.cpp:408] pool1 -> pool1_mask
I0613 11:51:52.639492  1531 net.cpp:150] Setting up pool1
I0613 11:51:52.639497  1531 net.cpp:157] Top shape: 5 64 180 240 (13824000)
I0613 11:51:52.639500  1531 net.cpp:157] Top shape: 5 64 180 240 (13824000)
I0613 11:51:52.639503  1531 net.cpp:165] Memory required for data: 1489536000
I0613 11:51:52.639506  1531 layer_factory.hpp:77] Creating layer conv2_1
I0613 11:51:52.639513  1531 net.cpp:100] Creating Layer conv2_1
I0613 11:51:52.639515  1531 net.cpp:434] conv2_1 <- pool1
I0613 11:51:52.639519  1531 net.cpp:408] conv2_1 -> conv2_1
I0613 11:51:52.644227  1531 net.cpp:150] Setting up conv2_1
I0613 11:51:52.644237  1531 net.cpp:157] Top shape: 5 128 180 240 (27648000)
I0613 11:51:52.644240  1531 net.cpp:165] Memory required for data: 1600128000
I0613 11:51:52.644249  1531 layer_factory.hpp:77] Creating layer conv2_1_bn
I0613 11:51:52.644256  1531 net.cpp:100] Creating Layer conv2_1_bn
I0613 11:51:52.644260  1531 net.cpp:434] conv2_1_bn <- conv2_1
I0613 11:51:52.644264  1531 net.cpp:395] conv2_1_bn -> conv2_1 (in-place)
I0613 11:51:52.644434  1531 net.cpp:150] Setting up conv2_1_bn
I0613 11:51:52.644440  1531 net.cpp:157] Top shape: 5 128 180 240 (27648000)
I0613 11:51:52.644443  1531 net.cpp:165] Memory required for data: 1710720000
I0613 11:51:52.644448  1531 layer_factory.hpp:77] Creating layer relu2_1
I0613 11:51:52.644453  1531 net.cpp:100] Creating Layer relu2_1
I0613 11:51:52.644456  1531 net.cpp:434] relu2_1 <- conv2_1
I0613 11:51:52.644460  1531 net.cpp:395] relu2_1 -> conv2_1 (in-place)
I0613 11:51:52.644752  1531 net.cpp:150] Setting up relu2_1
I0613 11:51:52.644758  1531 net.cpp:157] Top shape: 5 128 180 240 (27648000)
I0613 11:51:52.644762  1531 net.cpp:165] Memory required for data: 1821312000
I0613 11:51:52.644765  1531 layer_factory.hpp:77] Creating layer conv2_2
I0613 11:51:52.644773  1531 net.cpp:100] Creating Layer conv2_2
I0613 11:51:52.644776  1531 net.cpp:434] conv2_2 <- conv2_1
I0613 11:51:52.644781  1531 net.cpp:408] conv2_2 -> conv2_2
I0613 11:51:52.647984  1531 net.cpp:150] Setting up conv2_2
I0613 11:51:52.647991  1531 net.cpp:157] Top shape: 5 128 180 240 (27648000)
I0613 11:51:52.647995  1531 net.cpp:165] Memory required for data: 1931904000
I0613 11:51:52.648000  1531 layer_factory.hpp:77] Creating layer conv2_2_bn
I0613 11:51:52.648007  1531 net.cpp:100] Creating Layer conv2_2_bn
I0613 11:51:52.648010  1531 net.cpp:434] conv2_2_bn <- conv2_2
I0613 11:51:52.648016  1531 net.cpp:395] conv2_2_bn -> conv2_2 (in-place)
I0613 11:51:52.648178  1531 net.cpp:150] Setting up conv2_2_bn
I0613 11:51:52.648183  1531 net.cpp:157] Top shape: 5 128 180 240 (27648000)
I0613 11:51:52.648186  1531 net.cpp:165] Memory required for data: 2042496000
I0613 11:51:52.648191  1531 layer_factory.hpp:77] Creating layer relu2_2
I0613 11:51:52.648196  1531 net.cpp:100] Creating Layer relu2_2
I0613 11:51:52.648200  1531 net.cpp:434] relu2_2 <- conv2_2
I0613 11:51:52.648203  1531 net.cpp:395] relu2_2 -> conv2_2 (in-place)
I0613 11:51:52.648313  1531 net.cpp:150] Setting up relu2_2
I0613 11:51:52.648319  1531 net.cpp:157] Top shape: 5 128 180 240 (27648000)
I0613 11:51:52.648321  1531 net.cpp:165] Memory required for data: 2153088000
I0613 11:51:52.648324  1531 layer_factory.hpp:77] Creating layer pool2
I0613 11:51:52.648329  1531 layer_factory.cpp:91] cuDNN does not support multiple tops. Using Caffe's own pooling layer.
I0613 11:51:52.648332  1531 net.cpp:100] Creating Layer pool2
I0613 11:51:52.648335  1531 net.cpp:434] pool2 <- conv2_2
I0613 11:51:52.648339  1531 net.cpp:408] pool2 -> pool2
I0613 11:51:52.648345  1531 net.cpp:408] pool2 -> pool2_mask
I0613 11:51:52.648370  1531 net.cpp:150] Setting up pool2
I0613 11:51:52.648375  1531 net.cpp:157] Top shape: 5 128 90 120 (6912000)
I0613 11:51:52.648380  1531 net.cpp:157] Top shape: 5 128 90 120 (6912000)
I0613 11:51:52.648381  1531 net.cpp:165] Memory required for data: 2208384000
I0613 11:51:52.648385  1531 layer_factory.hpp:77] Creating layer conv3_1
I0613 11:51:52.648391  1531 net.cpp:100] Creating Layer conv3_1
I0613 11:51:52.648393  1531 net.cpp:434] conv3_1 <- pool2
I0613 11:51:52.648398  1531 net.cpp:408] conv3_1 -> conv3_1
I0613 11:51:52.654469  1531 net.cpp:150] Setting up conv3_1
I0613 11:51:52.654479  1531 net.cpp:157] Top shape: 5 256 90 120 (13824000)
I0613 11:51:52.654482  1531 net.cpp:165] Memory required for data: 2263680000
I0613 11:51:52.654491  1531 layer_factory.hpp:77] Creating layer conv3_1_bn
I0613 11:51:52.654498  1531 net.cpp:100] Creating Layer conv3_1_bn
I0613 11:51:52.654501  1531 net.cpp:434] conv3_1_bn <- conv3_1
I0613 11:51:52.654506  1531 net.cpp:395] conv3_1_bn -> conv3_1 (in-place)
I0613 11:51:52.654635  1531 net.cpp:150] Setting up conv3_1_bn
I0613 11:51:52.654640  1531 net.cpp:157] Top shape: 5 256 90 120 (13824000)
I0613 11:51:52.654644  1531 net.cpp:165] Memory required for data: 2318976000
I0613 11:51:52.654649  1531 layer_factory.hpp:77] Creating layer relu3_1
I0613 11:51:52.654654  1531 net.cpp:100] Creating Layer relu3_1
I0613 11:51:52.654656  1531 net.cpp:434] relu3_1 <- conv3_1
I0613 11:51:52.654660  1531 net.cpp:395] relu3_1 -> conv3_1 (in-place)
I0613 11:51:52.654783  1531 net.cpp:150] Setting up relu3_1
I0613 11:51:52.654788  1531 net.cpp:157] Top shape: 5 256 90 120 (13824000)
I0613 11:51:52.654791  1531 net.cpp:165] Memory required for data: 2374272000
I0613 11:51:52.654794  1531 layer_factory.hpp:77] Creating layer conv3_2
I0613 11:51:52.654803  1531 net.cpp:100] Creating Layer conv3_2
I0613 11:51:52.654805  1531 net.cpp:434] conv3_2 <- conv3_1
I0613 11:51:52.654810  1531 net.cpp:408] conv3_2 -> conv3_2
I0613 11:51:52.665668  1531 net.cpp:150] Setting up conv3_2
I0613 11:51:52.665676  1531 net.cpp:157] Top shape: 5 256 90 120 (13824000)
I0613 11:51:52.665679  1531 net.cpp:165] Memory required for data: 2429568000
I0613 11:51:52.665685  1531 layer_factory.hpp:77] Creating layer conv3_2_bn
I0613 11:51:52.665693  1531 net.cpp:100] Creating Layer conv3_2_bn
I0613 11:51:52.665696  1531 net.cpp:434] conv3_2_bn <- conv3_2
I0613 11:51:52.665701  1531 net.cpp:395] conv3_2_bn -> conv3_2 (in-place)
I0613 11:51:52.665834  1531 net.cpp:150] Setting up conv3_2_bn
I0613 11:51:52.665840  1531 net.cpp:157] Top shape: 5 256 90 120 (13824000)
I0613 11:51:52.665843  1531 net.cpp:165] Memory required for data: 2484864000
I0613 11:51:52.665848  1531 layer_factory.hpp:77] Creating layer relu3_2
I0613 11:51:52.665853  1531 net.cpp:100] Creating Layer relu3_2
I0613 11:51:52.665856  1531 net.cpp:434] relu3_2 <- conv3_2
I0613 11:51:52.665860  1531 net.cpp:395] relu3_2 -> conv3_2 (in-place)
I0613 11:51:52.666153  1531 net.cpp:150] Setting up relu3_2
I0613 11:51:52.666162  1531 net.cpp:157] Top shape: 5 256 90 120 (13824000)
I0613 11:51:52.666165  1531 net.cpp:165] Memory required for data: 2540160000
I0613 11:51:52.666168  1531 layer_factory.hpp:77] Creating layer conv3_3
I0613 11:51:52.666175  1531 net.cpp:100] Creating Layer conv3_3
I0613 11:51:52.666178  1531 net.cpp:434] conv3_3 <- conv3_2
I0613 11:51:52.666183  1531 net.cpp:408] conv3_3 -> conv3_3
I0613 11:51:52.677036  1531 net.cpp:150] Setting up conv3_3
I0613 11:51:52.677045  1531 net.cpp:157] Top shape: 5 256 90 120 (13824000)
I0613 11:51:52.677048  1531 net.cpp:165] Memory required for data: 2595456000
I0613 11:51:52.677054  1531 layer_factory.hpp:77] Creating layer conv3_3_bn
I0613 11:51:52.677062  1531 net.cpp:100] Creating Layer conv3_3_bn
I0613 11:51:52.677065  1531 net.cpp:434] conv3_3_bn <- conv3_3
I0613 11:51:52.677070  1531 net.cpp:395] conv3_3_bn -> conv3_3 (in-place)
I0613 11:51:52.677204  1531 net.cpp:150] Setting up conv3_3_bn
I0613 11:51:52.677209  1531 net.cpp:157] Top shape: 5 256 90 120 (13824000)
I0613 11:51:52.677212  1531 net.cpp:165] Memory required for data: 2650752000
I0613 11:51:52.677218  1531 layer_factory.hpp:77] Creating layer relu3_3
I0613 11:51:52.677223  1531 net.cpp:100] Creating Layer relu3_3
I0613 11:51:52.677227  1531 net.cpp:434] relu3_3 <- conv3_3
I0613 11:51:52.677230  1531 net.cpp:395] relu3_3 -> conv3_3 (in-place)
I0613 11:51:52.677342  1531 net.cpp:150] Setting up relu3_3
I0613 11:51:52.677348  1531 net.cpp:157] Top shape: 5 256 90 120 (13824000)
I0613 11:51:52.677351  1531 net.cpp:165] Memory required for data: 2706048000
I0613 11:51:52.677356  1531 layer_factory.hpp:77] Creating layer pool3
I0613 11:51:52.677359  1531 layer_factory.cpp:91] cuDNN does not support multiple tops. Using Caffe's own pooling layer.
I0613 11:51:52.677363  1531 net.cpp:100] Creating Layer pool3
I0613 11:51:52.677367  1531 net.cpp:434] pool3 <- conv3_3
I0613 11:51:52.677371  1531 net.cpp:408] pool3 -> pool3
I0613 11:51:52.677377  1531 net.cpp:408] pool3 -> pool3_mask
I0613 11:51:52.677404  1531 net.cpp:150] Setting up pool3
I0613 11:51:52.677408  1531 net.cpp:157] Top shape: 5 256 45 60 (3456000)
I0613 11:51:52.677413  1531 net.cpp:157] Top shape: 5 256 45 60 (3456000)
I0613 11:51:52.677417  1531 net.cpp:165] Memory required for data: 2733696000
I0613 11:51:52.677419  1531 layer_factory.hpp:77] Creating layer conv4_1
I0613 11:51:52.677425  1531 net.cpp:100] Creating Layer conv4_1
I0613 11:51:52.677428  1531 net.cpp:434] conv4_1 <- pool3
I0613 11:51:52.677433  1531 net.cpp:408] conv4_1 -> conv4_1
I0613 11:51:52.698729  1531 net.cpp:150] Setting up conv4_1
I0613 11:51:52.698745  1531 net.cpp:157] Top shape: 5 512 45 60 (6912000)
I0613 11:51:52.698748  1531 net.cpp:165] Memory required for data: 2761344000
I0613 11:51:52.698757  1531 layer_factory.hpp:77] Creating layer conv4_1_bn
I0613 11:51:52.698766  1531 net.cpp:100] Creating Layer conv4_1_bn
I0613 11:51:52.698772  1531 net.cpp:434] conv4_1_bn <- conv4_1
I0613 11:51:52.698779  1531 net.cpp:395] conv4_1_bn -> conv4_1 (in-place)
I0613 11:51:52.698916  1531 net.cpp:150] Setting up conv4_1_bn
I0613 11:51:52.698921  1531 net.cpp:157] Top shape: 5 512 45 60 (6912000)
I0613 11:51:52.698925  1531 net.cpp:165] Memory required for data: 2788992000
I0613 11:51:52.698930  1531 layer_factory.hpp:77] Creating layer relu4_1
I0613 11:51:52.698937  1531 net.cpp:100] Creating Layer relu4_1
I0613 11:51:52.698941  1531 net.cpp:434] relu4_1 <- conv4_1
I0613 11:51:52.698945  1531 net.cpp:395] relu4_1 -> conv4_1 (in-place)
I0613 11:51:52.699064  1531 net.cpp:150] Setting up relu4_1
I0613 11:51:52.699070  1531 net.cpp:157] Top shape: 5 512 45 60 (6912000)
I0613 11:51:52.699074  1531 net.cpp:165] Memory required for data: 2816640000
I0613 11:51:52.699076  1531 layer_factory.hpp:77] Creating layer conv4_2
I0613 11:51:52.699084  1531 net.cpp:100] Creating Layer conv4_2
I0613 11:51:52.699086  1531 net.cpp:434] conv4_2 <- conv4_1
I0613 11:51:52.699091  1531 net.cpp:408] conv4_2 -> conv4_2
I0613 11:51:52.739456  1531 net.cpp:150] Setting up conv4_2
I0613 11:51:52.739475  1531 net.cpp:157] Top shape: 5 512 45 60 (6912000)
I0613 11:51:52.739477  1531 net.cpp:165] Memory required for data: 2844288000
I0613 11:51:52.739495  1531 layer_factory.hpp:77] Creating layer conv4_2_bn
I0613 11:51:52.739506  1531 net.cpp:100] Creating Layer conv4_2_bn
I0613 11:51:52.739511  1531 net.cpp:434] conv4_2_bn <- conv4_2
I0613 11:51:52.739517  1531 net.cpp:395] conv4_2_bn -> conv4_2 (in-place)
I0613 11:51:52.739658  1531 net.cpp:150] Setting up conv4_2_bn
I0613 11:51:52.739663  1531 net.cpp:157] Top shape: 5 512 45 60 (6912000)
I0613 11:51:52.739666  1531 net.cpp:165] Memory required for data: 2871936000
I0613 11:51:52.739671  1531 layer_factory.hpp:77] Creating layer relu4_2
I0613 11:51:52.739676  1531 net.cpp:100] Creating Layer relu4_2
I0613 11:51:52.739681  1531 net.cpp:434] relu4_2 <- conv4_2
I0613 11:51:52.739684  1531 net.cpp:395] relu4_2 -> conv4_2 (in-place)
I0613 11:51:52.739801  1531 net.cpp:150] Setting up relu4_2
I0613 11:51:52.739807  1531 net.cpp:157] Top shape: 5 512 45 60 (6912000)
I0613 11:51:52.739810  1531 net.cpp:165] Memory required for data: 2899584000
I0613 11:51:52.739814  1531 layer_factory.hpp:77] Creating layer conv4_3
I0613 11:51:52.739820  1531 net.cpp:100] Creating Layer conv4_3
I0613 11:51:52.739823  1531 net.cpp:434] conv4_3 <- conv4_2
I0613 11:51:52.739828  1531 net.cpp:408] conv4_3 -> conv4_3
I0613 11:51:52.779937  1531 net.cpp:150] Setting up conv4_3
I0613 11:51:52.779953  1531 net.cpp:157] Top shape: 5 512 45 60 (6912000)
I0613 11:51:52.779956  1531 net.cpp:165] Memory required for data: 2927232000
I0613 11:51:52.779965  1531 layer_factory.hpp:77] Creating layer conv4_3_bn
I0613 11:51:52.779973  1531 net.cpp:100] Creating Layer conv4_3_bn
I0613 11:51:52.779979  1531 net.cpp:434] conv4_3_bn <- conv4_3
I0613 11:51:52.779986  1531 net.cpp:395] conv4_3_bn -> conv4_3 (in-place)
I0613 11:51:52.780123  1531 net.cpp:150] Setting up conv4_3_bn
I0613 11:51:52.780128  1531 net.cpp:157] Top shape: 5 512 45 60 (6912000)
I0613 11:51:52.780131  1531 net.cpp:165] Memory required for data: 2954880000
I0613 11:51:52.780136  1531 layer_factory.hpp:77] Creating layer relu4_3
I0613 11:51:52.780141  1531 net.cpp:100] Creating Layer relu4_3
I0613 11:51:52.780144  1531 net.cpp:434] relu4_3 <- conv4_3
I0613 11:51:52.780148  1531 net.cpp:395] relu4_3 -> conv4_3 (in-place)
I0613 11:51:52.780472  1531 net.cpp:150] Setting up relu4_3
I0613 11:51:52.780480  1531 net.cpp:157] Top shape: 5 512 45 60 (6912000)
I0613 11:51:52.780483  1531 net.cpp:165] Memory required for data: 2982528000
I0613 11:51:52.780496  1531 layer_factory.hpp:77] Creating layer pool4
I0613 11:51:52.780501  1531 layer_factory.cpp:91] cuDNN does not support multiple tops. Using Caffe's own pooling layer.
I0613 11:51:52.780505  1531 net.cpp:100] Creating Layer pool4
I0613 11:51:52.780509  1531 net.cpp:434] pool4 <- conv4_3
I0613 11:51:52.780514  1531 net.cpp:408] pool4 -> pool4
I0613 11:51:52.780520  1531 net.cpp:408] pool4 -> pool4_mask
I0613 11:51:52.780550  1531 net.cpp:150] Setting up pool4
I0613 11:51:52.780555  1531 net.cpp:157] Top shape: 5 512 23 30 (1766400)
I0613 11:51:52.780560  1531 net.cpp:157] Top shape: 5 512 23 30 (1766400)
I0613 11:51:52.780562  1531 net.cpp:165] Memory required for data: 2996659200
I0613 11:51:52.780565  1531 layer_factory.hpp:77] Creating layer conv5_1
I0613 11:51:52.780571  1531 net.cpp:100] Creating Layer conv5_1
I0613 11:51:52.780575  1531 net.cpp:434] conv5_1 <- pool4
I0613 11:51:52.780580  1531 net.cpp:408] conv5_1 -> conv5_1
I0613 11:51:52.820955  1531 net.cpp:150] Setting up conv5_1
I0613 11:51:52.820971  1531 net.cpp:157] Top shape: 5 512 23 30 (1766400)
I0613 11:51:52.820973  1531 net.cpp:165] Memory required for data: 3003724800
I0613 11:51:52.820982  1531 layer_factory.hpp:77] Creating layer conv5_1_bn
I0613 11:51:52.820993  1531 net.cpp:100] Creating Layer conv5_1_bn
I0613 11:51:52.820999  1531 net.cpp:434] conv5_1_bn <- conv5_1
I0613 11:51:52.821007  1531 net.cpp:395] conv5_1_bn -> conv5_1 (in-place)
I0613 11:51:52.821144  1531 net.cpp:150] Setting up conv5_1_bn
I0613 11:51:52.821149  1531 net.cpp:157] Top shape: 5 512 23 30 (1766400)
I0613 11:51:52.821152  1531 net.cpp:165] Memory required for data: 3010790400
I0613 11:51:52.821157  1531 layer_factory.hpp:77] Creating layer relu5_1
I0613 11:51:52.821163  1531 net.cpp:100] Creating Layer relu5_1
I0613 11:51:52.821166  1531 net.cpp:434] relu5_1 <- conv5_1
I0613 11:51:52.821171  1531 net.cpp:395] relu5_1 -> conv5_1 (in-place)
I0613 11:51:52.821290  1531 net.cpp:150] Setting up relu5_1
I0613 11:51:52.821297  1531 net.cpp:157] Top shape: 5 512 23 30 (1766400)
I0613 11:51:52.821300  1531 net.cpp:165] Memory required for data: 3017856000
I0613 11:51:52.821302  1531 layer_factory.hpp:77] Creating layer conv5_2
I0613 11:51:52.821310  1531 net.cpp:100] Creating Layer conv5_2
I0613 11:51:52.821313  1531 net.cpp:434] conv5_2 <- conv5_1
I0613 11:51:52.821318  1531 net.cpp:408] conv5_2 -> conv5_2
I0613 11:51:52.861738  1531 net.cpp:150] Setting up conv5_2
I0613 11:51:52.861757  1531 net.cpp:157] Top shape: 5 512 23 30 (1766400)
I0613 11:51:52.861759  1531 net.cpp:165] Memory required for data: 3024921600
I0613 11:51:52.861770  1531 layer_factory.hpp:77] Creating layer conv5_2_bn
I0613 11:51:52.861783  1531 net.cpp:100] Creating Layer conv5_2_bn
I0613 11:51:52.861789  1531 net.cpp:434] conv5_2_bn <- conv5_2
I0613 11:51:52.861798  1531 net.cpp:395] conv5_2_bn -> conv5_2 (in-place)
I0613 11:51:52.861938  1531 net.cpp:150] Setting up conv5_2_bn
I0613 11:51:52.861943  1531 net.cpp:157] Top shape: 5 512 23 30 (1766400)
I0613 11:51:52.861946  1531 net.cpp:165] Memory required for data: 3031987200
I0613 11:51:52.861951  1531 layer_factory.hpp:77] Creating layer relu5_2
I0613 11:51:52.861956  1531 net.cpp:100] Creating Layer relu5_2
I0613 11:51:52.861959  1531 net.cpp:434] relu5_2 <- conv5_2
I0613 11:51:52.861963  1531 net.cpp:395] relu5_2 -> conv5_2 (in-place)
I0613 11:51:52.862084  1531 net.cpp:150] Setting up relu5_2
I0613 11:51:52.862089  1531 net.cpp:157] Top shape: 5 512 23 30 (1766400)
I0613 11:51:52.862092  1531 net.cpp:165] Memory required for data: 3039052800
I0613 11:51:52.862095  1531 layer_factory.hpp:77] Creating layer conv5_3
I0613 11:51:52.862102  1531 net.cpp:100] Creating Layer conv5_3
I0613 11:51:52.862105  1531 net.cpp:434] conv5_3 <- conv5_2
I0613 11:51:52.862112  1531 net.cpp:408] conv5_3 -> conv5_3
I0613 11:51:52.902806  1531 net.cpp:150] Setting up conv5_3
I0613 11:51:52.902822  1531 net.cpp:157] Top shape: 5 512 23 30 (1766400)
I0613 11:51:52.902825  1531 net.cpp:165] Memory required for data: 3046118400
I0613 11:51:52.902834  1531 layer_factory.hpp:77] Creating layer conv5_3_bn
I0613 11:51:52.902861  1531 net.cpp:100] Creating Layer conv5_3_bn
I0613 11:51:52.902866  1531 net.cpp:434] conv5_3_bn <- conv5_3
I0613 11:51:52.902874  1531 net.cpp:395] conv5_3_bn -> conv5_3 (in-place)
I0613 11:51:52.903013  1531 net.cpp:150] Setting up conv5_3_bn
I0613 11:51:52.903018  1531 net.cpp:157] Top shape: 5 512 23 30 (1766400)
I0613 11:51:52.903021  1531 net.cpp:165] Memory required for data: 3053184000
I0613 11:51:52.903026  1531 layer_factory.hpp:77] Creating layer relu5_3
I0613 11:51:52.903033  1531 net.cpp:100] Creating Layer relu5_3
I0613 11:51:52.903035  1531 net.cpp:434] relu5_3 <- conv5_3
I0613 11:51:52.903039  1531 net.cpp:395] relu5_3 -> conv5_3 (in-place)
I0613 11:51:52.903372  1531 net.cpp:150] Setting up relu5_3
I0613 11:51:52.903379  1531 net.cpp:157] Top shape: 5 512 23 30 (1766400)
I0613 11:51:52.903383  1531 net.cpp:165] Memory required for data: 3060249600
I0613 11:51:52.903385  1531 layer_factory.hpp:77] Creating layer pool5
I0613 11:51:52.903389  1531 layer_factory.cpp:91] cuDNN does not support multiple tops. Using Caffe's own pooling layer.
I0613 11:51:52.903395  1531 net.cpp:100] Creating Layer pool5
I0613 11:51:52.903399  1531 net.cpp:434] pool5 <- conv5_3
I0613 11:51:52.903404  1531 net.cpp:408] pool5 -> pool5
I0613 11:51:52.903410  1531 net.cpp:408] pool5 -> pool5_mask
I0613 11:51:52.903441  1531 net.cpp:150] Setting up pool5
I0613 11:51:52.903446  1531 net.cpp:157] Top shape: 5 512 12 15 (460800)
I0613 11:51:52.903450  1531 net.cpp:157] Top shape: 5 512 12 15 (460800)
I0613 11:51:52.903453  1531 net.cpp:165] Memory required for data: 3063936000
I0613 11:51:52.903456  1531 layer_factory.hpp:77] Creating layer upsample5
I0613 11:51:52.903463  1531 net.cpp:100] Creating Layer upsample5
I0613 11:51:52.903466  1531 net.cpp:434] upsample5 <- pool5
I0613 11:51:52.903470  1531 net.cpp:434] upsample5 <- pool5_mask
I0613 11:51:52.903475  1531 net.cpp:408] upsample5 -> pool5_D
I0613 11:51:52.903494  1531 net.cpp:150] Setting up upsample5
I0613 11:51:52.903501  1531 net.cpp:157] Top shape: 5 512 23 30 (1766400)
I0613 11:51:52.903503  1531 net.cpp:165] Memory required for data: 3071001600
I0613 11:51:52.903506  1531 layer_factory.hpp:77] Creating layer conv5_3_D
I0613 11:51:52.903513  1531 net.cpp:100] Creating Layer conv5_3_D
I0613 11:51:52.903517  1531 net.cpp:434] conv5_3_D <- pool5_D
I0613 11:51:52.903520  1531 net.cpp:408] conv5_3_D -> conv5_3_D
I0613 11:51:52.944067  1531 net.cpp:150] Setting up conv5_3_D
I0613 11:51:52.944089  1531 net.cpp:157] Top shape: 5 512 23 30 (1766400)
I0613 11:51:52.944092  1531 net.cpp:165] Memory required for data: 3078067200
I0613 11:51:52.944103  1531 layer_factory.hpp:77] Creating layer conv5_3_D_bn
I0613 11:51:52.944113  1531 net.cpp:100] Creating Layer conv5_3_D_bn
I0613 11:51:52.944119  1531 net.cpp:434] conv5_3_D_bn <- conv5_3_D
I0613 11:51:52.944128  1531 net.cpp:395] conv5_3_D_bn -> conv5_3_D (in-place)
I0613 11:51:52.944270  1531 net.cpp:150] Setting up conv5_3_D_bn
I0613 11:51:52.944277  1531 net.cpp:157] Top shape: 5 512 23 30 (1766400)
I0613 11:51:52.944279  1531 net.cpp:165] Memory required for data: 3085132800
I0613 11:51:52.944283  1531 layer_factory.hpp:77] Creating layer relu5_3_D
I0613 11:51:52.944290  1531 net.cpp:100] Creating Layer relu5_3_D
I0613 11:51:52.944293  1531 net.cpp:434] relu5_3_D <- conv5_3_D
I0613 11:51:52.944298  1531 net.cpp:395] relu5_3_D -> conv5_3_D (in-place)
I0613 11:51:52.944420  1531 net.cpp:150] Setting up relu5_3_D
I0613 11:51:52.944427  1531 net.cpp:157] Top shape: 5 512 23 30 (1766400)
I0613 11:51:52.944429  1531 net.cpp:165] Memory required for data: 3092198400
I0613 11:51:52.944432  1531 layer_factory.hpp:77] Creating layer conv5_2_D
I0613 11:51:52.944440  1531 net.cpp:100] Creating Layer conv5_2_D
I0613 11:51:52.944443  1531 net.cpp:434] conv5_2_D <- conv5_3_D
I0613 11:51:52.944448  1531 net.cpp:408] conv5_2_D -> conv5_2_D
I0613 11:51:52.985195  1531 net.cpp:150] Setting up conv5_2_D
I0613 11:51:52.985214  1531 net.cpp:157] Top shape: 5 512 23 30 (1766400)
I0613 11:51:52.985240  1531 net.cpp:165] Memory required for data: 3099264000
I0613 11:51:52.985250  1531 layer_factory.hpp:77] Creating layer conv5_2_D_bn
I0613 11:51:52.985261  1531 net.cpp:100] Creating Layer conv5_2_D_bn
I0613 11:51:52.985266  1531 net.cpp:434] conv5_2_D_bn <- conv5_2_D
I0613 11:51:52.985275  1531 net.cpp:395] conv5_2_D_bn -> conv5_2_D (in-place)
I0613 11:51:52.985421  1531 net.cpp:150] Setting up conv5_2_D_bn
I0613 11:51:52.985426  1531 net.cpp:157] Top shape: 5 512 23 30 (1766400)
I0613 11:51:52.985430  1531 net.cpp:165] Memory required for data: 3106329600
I0613 11:51:52.985435  1531 layer_factory.hpp:77] Creating layer relu5_2_D
I0613 11:51:52.985440  1531 net.cpp:100] Creating Layer relu5_2_D
I0613 11:51:52.985443  1531 net.cpp:434] relu5_2_D <- conv5_2_D
I0613 11:51:52.985453  1531 net.cpp:395] relu5_2_D -> conv5_2_D (in-place)
I0613 11:51:52.985582  1531 net.cpp:150] Setting up relu5_2_D
I0613 11:51:52.985587  1531 net.cpp:157] Top shape: 5 512 23 30 (1766400)
I0613 11:51:52.985590  1531 net.cpp:165] Memory required for data: 3113395200
I0613 11:51:52.985594  1531 layer_factory.hpp:77] Creating layer conv5_1_D
I0613 11:51:52.985601  1531 net.cpp:100] Creating Layer conv5_1_D
I0613 11:51:52.985605  1531 net.cpp:434] conv5_1_D <- conv5_2_D
I0613 11:51:52.985610  1531 net.cpp:408] conv5_1_D -> conv5_1_D
I0613 11:51:53.026185  1531 net.cpp:150] Setting up conv5_1_D
I0613 11:51:53.026204  1531 net.cpp:157] Top shape: 5 512 23 30 (1766400)
I0613 11:51:53.026207  1531 net.cpp:165] Memory required for data: 3120460800
I0613 11:51:53.026217  1531 layer_factory.hpp:77] Creating layer conv5_1_D_bn
I0613 11:51:53.026230  1531 net.cpp:100] Creating Layer conv5_1_D_bn
I0613 11:51:53.026237  1531 net.cpp:434] conv5_1_D_bn <- conv5_1_D
I0613 11:51:53.026244  1531 net.cpp:395] conv5_1_D_bn -> conv5_1_D (in-place)
I0613 11:51:53.026388  1531 net.cpp:150] Setting up conv5_1_D_bn
I0613 11:51:53.026394  1531 net.cpp:157] Top shape: 5 512 23 30 (1766400)
I0613 11:51:53.026397  1531 net.cpp:165] Memory required for data: 3127526400
I0613 11:51:53.026402  1531 layer_factory.hpp:77] Creating layer relu5_1_D
I0613 11:51:53.026407  1531 net.cpp:100] Creating Layer relu5_1_D
I0613 11:51:53.026412  1531 net.cpp:434] relu5_1_D <- conv5_1_D
I0613 11:51:53.026415  1531 net.cpp:395] relu5_1_D -> conv5_1_D (in-place)
I0613 11:51:53.026753  1531 net.cpp:150] Setting up relu5_1_D
I0613 11:51:53.026762  1531 net.cpp:157] Top shape: 5 512 23 30 (1766400)
I0613 11:51:53.026764  1531 net.cpp:165] Memory required for data: 3134592000
I0613 11:51:53.026767  1531 layer_factory.hpp:77] Creating layer upsample4
I0613 11:51:53.026773  1531 net.cpp:100] Creating Layer upsample4
I0613 11:51:53.026777  1531 net.cpp:434] upsample4 <- conv5_1_D
I0613 11:51:53.026782  1531 net.cpp:434] upsample4 <- pool4_mask
I0613 11:51:53.026787  1531 net.cpp:408] upsample4 -> pool4_D
I0613 11:51:53.026809  1531 net.cpp:150] Setting up upsample4
I0613 11:51:53.026814  1531 net.cpp:157] Top shape: 5 512 45 60 (6912000)
I0613 11:51:53.026816  1531 net.cpp:165] Memory required for data: 3162240000
I0613 11:51:53.026819  1531 layer_factory.hpp:77] Creating layer conv4_3_D
I0613 11:51:53.026826  1531 net.cpp:100] Creating Layer conv4_3_D
I0613 11:51:53.026829  1531 net.cpp:434] conv4_3_D <- pool4_D
I0613 11:51:53.026835  1531 net.cpp:408] conv4_3_D -> conv4_3_D
I0613 11:51:53.067328  1531 net.cpp:150] Setting up conv4_3_D
I0613 11:51:53.067348  1531 net.cpp:157] Top shape: 5 512 45 60 (6912000)
I0613 11:51:53.067350  1531 net.cpp:165] Memory required for data: 3189888000
I0613 11:51:53.067379  1531 layer_factory.hpp:77] Creating layer conv4_3_D_bn
I0613 11:51:53.067390  1531 net.cpp:100] Creating Layer conv4_3_D_bn
I0613 11:51:53.067394  1531 net.cpp:434] conv4_3_D_bn <- conv4_3_D
I0613 11:51:53.067402  1531 net.cpp:395] conv4_3_D_bn -> conv4_3_D (in-place)
I0613 11:51:53.067561  1531 net.cpp:150] Setting up conv4_3_D_bn
I0613 11:51:53.067567  1531 net.cpp:157] Top shape: 5 512 45 60 (6912000)
I0613 11:51:53.067569  1531 net.cpp:165] Memory required for data: 3217536000
I0613 11:51:53.067585  1531 layer_factory.hpp:77] Creating layer relu4_3_D
I0613 11:51:53.067591  1531 net.cpp:100] Creating Layer relu4_3_D
I0613 11:51:53.067595  1531 net.cpp:434] relu4_3_D <- conv4_3_D
I0613 11:51:53.067598  1531 net.cpp:395] relu4_3_D -> conv4_3_D (in-place)
I0613 11:51:53.067721  1531 net.cpp:150] Setting up relu4_3_D
I0613 11:51:53.067728  1531 net.cpp:157] Top shape: 5 512 45 60 (6912000)
I0613 11:51:53.067730  1531 net.cpp:165] Memory required for data: 3245184000
I0613 11:51:53.067734  1531 layer_factory.hpp:77] Creating layer conv4_2_D
I0613 11:51:53.067747  1531 net.cpp:100] Creating Layer conv4_2_D
I0613 11:51:53.067750  1531 net.cpp:434] conv4_2_D <- conv4_3_D
I0613 11:51:53.067756  1531 net.cpp:408] conv4_2_D -> conv4_2_D
I0613 11:51:53.108198  1531 net.cpp:150] Setting up conv4_2_D
I0613 11:51:53.108217  1531 net.cpp:157] Top shape: 5 512 45 60 (6912000)
I0613 11:51:53.108220  1531 net.cpp:165] Memory required for data: 3272832000
I0613 11:51:53.108232  1531 layer_factory.hpp:77] Creating layer conv4_2_D_bn
I0613 11:51:53.108247  1531 net.cpp:100] Creating Layer conv4_2_D_bn
I0613 11:51:53.108253  1531 net.cpp:434] conv4_2_D_bn <- conv4_2_D
I0613 11:51:53.108260  1531 net.cpp:395] conv4_2_D_bn -> conv4_2_D (in-place)
I0613 11:51:53.108417  1531 net.cpp:150] Setting up conv4_2_D_bn
I0613 11:51:53.108422  1531 net.cpp:157] Top shape: 5 512 45 60 (6912000)
I0613 11:51:53.108424  1531 net.cpp:165] Memory required for data: 3300480000
I0613 11:51:53.108430  1531 layer_factory.hpp:77] Creating layer relu4_2_D
I0613 11:51:53.108435  1531 net.cpp:100] Creating Layer relu4_2_D
I0613 11:51:53.108439  1531 net.cpp:434] relu4_2_D <- conv4_2_D
I0613 11:51:53.108443  1531 net.cpp:395] relu4_2_D -> conv4_2_D (in-place)
I0613 11:51:53.108567  1531 net.cpp:150] Setting up relu4_2_D
I0613 11:51:53.108573  1531 net.cpp:157] Top shape: 5 512 45 60 (6912000)
I0613 11:51:53.108577  1531 net.cpp:165] Memory required for data: 3328128000
I0613 11:51:53.108579  1531 layer_factory.hpp:77] Creating layer conv4_1_D
I0613 11:51:53.108587  1531 net.cpp:100] Creating Layer conv4_1_D
I0613 11:51:53.108589  1531 net.cpp:434] conv4_1_D <- conv4_2_D
I0613 11:51:53.108597  1531 net.cpp:408] conv4_1_D -> conv4_1_D
I0613 11:51:53.129395  1531 net.cpp:150] Setting up conv4_1_D
I0613 11:51:53.129410  1531 net.cpp:157] Top shape: 5 256 45 60 (3456000)
I0613 11:51:53.129412  1531 net.cpp:165] Memory required for data: 3341952000
I0613 11:51:53.129420  1531 layer_factory.hpp:77] Creating layer conv4_1_D_bn
I0613 11:51:53.129429  1531 net.cpp:100] Creating Layer conv4_1_D_bn
I0613 11:51:53.129433  1531 net.cpp:434] conv4_1_D_bn <- conv4_1_D
I0613 11:51:53.129441  1531 net.cpp:395] conv4_1_D_bn -> conv4_1_D (in-place)
I0613 11:51:53.129591  1531 net.cpp:150] Setting up conv4_1_D_bn
I0613 11:51:53.129596  1531 net.cpp:157] Top shape: 5 256 45 60 (3456000)
I0613 11:51:53.129600  1531 net.cpp:165] Memory required for data: 3355776000
I0613 11:51:53.129604  1531 layer_factory.hpp:77] Creating layer relu4_1_D
I0613 11:51:53.129609  1531 net.cpp:100] Creating Layer relu4_1_D
I0613 11:51:53.129613  1531 net.cpp:434] relu4_1_D <- conv4_1_D
I0613 11:51:53.129616  1531 net.cpp:395] relu4_1_D -> conv4_1_D (in-place)
I0613 11:51:53.129740  1531 net.cpp:150] Setting up relu4_1_D
I0613 11:51:53.129746  1531 net.cpp:157] Top shape: 5 256 45 60 (3456000)
I0613 11:51:53.129750  1531 net.cpp:165] Memory required for data: 3369600000
I0613 11:51:53.129752  1531 layer_factory.hpp:77] Creating layer upsample3
I0613 11:51:53.129757  1531 net.cpp:100] Creating Layer upsample3
I0613 11:51:53.129760  1531 net.cpp:434] upsample3 <- conv4_1_D
I0613 11:51:53.129765  1531 net.cpp:434] upsample3 <- pool3_mask
I0613 11:51:53.129770  1531 net.cpp:408] upsample3 -> pool3_D
I0613 11:51:53.129776  1531 upsample_layer.cpp:27] Params 'pad_out_{}_' are deprecated. Please declare upsample height and width useing the upsample_h, upsample_w parameters.
I0613 11:51:53.129794  1531 net.cpp:150] Setting up upsample3
I0613 11:51:53.129801  1531 net.cpp:157] Top shape: 5 256 90 120 (13824000)
I0613 11:51:53.129812  1531 net.cpp:165] Memory required for data: 3424896000
I0613 11:51:53.129814  1531 layer_factory.hpp:77] Creating layer conv3_3_D
I0613 11:51:53.129820  1531 net.cpp:100] Creating Layer conv3_3_D
I0613 11:51:53.129824  1531 net.cpp:434] conv3_3_D <- pool3_D
I0613 11:51:53.129828  1531 net.cpp:408] conv3_3_D -> conv3_3_D
I0613 11:51:53.140776  1531 net.cpp:150] Setting up conv3_3_D
I0613 11:51:53.140786  1531 net.cpp:157] Top shape: 5 256 90 120 (13824000)
I0613 11:51:53.140790  1531 net.cpp:165] Memory required for data: 3480192000
I0613 11:51:53.140795  1531 layer_factory.hpp:77] Creating layer conv3_3_D_bn
I0613 11:51:53.140805  1531 net.cpp:100] Creating Layer conv3_3_D_bn
I0613 11:51:53.140807  1531 net.cpp:434] conv3_3_D_bn <- conv3_3_D
I0613 11:51:53.140813  1531 net.cpp:395] conv3_3_D_bn -> conv3_3_D (in-place)
I0613 11:51:53.140971  1531 net.cpp:150] Setting up conv3_3_D_bn
I0613 11:51:53.140977  1531 net.cpp:157] Top shape: 5 256 90 120 (13824000)
I0613 11:51:53.140980  1531 net.cpp:165] Memory required for data: 3535488000
I0613 11:51:53.140985  1531 layer_factory.hpp:77] Creating layer relu3_3_D
I0613 11:51:53.140990  1531 net.cpp:100] Creating Layer relu3_3_D
I0613 11:51:53.140993  1531 net.cpp:434] relu3_3_D <- conv3_3_D
I0613 11:51:53.140997  1531 net.cpp:395] relu3_3_D -> conv3_3_D (in-place)
I0613 11:51:53.141614  1531 net.cpp:150] Setting up relu3_3_D
I0613 11:51:53.141623  1531 net.cpp:157] Top shape: 5 256 90 120 (13824000)
I0613 11:51:53.141625  1531 net.cpp:165] Memory required for data: 3590784000
I0613 11:51:53.141628  1531 layer_factory.hpp:77] Creating layer conv3_2_D
I0613 11:51:53.141638  1531 net.cpp:100] Creating Layer conv3_2_D
I0613 11:51:53.141640  1531 net.cpp:434] conv3_2_D <- conv3_3_D
I0613 11:51:53.141645  1531 net.cpp:408] conv3_2_D -> conv3_2_D
I0613 11:51:53.152603  1531 net.cpp:150] Setting up conv3_2_D
I0613 11:51:53.152612  1531 net.cpp:157] Top shape: 5 256 90 120 (13824000)
I0613 11:51:53.152616  1531 net.cpp:165] Memory required for data: 3646080000
I0613 11:51:53.152621  1531 layer_factory.hpp:77] Creating layer conv3_2_D_bn
I0613 11:51:53.152629  1531 net.cpp:100] Creating Layer conv3_2_D_bn
I0613 11:51:53.152632  1531 net.cpp:434] conv3_2_D_bn <- conv3_2_D
I0613 11:51:53.152638  1531 net.cpp:395] conv3_2_D_bn -> conv3_2_D (in-place)
I0613 11:51:53.152797  1531 net.cpp:150] Setting up conv3_2_D_bn
I0613 11:51:53.152803  1531 net.cpp:157] Top shape: 5 256 90 120 (13824000)
I0613 11:51:53.152806  1531 net.cpp:165] Memory required for data: 3701376000
I0613 11:51:53.152812  1531 layer_factory.hpp:77] Creating layer relu3_2_D
I0613 11:51:53.152817  1531 net.cpp:100] Creating Layer relu3_2_D
I0613 11:51:53.152819  1531 net.cpp:434] relu3_2_D <- conv3_2_D
I0613 11:51:53.152823  1531 net.cpp:395] relu3_2_D -> conv3_2_D (in-place)
I0613 11:51:53.152950  1531 net.cpp:150] Setting up relu3_2_D
I0613 11:51:53.152956  1531 net.cpp:157] Top shape: 5 256 90 120 (13824000)
I0613 11:51:53.152958  1531 net.cpp:165] Memory required for data: 3756672000
I0613 11:51:53.152961  1531 layer_factory.hpp:77] Creating layer conv3_1_D
I0613 11:51:53.152967  1531 net.cpp:100] Creating Layer conv3_1_D
I0613 11:51:53.152971  1531 net.cpp:434] conv3_1_D <- conv3_2_D
I0613 11:51:53.152976  1531 net.cpp:408] conv3_1_D -> conv3_1_D
I0613 11:51:53.159157  1531 net.cpp:150] Setting up conv3_1_D
I0613 11:51:53.159166  1531 net.cpp:157] Top shape: 5 128 90 120 (6912000)
I0613 11:51:53.159169  1531 net.cpp:165] Memory required for data: 3784320000
I0613 11:51:53.159175  1531 layer_factory.hpp:77] Creating layer conv3_1_D_bn
I0613 11:51:53.159184  1531 net.cpp:100] Creating Layer conv3_1_D_bn
I0613 11:51:53.159188  1531 net.cpp:434] conv3_1_D_bn <- conv3_1_D
I0613 11:51:53.159193  1531 net.cpp:395] conv3_1_D_bn -> conv3_1_D (in-place)
I0613 11:51:53.159353  1531 net.cpp:150] Setting up conv3_1_D_bn
I0613 11:51:53.159358  1531 net.cpp:157] Top shape: 5 128 90 120 (6912000)
I0613 11:51:53.159360  1531 net.cpp:165] Memory required for data: 3811968000
I0613 11:51:53.159365  1531 layer_factory.hpp:77] Creating layer relu3_1_D
I0613 11:51:53.159379  1531 net.cpp:100] Creating Layer relu3_1_D
I0613 11:51:53.159381  1531 net.cpp:434] relu3_1_D <- conv3_1_D
I0613 11:51:53.159385  1531 net.cpp:395] relu3_1_D -> conv3_1_D (in-place)
I0613 11:51:53.159508  1531 net.cpp:150] Setting up relu3_1_D
I0613 11:51:53.159514  1531 net.cpp:157] Top shape: 5 128 90 120 (6912000)
I0613 11:51:53.159518  1531 net.cpp:165] Memory required for data: 3839616000
I0613 11:51:53.159519  1531 layer_factory.hpp:77] Creating layer upsample2
I0613 11:51:53.159525  1531 net.cpp:100] Creating Layer upsample2
I0613 11:51:53.159528  1531 net.cpp:434] upsample2 <- conv3_1_D
I0613 11:51:53.159533  1531 net.cpp:434] upsample2 <- pool2_mask
I0613 11:51:53.159538  1531 net.cpp:408] upsample2 -> pool2_D
I0613 11:51:53.159549  1531 upsample_layer.cpp:27] Params 'pad_out_{}_' are deprecated. Please declare upsample height and width useing the upsample_h, upsample_w parameters.
I0613 11:51:53.159574  1531 net.cpp:150] Setting up upsample2
I0613 11:51:53.159579  1531 net.cpp:157] Top shape: 5 128 180 240 (27648000)
I0613 11:51:53.159581  1531 net.cpp:165] Memory required for data: 3950208000
I0613 11:51:53.159584  1531 layer_factory.hpp:77] Creating layer conv2_2_D
I0613 11:51:53.159592  1531 net.cpp:100] Creating Layer conv2_2_D
I0613 11:51:53.159595  1531 net.cpp:434] conv2_2_D <- pool2_D
I0613 11:51:53.159600  1531 net.cpp:408] conv2_2_D -> conv2_2_D
I0613 11:51:53.162915  1531 net.cpp:150] Setting up conv2_2_D
I0613 11:51:53.162923  1531 net.cpp:157] Top shape: 5 128 180 240 (27648000)
I0613 11:51:53.162926  1531 net.cpp:165] Memory required for data: 4060800000
I0613 11:51:53.162932  1531 layer_factory.hpp:77] Creating layer conv2_2_D_bn
I0613 11:51:53.162940  1531 net.cpp:100] Creating Layer conv2_2_D_bn
I0613 11:51:53.162942  1531 net.cpp:434] conv2_2_D_bn <- conv2_2_D
I0613 11:51:53.162947  1531 net.cpp:395] conv2_2_D_bn -> conv2_2_D (in-place)
I0613 11:51:53.163148  1531 net.cpp:150] Setting up conv2_2_D_bn
I0613 11:51:53.163154  1531 net.cpp:157] Top shape: 5 128 180 240 (27648000)
I0613 11:51:53.163157  1531 net.cpp:165] Memory required for data: 4171392000
I0613 11:51:53.163162  1531 layer_factory.hpp:77] Creating layer relu2_2_D
I0613 11:51:53.163168  1531 net.cpp:100] Creating Layer relu2_2_D
I0613 11:51:53.163172  1531 net.cpp:434] relu2_2_D <- conv2_2_D
I0613 11:51:53.163174  1531 net.cpp:395] relu2_2_D -> conv2_2_D (in-place)
I0613 11:51:53.163501  1531 net.cpp:150] Setting up relu2_2_D
I0613 11:51:53.163508  1531 net.cpp:157] Top shape: 5 128 180 240 (27648000)
I0613 11:51:53.163511  1531 net.cpp:165] Memory required for data: 4281984000
I0613 11:51:53.163514  1531 layer_factory.hpp:77] Creating layer conv2_1_D
I0613 11:51:53.163522  1531 net.cpp:100] Creating Layer conv2_1_D
I0613 11:51:53.163525  1531 net.cpp:434] conv2_1_D <- conv2_2_D
I0613 11:51:53.163532  1531 net.cpp:408] conv2_1_D -> conv2_1_D
I0613 11:51:53.165676  1531 net.cpp:150] Setting up conv2_1_D
I0613 11:51:53.165685  1531 net.cpp:157] Top shape: 5 64 180 240 (13824000)
I0613 11:51:53.165688  1531 net.cpp:165] Memory required for data: 4337280000
I0613 11:51:53.165694  1531 layer_factory.hpp:77] Creating layer conv2_1_D_bn
I0613 11:51:53.165700  1531 net.cpp:100] Creating Layer conv2_1_D_bn
I0613 11:51:53.165704  1531 net.cpp:434] conv2_1_D_bn <- conv2_1_D
I0613 11:51:53.165709  1531 net.cpp:395] conv2_1_D_bn -> conv2_1_D (in-place)
I0613 11:51:53.166407  1531 net.cpp:150] Setting up conv2_1_D_bn
I0613 11:51:53.166416  1531 net.cpp:157] Top shape: 5 64 180 240 (13824000)
I0613 11:51:53.166419  1531 net.cpp:165] Memory required for data: 4392576000
I0613 11:51:53.166424  1531 layer_factory.hpp:77] Creating layer relu2_1_D
I0613 11:51:53.166430  1531 net.cpp:100] Creating Layer relu2_1_D
I0613 11:51:53.166435  1531 net.cpp:434] relu2_1_D <- conv2_1_D
I0613 11:51:53.166440  1531 net.cpp:395] relu2_1_D -> conv2_1_D (in-place)
I0613 11:51:53.166569  1531 net.cpp:150] Setting up relu2_1_D
I0613 11:51:53.166575  1531 net.cpp:157] Top shape: 5 64 180 240 (13824000)
I0613 11:51:53.166585  1531 net.cpp:165] Memory required for data: 4447872000
I0613 11:51:53.166589  1531 layer_factory.hpp:77] Creating layer upsample1
I0613 11:51:53.166594  1531 net.cpp:100] Creating Layer upsample1
I0613 11:51:53.166597  1531 net.cpp:434] upsample1 <- conv2_1_D
I0613 11:51:53.166601  1531 net.cpp:434] upsample1 <- pool1_mask
I0613 11:51:53.166606  1531 net.cpp:408] upsample1 -> pool1_D
I0613 11:51:53.166612  1531 upsample_layer.cpp:27] Params 'pad_out_{}_' are deprecated. Please declare upsample height and width useing the upsample_h, upsample_w parameters.
I0613 11:51:53.166633  1531 net.cpp:150] Setting up upsample1
I0613 11:51:53.166637  1531 net.cpp:157] Top shape: 5 64 360 480 (55296000)
I0613 11:51:53.166640  1531 net.cpp:165] Memory required for data: 4669056000
I0613 11:51:53.166643  1531 layer_factory.hpp:77] Creating layer conv1_2_D
I0613 11:51:53.166651  1531 net.cpp:100] Creating Layer conv1_2_D
I0613 11:51:53.166653  1531 net.cpp:434] conv1_2_D <- pool1_D
I0613 11:51:53.166658  1531 net.cpp:408] conv1_2_D -> conv1_2_D
I0613 11:51:53.168557  1531 net.cpp:150] Setting up conv1_2_D
I0613 11:51:53.168567  1531 net.cpp:157] Top shape: 5 64 360 480 (55296000)
I0613 11:51:53.168570  1531 net.cpp:165] Memory required for data: 4890240000
I0613 11:51:53.168576  1531 layer_factory.hpp:77] Creating layer conv1_2_D_bn
I0613 11:51:53.168583  1531 net.cpp:100] Creating Layer conv1_2_D_bn
I0613 11:51:53.168586  1531 net.cpp:434] conv1_2_D_bn <- conv1_2_D
I0613 11:51:53.168592  1531 net.cpp:395] conv1_2_D_bn -> conv1_2_D (in-place)
I0613 11:51:53.168814  1531 net.cpp:150] Setting up conv1_2_D_bn
I0613 11:51:53.168820  1531 net.cpp:157] Top shape: 5 64 360 480 (55296000)
I0613 11:51:53.168823  1531 net.cpp:165] Memory required for data: 5111424000
I0613 11:51:53.168828  1531 layer_factory.hpp:77] Creating layer relu1_2_D
I0613 11:51:53.168834  1531 net.cpp:100] Creating Layer relu1_2_D
I0613 11:51:53.168838  1531 net.cpp:434] relu1_2_D <- conv1_2_D
I0613 11:51:53.168841  1531 net.cpp:395] relu1_2_D -> conv1_2_D (in-place)
I0613 11:51:53.168967  1531 net.cpp:150] Setting up relu1_2_D
I0613 11:51:53.168973  1531 net.cpp:157] Top shape: 5 64 360 480 (55296000)
I0613 11:51:53.168977  1531 net.cpp:165] Memory required for data: 5332608000
I0613 11:51:53.168979  1531 layer_factory.hpp:77] Creating layer conv1_1_D
I0613 11:51:53.168987  1531 net.cpp:100] Creating Layer conv1_1_D
I0613 11:51:53.168990  1531 net.cpp:434] conv1_1_D <- conv1_2_D
I0613 11:51:53.168995  1531 net.cpp:408] conv1_1_D -> conv1_1_D
I0613 11:51:53.170313  1531 net.cpp:150] Setting up conv1_1_D
I0613 11:51:53.170321  1531 net.cpp:157] Top shape: 5 3 360 480 (2592000)
I0613 11:51:53.170325  1531 net.cpp:165] Memory required for data: 5342976000
I0613 11:51:53.170331  1531 layer_factory.hpp:77] Creating layer conv1_1_D_conv1_1_D_0_split
I0613 11:51:53.170337  1531 net.cpp:100] Creating Layer conv1_1_D_conv1_1_D_0_split
I0613 11:51:53.170341  1531 net.cpp:434] conv1_1_D_conv1_1_D_0_split <- conv1_1_D
I0613 11:51:53.170346  1531 net.cpp:408] conv1_1_D_conv1_1_D_0_split -> conv1_1_D_conv1_1_D_0_split_0
I0613 11:51:53.170351  1531 net.cpp:408] conv1_1_D_conv1_1_D_0_split -> conv1_1_D_conv1_1_D_0_split_1
I0613 11:51:53.170387  1531 net.cpp:150] Setting up conv1_1_D_conv1_1_D_0_split
I0613 11:51:53.170392  1531 net.cpp:157] Top shape: 5 3 360 480 (2592000)
I0613 11:51:53.170394  1531 net.cpp:157] Top shape: 5 3 360 480 (2592000)
I0613 11:51:53.170397  1531 net.cpp:165] Memory required for data: 5363712000
I0613 11:51:53.170402  1531 layer_factory.hpp:77] Creating layer loss
I0613 11:51:53.170410  1531 net.cpp:100] Creating Layer loss
I0613 11:51:53.170414  1531 net.cpp:434] loss <- conv1_1_D_conv1_1_D_0_split_0
I0613 11:51:53.170418  1531 net.cpp:434] loss <- label_dataRGB_1_split_0
I0613 11:51:53.170423  1531 net.cpp:408] loss -> loss
I0613 11:51:53.170435  1531 layer_factory.hpp:77] Creating layer loss
I0613 11:51:53.173609  1531 net.cpp:150] Setting up loss
I0613 11:51:53.173629  1531 net.cpp:157] Top shape: (1)
I0613 11:51:53.173632  1531 net.cpp:160]     with loss weight 1
I0613 11:51:53.173677  1531 net.cpp:165] Memory required for data: 5363712004
I0613 11:51:53.173684  1531 layer_factory.hpp:77] Creating layer accuracy
I0613 11:51:53.173693  1531 net.cpp:100] Creating Layer accuracy
I0613 11:51:53.173698  1531 net.cpp:434] accuracy <- conv1_1_D_conv1_1_D_0_split_1
I0613 11:51:53.173707  1531 net.cpp:434] accuracy <- label_dataRGB_1_split_1
I0613 11:51:53.173713  1531 net.cpp:408] accuracy -> accuracy
I0613 11:51:53.173720  1531 net.cpp:408] accuracy -> per_class_accuracy
I0613 11:51:53.173769  1531 net.cpp:150] Setting up accuracy
I0613 11:51:53.173774  1531 net.cpp:157] Top shape: (1)
I0613 11:51:53.173779  1531 net.cpp:157] Top shape: 3 (3)
I0613 11:51:53.173781  1531 net.cpp:165] Memory required for data: 5363712020
I0613 11:51:53.173784  1531 net.cpp:228] accuracy does not need backward computation.
I0613 11:51:53.173787  1531 net.cpp:226] loss needs backward computation.
I0613 11:51:53.173790  1531 net.cpp:226] conv1_1_D_conv1_1_D_0_split needs backward computation.
I0613 11:51:53.173794  1531 net.cpp:226] conv1_1_D needs backward computation.
…
