…
  dense_image_data_param {
    source: "/home/mpopovic/workspace/weedNet-devel/SegNet-Tutorial/train_and_test_data/rit-18/10m_15m_20m/trainir3.txt"
    batch_size: 5
    shuffle: false
    new_height: 360
    new_width: 480
    is_color: false
  }
}
layer {
  name: "dataRGB"
  type: "DenseImageData"
  top: "dataRGB"
  top: "label"
  dense_image_data_param {
    source: "/home/mpopovic/workspace/weedNet-devel/SegNet-Tutorial/train_and_test_data/rit-18/10m_15m_20m/train.txt"
    batch_size: 5
    shuffle: false
    new_height: 360
    new_width: 480
    is_color: true
  }
}
layer {
  name: "data"
  type: "Concat"
  bottom: "dataIR1"
  bottom: "dataIR2"
  bottom: "dataIR3"
  bottom: "dataRGB"
  top: "data"
  concat_param {
    axis: 1
  }
}
layer {
  name: "multiconv1_1"
  type: "Convolution"
  bottom: "data"
  top: "conv1_1"
  param {
    lr_mult: 1
    decay_mult: 1
  }
  param {
    lr_mult: 2
    decay_mult: 0
  }
  convolution_param {
    num_output: 64
    pad: 1
    kernel_size: 3
    weight_filler {
      type: "msra"
    }
    bias_filler {
      type: "constant"
    }
  }
}
layer {
  name: "conv1_1_bn"
  type: "BN"
  bottom: "conv1_1"
  top: "conv1_1"
  param {
    lr_mult: 1
    decay_mult: 1
  }
  param {
    lr_mult: 1
    decay_mult: 0
  }
  bn_param {
    scale_filler {
      type: "constant"
      value: 1
    }
    shift_filler {
      type: "constant"
      value: 0.001
    }
  }
}
layer {
  name: "relu1_1"
  type: "ReLU"
  bottom: "conv1_1"
  top: "conv1_1"
}
layer {
  name: "conv1_2"
  type: "Convolution"
  bottom: "conv1_1"
  top: "conv1_2"
  param {
    lr_mult: 1
    decay_mult: 1
  }
  param {
    lr_mult: 2
    decay_mult: 0
  }
  convolution_param {
    num_output: 64
    pad: 1
    kernel_size: 3
    weight_filler {
      type: "msra"
    }
    bias_filler {
      type: "constant"
    }
  }
}
layer {
  name: "conv1_2_bn"
  type: "BN"
  bottom: "conv1_2"
  top: "conv1_2"
  param {
    lr_mult: 1
    decay_mult: 1
  }
  param {
    lr_mult: 1
    decay_mult: 0
  }
  bn_param {
    scale_filler {
      type: "constant"
      value: 1
    }
    shift_filler {
      type: "constant"
      value: 0.001
    }
  }
}
layer {
  name: "relu1_2"
  type: "ReLU"
  bottom: "conv1_2"
  top: "conv1_2"
}
layer {
  name: "pool1"
  type: "Pooling"
  bottom: "conv1_2"
  top: "pool1"
  top: "pool1_mask"
  pooling_param {
    pool: MAX
    kernel_size: 2
    stride: 2
  }
}
layer {
  name: "conv2_1"
  type: "Convolution"
  bottom: "pool1"
  top: "conv2_1"
  param {
    lr_mult: 1
    decay_mult: 1
  }
  param {
    lr_mult: 2
    decay_mult: 0
  }
  convolution_param {
    num_output: 128
    pad: 1
    kernel_size: 3
    weight_filler {
      type: "msra"
    }
    bias_filler {
      type: "constant"
    }
  }
}
layer {
  name: "conv2_1_bn"
  type: "BN"
  bottom: "conv2_1"
  top: "conv2_1"
  param {
    lr_mult: 1
    decay_mult: 1
  }
  param {
    lr_mult: 1
    decay_mult: 0
  }
  bn_param {
    scale_filler {
      type: "constant"
      value: 1
    }
    shift_filler {
      type: "constant"
      value: 0.001
    }
  }
}
layer {
  name: "relu2_1"
  type: "ReLU"
  bottom: "conv2_1"
  top: "conv2_1"
}
layer {
  name: "conv2_2"
  type: "Convolution"
  bottom: "conv2_1"
  top: "conv2_2"
  param {
    lr_mult: 1
    decay_mult: 1
  }
  param {
    lr_mult: 2
    decay_mult: 0
  }
  convolution_param {
    num_output: 128
    pad: 1
    kernel_size: 3
    weight_filler {
      type: "msra"
    }
    bias_filler {
      type: "constant"
    }
  }
}
layer {
  name: "conv2_2_bn"
  type: "BN"
  bottom: "conv2_2"
  top: "conv2_2"
  param {
    lr_mult: 1
    decay_mult: 1
  }
  param {
    lr_mult: 1
    decay_mult: 0
  }
  bn_param {
    scale_filler {
      type: "constant"
      value: 1
    }
    shift_filler {
      type: "constant"
      value: 0.001
    }
  }
}
layer {
  name: "relu2_2"
  type: "ReLU"
  bottom: "conv2_2"
  top: "conv2_2"
}
layer {
  name: "pool2"
  type: "Pooling"
  bottom: "conv2_2"
  top: "pool2"
  top: "pool2_mask"
  pooling_param {
    pool: MAX
    kernel_size: 2
    stride: 2
  }
}
layer {
  name: "conv3_1"
  type: "Convolution"
  bottom: "pool2"
  top: "conv3_1"
  param {
    lr_mult: 1
    decay_mult: 1
  }
  param {
    lr_mult: 2
    decay_mult: 0
  }
  convolution_param {
    num_output: 256
    pad: 1
    kernel_size: 3
    weight_filler {
      type: "msra"
    }
    bias_filler {
      type: "constant"
    }
  }
}
layer {
  name: "conv3_1_bn"
  type: "BN"
  bottom: "conv3_1"
  top: "conv3_1"
  param {
    lr_mult: 1
    decay_mult: 1
  }
  param {
    lr_mult: 1
    decay_mult: 0
  }
  bn_param {
    scale_filler {
      type: "constant"
      value: 1
    }
    shift_filler {
      type: "constant"
      value: 0.001
    }
  }
}
layer {
  name: "relu3_1"
  type: "ReLU"
  bottom: "conv3_1"
  top: "conv3_1"
}
layer {
  name: "conv3_2"
  type: "Convolution"
  bottom: "conv3_1"
  top: "conv3_2"
  param {
    lr_mult: 1
    decay_mult: 1
  }
  param {
    lr_mult: 2
    decay_mult: 0
  }
  convolution_param {
    num_output: 256
    pad: 1
    kernel_size: 3
    weight_filler {
      type: "msra"
    }
    bias_filler {
      type: "constant"
    }
  }
}
layer {
  name: "conv3_2_bn"
  type: "BN"
  bottom: "conv3_2"
  top: "conv3_2"
  param {
    lr_mult: 1
    decay_mult: 1
  }
  param {
    lr_mult: 1
    decay_mult: 0
  }
  bn_param {
    scale_filler {
      type: "constant"
      value: 1
    }
    shift_filler {
      type: "constant"
      value: 0.001
    }
  }
}
layer {
  name: "relu3_2"
  type: "ReLU"
  bottom: "conv3_2"
  top: "conv3_2"
}
layer {
  name: "conv3_3"
  type: "Convolution"
  bottom: "conv3_2"
  top: "conv3_3"
  param {
    lr_mult: 1
    decay_mult: 1
  }
  param {
    lr_mult: 2
    decay_mult: 0
  }
  convolution_param {
    num_output: 256
    pad: 1
    kernel_size: 3
    weight_filler {
      type: "msra"
    }
    bias_filler {
      type: "constant"
    }
  }
}
layer {
  name: "conv3_3_bn"
  type: "BN"
  bottom: "conv3_3"
  top: "conv3_3"
  param {
    lr_mult: 1
    decay_mult: 1
  }
  param {
    lr_mult: 1
    decay_mult: 0
  }
  bn_param {
    scale_filler {
      type: "constant"
      value: 1
    }
    shift_filler {
      type: "constant"
      value: 0.001
    }
  }
}
layer {
  name: "relu3_3"
  type: "ReLU"
  bottom: "conv3_3"
  top: "conv3_3"
}
layer {
  name: "pool3"
  type: "Pooling"
  bottom: "conv3_3"
  top: "pool3"
  top: "pool3_mask"
  pooling_param {
    pool: MAX
    kernel_size: 2
    stride: 2
  }
}
layer {
  name: "conv4_1"
  type: "Convolution"
  bottom: "pool3"
  top: "conv4_1"
  param {
    lr_mult: 1
    decay_mult: 1
  }
  param {
    lr_mult: 2
    decay_mult: 0
  }
  convolution_param {
    num_output: 512
    pad: 1
    kernel_size: 3
    weight_filler {
      type: "msra"
    }
    bias_filler {
      type: "constant"
    }
  }
}
layer {
  name: "conv4_1_bn"
  type: "BN"
  bottom: "conv4_1"
  top: "conv4_1"
  param {
    lr_mult: 1
    decay_mult: 1
  }
  param {
    lr_mult: 1
    decay_mult: 0
  }
  bn_param {
    scale_filler {
      type: "constant"
      value: 1
    }
    shift_filler {
      type: "constant"
      value: 0.001
    }
  }
}
layer {
  name: "relu4_1"
  type: "ReLU"
  bottom: "conv4_1"
  top: "conv4_1"
}
layer {
  name: "conv4_2"
  type: "Convolution"
  bottom: "conv4_1"
  top: "conv4_2"
  param {
    lr_mult: 1
    decay_mult: 1
  }
  param {
    lr_mult: 2
    decay_mult: 0
  }
  convolution_param {
    num_output: 512
    pad: 1
    kernel_size: 3
    weight_filler {
      type: "msra"
    }
    bias_filler {
      type: "constant"
    }
  }
}
layer {
  name: "conv4_2_bn"
  type: "BN"
  bottom: "conv4_2"
  top: "conv4_2"
  param {
    lr_mult: 1
    decay_mult: 1
  }
  param {
    lr_mult: 1
    decay_mult: 0
  }
  bn_param {
    scale_filler {
      type: "constant"
      value: 1
    }
    shift_filler {
      type: "constant"
      value: 0.001
    }
  }
}
layer {
  name: "relu4_2"
  type: "ReLU"
  bottom: "conv4_2"
  top: "conv4_2"
}
layer {
  name: "conv4_3"
  type: "Convolution"
  bottom: "conv4_2"
  top: "conv4_3"
  param {
    lr_mult: 1
    decay_mult: 1
  }
  param {
    lr_mult: 2
    decay_mult: 0
  }
  convolution_param {
    num_output: 512
    pad: 1
    kernel_size: 3
    weight_filler {
      type: "msra"
    }
    bias_filler {
      type: "constant"
    }
  }
}
layer {
  name: "conv4_3_bn"
  type: "BN"
  bottom: "conv4_3"
  top: "conv4_3"
  param {
    lr_mult: 1
    decay_mult: 1
  }
  param {
    lr_mult: 1
    decay_mult: 0
  }
  bn_param {
    scale_filler {
      type: "constant"
      value: 1
    }
    shift_filler {
      type: "constant"
      value: 0.001
    }
  }
}
layer {
  name: "relu4_3"
  type: "ReLU"
  bottom: "conv4_3"
  top: "conv4_3"
}
layer {
  name: "pool4"
  type: "Pooling"
  bottom: "conv4_3"
  top: "pool4"
  top: "pool4_mask"
  pooling_param {
    pool: MAX
    kernel_size: 2
    stride: 2
  }
}
layer {
  name: "conv5_1"
  type: "Convolution"
  bottom: "pool4"
  top: "conv5_1"
  param {
    lr_mult: 1
    decay_mult: 1
  }
  param {
    lr_mult: 2
    decay_mult: 0
  }
  convolution_param {
    num_output: 512
    pad: 1
    kernel_size: 3
    weight_filler {
      type: "msra"
    }
    bias_filler {
      type: "constant"
    }
  }
}
layer {
  name: "conv5_1_bn"
  type: "BN"
  bottom: "conv5_1"
  top: "conv5_1"
  param {
    lr_mult: 1
    decay_mult: 1
  }
  param {
    lr_mult: 1
    decay_mult: 0
  }
  bn_param {
    scale_filler {
      type: "constant"
      value: 1
    }
    shift_filler {
      type: "constant"
      value: 0.001
    }
  }
}
layer {
  name: "relu5_1"
  type: "ReLU"
  bottom: "conv5_1"
  top: "conv5_1"
}
layer {
  name: "conv5_2"
  type: "Convolution"
  bottom: "conv5_1"
  top: "conv5_2"
  param {
    lr_mult: 1
    decay_mult: 1
  }
  param {
    lr_mult: 2
    decay_mult: 0
  }
  convolution_param {
    num_output: 512
    pad: 1
    kernel_size: 3
    weight_filler {
      type: "msra"
    }
    bias_filler {
      type: "constant"
    }
  }
}
layer {
  name: "conv5_2_bn"
  type: "BN"
  bottom: "conv5_2"
  top: "conv5_2"
  param {
    lr_mult: 1
    decay_mult: 1
  }
  param {
    lr_mult: 1
    decay_mult: 0
  }
  bn_param {
    scale_filler {
      type: "constant"
      value: 1
    }
    shift_filler {
      type: "constant"
      value: 0.001
    }
  }
}
layer {
  name: "relu5_2"
  type: "ReLU"
  bottom: "conv5_2"
  top: "conv5_2"
}
layer {
  name: "conv5_3"
  type: "Convolution"
  bottom: "conv5_2"
  top: "conv5_3"
  param {
    lr_mult: 1
    decay_mult: 1
  }
  param {
    lr_mult: 2
    decay_mult: 0
  }
  convolution_param {
    num_output: 512
    pad: 1
    kernel_size: 3
    weight_filler {
      type: "msra"
    }
    bias_filler {
      type: "constant"
    }
  }
}
layer {
  name: "conv5_3_bn"
  type: "BN"
  bottom: "conv5_3"
  top: "conv5_3"
  param {
    lr_mult: 1
    decay_mult: 1
  }
  param {
    lr_mult: 1
    decay_mult: 0
  }
  bn_param {
    scale_filler {
      type: "constant"
      value: 1
    }
    shift_filler {
      type: "constant"
      value: 0.001
    }
  }
}
layer {
  name: "relu5_3"
  type: "ReLU"
  bottom: "conv5_3"
  top: "conv5_3"
}
layer {
  name: "pool5"
  type: "Pooling"
  bottom: "conv5_3"
  top: "pool5"
  top: "pool5_mask"
  pooling_param {
    pool: MAX
    kernel_size: 2
    stride: 2
  }
}
layer {
  name: "upsample5"
  type: "Upsample"
  bottom: "pool5"
  bottom: "pool5_mask"
  top: "pool5_D"
  upsample_param {
    scale: 2
    upsample_h: 23
    upsample_w: 30
  }
}
layer {
  name: "conv5_3_D"
  type: "Convolution"
  bottom: "pool5_D"
  top: "conv5_3_D"
  param {
    lr_mult: 1
    decay_mult: 1
  }
  param {
    lr_mult: 2
    decay_mult: 0
  }
  convolution_param {
    num_output: 512
    pad: 1
    kernel_size: 3
    weight_filler {
      type: "msra"
    }
    bias_filler {
      type: "constant"
    }
  }
}
layer {
  name: "conv5_3_D_bn"
  type: "BN"
  bottom: "conv5_3_D"
  top: "conv5_3_D"
  param {
    lr_mult: 1
    decay_mult: 1
  }
  param {
    lr_mult: 1
    decay_mult: 0
  }
  bn_param {
    scale_filler {
      type: "constant"
      value: 1
    }
    shift_filler {
      type: "constant"
      value: 0.001
    }
  }
}
layer {
  name: "relu5_3_D"
  type: "ReLU"
  bottom: "conv5_3_D"
  top: "conv5_3_D"
}
layer {
  name: "conv5_2_D"
  type: "Convolution"
  bottom: "conv5_3_D"
  top: "conv5_2_D"
  param {
    lr_mult: 1
    decay_mult: 1
  }
  param {
    lr_mult: 2
    decay_mult: 0
  }
  convolution_param {
    num_output: 512
    pad: 1
    kernel_size: 3
    weight_filler {
      type: "msra"
    }
    bias_filler {
      type: "constant"
    }
  }
}
layer {
  name: "conv5_2_D_bn"
  type: "BN"
  bottom: "conv5_2_D"
  top: "conv5_2_D"
  param {
    lr_mult: 1
    decay_mult: 1
  }
  param {
    lr_mult: 1
    decay_mult: 0
  }
  bn_param {
    scale_filler {
      type: "constant"
      value: 1
    }
    shift_filler {
      type: "constant"
      value: 0.001
    }
  }
}
layer {
  name: "relu5_2_D"
  type: "ReLU"
  bottom: "conv5_2_D"
  top: "conv5_2_D"
}
layer {
  name: "conv5_1_D"
  type: "Convolution"
  bottom: "conv5_2_D"
  top: "conv5_1_D"
  param {
    lr_mult: 1
    decay_mult: 1
  }
  param {
    lr_mult: 2
    decay_mult: 0
  }
  convolution_param {
    num_output: 512
    pad: 1
    kernel_size: 3
    weight_filler {
      type: "msra"
    }
    bias_filler {
      type: "constant"
    }
  }
}
layer {
  name: "conv5_1_D_bn"
  type: "BN"
  bottom: "conv5_1_D"
  top: "conv5_1_D"
  param {
    lr_mult: 1
    decay_mult: 1
  }
  param {
    lr_mult: 1
    decay_mult: 0
  }
  bn_param {
    scale_filler {
      type: "constant"
      value: 1
    }
    shift_filler {
      type: "constant"
      value: 0.001
    }
  }
}
layer {
  name: "relu5_1_D"
  type: "ReLU"
  bottom: "conv5_1_D"
  top: "conv5_1_D"
}
layer {
  name: "upsample4"
  type: "Upsample"
  bottom: "conv5_1_D"
  bottom: "pool4_mask"
  top: "pool4_D"
  upsample_param {
    scale: 2
    upsample_h: 45
    upsample_w: 60
  }
}
layer {
  name: "conv4_3_D"
  type: "Convolution"
  bottom: "pool4_D"
  top: "conv4_3_D"
  param {
    lr_mult: 1
    decay_mult: 1
  }
  param {
    lr_mult: 2
    decay_mult: 0
  }
  convolution_param {
    num_output: 512
    pad: 1
    kernel_size: 3
    weight_filler {
      type: "msra"
    }
    bias_filler {
      type: "constant"
    }
  }
}
layer {
  name: "conv4_3_D_bn"
  type: "BN"
  bottom: "conv4_3_D"
  top: "conv4_3_D"
  param {
    lr_mult: 1
    decay_mult: 1
  }
  param {
    lr_mult: 1
    decay_mult: 0
  }
  bn_param {
    scale_filler {
      type: "constant"
      value: 1
    }
    shift_filler {
      type: "constant"
      value: 0.001
    }
  }
}
layer {
  name: "relu4_3_D"
  type: "ReLU"
  bottom: "conv4_3_D"
  top: "conv4_3_D"
}
layer {
  name: "conv4_2_D"
  type: "Convolution"
  bottom: "conv4_3_D"
  top: "conv4_2_D"
  param {
    lr_mult: 1
    decay_mult: 1
  }
  param {
    lr_mult: 2
    decay_mult: 0
  }
  convolution_param {
    num_output: 512
    pad: 1
    kernel_size: 3
    weight_filler {
      type: "msra"
    }
    bias_filler {
      type: "constant"
    }
  }
}
layer {
  name: "conv4_2_D_bn"
  type: "BN"
  bottom: "conv4_2_D"
  top: "conv4_2_D"
  param {
    lr_mult: 1
    decay_mult: 1
  }
  param {
    lr_mult: 1
    decay_mult: 0
  }
  bn_param {
    scale_filler {
      type: "constant"
      value: 1
    }
    shift_filler {
      type: "constant"
      value: 0.001
    }
  }
}
layer {
  name: "relu4_2_D"
  type: "ReLU"
  bottom: "conv4_2_D"
  top: "conv4_2_D"
}
layer {
  name: "conv4_1_D"
  type: "Convolution"
  bottom: "conv4_2_D"
  top: "conv4_1_D"
  param {
    lr_mult: 1
    decay_mult: 1
  }
  param {
    lr_mult: 2
    decay_mult: 0
  }
  convolution_param {
    num_output: 256
    pad: 1
    kernel_size: 3
    weight_filler {
      type: "msra"
    }
    bias_filler {
      type: "constant"
    }
  }
}
layer {
  name: "conv4_1_D_bn"
  type: "BN"
  bottom: "conv4_1_D"
  top: "conv4_1_D"
  param {
    lr_mult: 1
    decay_mult: 1
  }
  param {
    lr_mult: 1
    decay_mult: 0
  }
  bn_param {
    scale_filler {
      type: "constant"
      value: 1
    }
    shift_filler {
      type: "constant"
      value: 0.001
    }
  }
}
layer {
  name: "relu4_1_D"
  type: "ReLU"
  bottom: "conv4_1_D"
  top: "conv4_1_D"
}
layer {
  name: "upsample3"
  type: "Upsample"
  bottom: "conv4_1_D"
  bottom: "pool3_mask"
  top: "pool3_D"
  upsample_param {
    scale: 2
  }
}
layer {
  name: "conv3_3_D"
  type: "Convolution"
  bottom: "pool3_D"
  top: "conv3_3_D"
  param {
    lr_mult: 1
    decay_mult: 1
  }
  param {
    lr_mult: 2
    decay_mult: 0
  }
  convolution_param {
    num_output: 256
    pad: 1
    kernel_size: 3
    weight_filler {
      type: "msra"
    }
    bias_filler {
      type: "constant"
    }
  }
}
layer {
  name: "conv3_3_D_bn"
  type: "BN"
  bottom: "conv3_3_D"
  top: "conv3_3_D"
  param {
    lr_mult: 1
    decay_mult: 1
  }
  param {
    lr_mult: 1
    decay_mult: 0
  }
  bn_param {
    scale_filler {
      type: "constant"
      value: 1
    }
    shift_filler {
      type: "constant"
      value: 0.001
    }
  }
}
layer {
  name: "relu3_3_D"
  type: "ReLU"
  bottom: "conv3_3_D"
  top: "conv3_3_D"
}
layer {
  name: "conv3_2_D"
  type: "Convolution"
  bottom: "conv3_3_D"
  top: "conv3_2_D"
  param {
    lr_mult: 1
    decay_mult: 1
  }
  param {
    lr_mult: 2
    decay_mult: 0
  }
  convolution_param {
    num_output: 256
    pad: 1
    kernel_size: 3
    weight_filler {
      type: "msra"
    }
    bias_filler {
      type: "constant"
    }
  }
}
layer {
  name: "conv3_2_D_bn"
  type: "BN"
  bottom: "conv3_2_D"
  top: "conv3_2_D"
  param {
    lr_mult: 1
    decay_mult: 1
  }
  param {
    lr_mult: 1
    decay_mult: 0
  }
  bn_param {
    scale_filler {
      type: "constant"
      value: 1
    }
    shift_filler {
      type: "constant"
      value: 0.001
    }
  }
}
layer {
  name: "relu3_2_D"
  type: "ReLU"
  bottom: "conv3_2_D"
  top: "conv3_2_D"
}
layer {
  name: "conv3_1_D"
  type: "Convolution"
  bottom: "conv3_2_D"
  top: "conv3_1_D"
  param {
    lr_mult: 1
    decay_mult: 1
  }
  param {
    lr_mult: 2
    decay_mult: 0
  }
  convolution_param {
    num_output: 128
    pad: 1
    kernel_size: 3
    weight_filler {
      type: "msra"
    }
    bias_filler {
      type: "constant"
    }
  }
}
layer {
  name: "conv3_1_D_bn"
  type: "BN"
  bottom: "conv3_1_D"
  top: "conv3_1_D"
  param {
    lr_mult: 1
    decay_mult: 1
  }
  param {
    lr_mult: 1
    decay_mult: 0
  }
  bn_param {
    scale_filler {
      type: "constant"
      value: 1
    }
    shift_filler {
      type: "constant"
      value: 0.001
    }
  }
}
layer {
  name: "relu3_1_D"
  type: "ReLU"
  bottom: "conv3_1_D"
  top: "conv3_1_D"
}
layer {
  name: "upsample2"
  type: "Upsample"
  bottom: "conv3_1_D"
  bottom: "pool2_mask"
  top: "pool2_D"
  upsample_param {
    scale: 2
  }
}
layer {
  name: "conv2_2_D"
  type: "Convolution"
  bottom: "pool2_D"
  top: "conv2_2_D"
  param {
    lr_mult: 1
    decay_mult: 1
  }
  param {
    lr_mult: 2
    decay_mult: 0
  }
  convolution_param {
    num_output: 128
    pad: 1
    kernel_size: 3
    weight_filler {
      type: "msra"
    }
    bias_filler {
      type: "constant"
    }
  }
}
layer {
  name: "conv2_2_D_bn"
  type: "BN"
  bottom: "conv2_2_D"
  top: "conv2_2_D"
  param {
    lr_mult: 1
    decay_mult: 1
  }
  param {
    lr_mult: 1
    decay_mult: 0
  }
  bn_param {
    scale_filler {
      type: "constant"
      value: 1
    }
    shift_filler {
      type: "constant"
      value: 0.001
    }
  }
}
layer {
  name: "relu2_2_D"
  type: "ReLU"
  bottom: "conv2_2_D"
  top: "conv2_2_D"
}
layer {
  name: "conv2_1_D"
  type: "Convolution"
  bottom: "conv2_2_D"
  top: "conv2_1_D"
  param {
    lr_mult: 1
    decay_mult: 1
  }
  param {
    lr_mult: 2
    decay_mult: 0
  }
  convolution_param {
    num_output: 64
    pad: 1
    kernel_size: 3
    weight_filler {
      type: "msra"
    }
    bias_filler {
      type: "constant"
    }
  }
}
layer {
  name: "conv2_1_D_bn"
  type: "BN"
  bottom: "conv2_1_D"
  top: "conv2_1_D"
  param {
    lr_mult: 1
    decay_mult: 1
  }
  param {
    lr_mult: 1
    decay_mult: 0
  }
  bn_param {
    scale_filler {
      type: "constant"
      value: 1
    }
    shift_filler {
      type: "constant"
      value: 0.001
    }
  }
}
layer {
  name: "relu2_1_D"
  type: "ReLU"
  bottom: "conv2_1_D"
  top: "conv2_1_D"
}
layer {
  name: "upsample1"
  type: "Upsample"
  bottom: "conv2_1_D"
  bottom: "pool1_mask"
  top: "pool1_D"
  upsample_param {
    scale: 2
  }
}
layer {
  name: "conv1_2_D"
  type: "Convolution"
  bottom: "pool1_D"
  top: "conv1_2_D"
  param {
    lr_mult: 1
    decay_mult: 1
  }
  param {
    lr_mult: 2
    decay_mult: 0
  }
  convolution_param {
    num_output: 64
    pad: 1
    kernel_size: 3
    weight_filler {
      type: "msra"
    }
    bias_filler {
      type: "constant"
    }
  }
}
layer {
  name: "conv1_2_D_bn"
  type: "BN"
  bottom: "conv1_2_D"
  top: "conv1_2_D"
  param {
    lr_mult: 1
    decay_mult: 1
  }
  param {
    lr_mult: 1
    decay_mult: 0
  }
  bn_param {
    scale_filler {
      type: "constant"
      value: 1
    }
    shift_filler {
      type: "constant"
      value: 0.001
    }
  }
}
layer {
  name: "relu1_2_D"
  type: "ReLU"
  bottom: "conv1_2_D"
  top: "conv1_2_D"
}
layer {
  name: "conv1_1_D"
  type: "Convolution"
  bottom: "conv1_2_D"
  top: "conv1_1_D"
  param {
    lr_mult: 1
    decay_mult: 1
  }
  param {
    lr_mult: 2
    decay_mult: 0
  }
  convolution_param {
    num_output: 4
    pad: 1
    kernel_size: 3
    weight_filler {
      type: "msra"
    }
    bias_filler {
      type: "constant"
    }
  }
}
layer {
  name: "loss"
  type: "SoftmaxWithLoss"
  bottom: "conv1_1_D"
  bottom: "label"
  top: "loss"
  loss_param {
    weight_by_label_freqs: true
    class_weighting: 0.9566
    class_weighting: 0.3986
    class_weighting: 1.3157
    class_weighting: 1.0475
  }
  softmax_param {
    engine: CAFFE
  }
}
layer {
  name: "accuracy"
  type: "Accuracy"
  bottom: "conv1_1_D"
  bottom: "label"
  top: "accuracy"
  top: "per_class_accuracy"
}
I0614 12:05:05.358968 17379 layer_factory.hpp:77] Creating layer dataIR1
I0614 12:05:05.358984 17379 net.cpp:100] Creating Layer dataIR1
I0614 12:05:05.358988 17379 net.cpp:408] dataIR1 -> dataIR1
I0614 12:05:05.359007 17379 dense_image_only_data_layer.cpp:49] Opening file /home/mpopovic/workspace/weedNet-devel/SegNet-Tutorial/train_and_test_data/rit-18/10m_15m_20m/trainir1.txt
I0614 12:05:05.359207 17379 dense_image_only_data_layer.cpp:65] A total of 754 examples.
I0614 12:05:05.368561 17379 dense_image_only_data_layer.cpp:118] output data size: 5,1,360,480
I0614 12:05:05.369364 17379 net.cpp:150] Setting up dataIR1
I0614 12:05:05.369382 17379 net.cpp:157] Top shape: 5 1 360 480 (864000)
I0614 12:05:05.369386 17379 net.cpp:165] Memory required for data: 3456000
I0614 12:05:05.369403 17379 layer_factory.hpp:77] Creating layer dataIR2
I0614 12:05:05.369413 17379 net.cpp:100] Creating Layer dataIR2
I0614 12:05:05.369416 17379 net.cpp:408] dataIR2 -> dataIR2
I0614 12:05:05.369426 17379 dense_image_only_data_layer.cpp:49] Opening file /home/mpopovic/workspace/weedNet-devel/SegNet-Tutorial/train_and_test_data/rit-18/10m_15m_20m/trainir2.txt
I0614 12:05:05.369616 17379 dense_image_only_data_layer.cpp:65] A total of 754 examples.
I0614 12:05:05.372964 17379 dense_image_only_data_layer.cpp:118] output data size: 5,1,360,480
I0614 12:05:05.376025 17379 net.cpp:150] Setting up dataIR2
I0614 12:05:05.376052 17379 net.cpp:157] Top shape: 5 1 360 480 (864000)
I0614 12:05:05.376057 17379 net.cpp:165] Memory required for data: 6912000
I0614 12:05:05.376063 17379 layer_factory.hpp:77] Creating layer dataIR3
I0614 12:05:05.376077 17379 net.cpp:100] Creating Layer dataIR3
I0614 12:05:05.376082 17379 net.cpp:408] dataIR3 -> dataIR3
I0614 12:05:05.376093 17379 dense_image_only_data_layer.cpp:49] Opening file /home/mpopovic/workspace/weedNet-devel/SegNet-Tutorial/train_and_test_data/rit-18/10m_15m_20m/trainir3.txt
I0614 12:05:05.376343 17379 dense_image_only_data_layer.cpp:65] A total of 754 examples.
I0614 12:05:05.380540 17379 dense_image_only_data_layer.cpp:118] output data size: 5,1,360,480
I0614 12:05:05.381830 17379 net.cpp:150] Setting up dataIR3
I0614 12:05:05.381844 17379 net.cpp:157] Top shape: 5 1 360 480 (864000)
I0614 12:05:05.381850 17379 net.cpp:165] Memory required for data: 10368000
I0614 12:05:05.381856 17379 layer_factory.hpp:77] Creating layer dataRGB
I0614 12:05:05.381868 17379 net.cpp:100] Creating Layer dataRGB
I0614 12:05:05.381875 17379 net.cpp:408] dataRGB -> dataRGB
I0614 12:05:05.381886 17379 net.cpp:408] dataRGB -> label
I0614 12:05:05.381903 17379 dense_image_data_layer.cpp:49] Opening file /home/mpopovic/workspace/weedNet-devel/SegNet-Tutorial/train_and_test_data/rit-18/10m_15m_20m/train.txt
I0614 12:05:05.382437 17379 dense_image_data_layer.cpp:64] A total of 754 examples.
I0614 12:05:05.391789 17379 dense_image_data_layer.cpp:117] output data size: 5,3,360,480
I0614 12:05:05.397472 17379 net.cpp:150] Setting up dataRGB
I0614 12:05:05.397491 17379 net.cpp:157] Top shape: 5 3 360 480 (2592000)
I0614 12:05:05.397495 17379 net.cpp:157] Top shape: 5 1 360 480 (864000)
I0614 12:05:05.397496 17379 net.cpp:165] Memory required for data: 24192000
I0614 12:05:05.397501 17379 layer_factory.hpp:77] Creating layer label_dataRGB_1_split
I0614 12:05:05.397517 17379 net.cpp:100] Creating Layer label_dataRGB_1_split
I0614 12:05:05.397526 17379 net.cpp:434] label_dataRGB_1_split <- label
I0614 12:05:05.397541 17379 net.cpp:408] label_dataRGB_1_split -> label_dataRGB_1_split_0
I0614 12:05:05.397549 17379 net.cpp:408] label_dataRGB_1_split -> label_dataRGB_1_split_1
I0614 12:05:05.397601 17379 net.cpp:150] Setting up label_dataRGB_1_split
I0614 12:05:05.397608 17379 net.cpp:157] Top shape: 5 1 360 480 (864000)
I0614 12:05:05.397613 17379 net.cpp:157] Top shape: 5 1 360 480 (864000)
I0614 12:05:05.397615 17379 net.cpp:165] Memory required for data: 31104000
I0614 12:05:05.397619 17379 layer_factory.hpp:77] Creating layer data
I0614 12:05:05.397626 17379 net.cpp:100] Creating Layer data
I0614 12:05:05.397630 17379 net.cpp:434] data <- dataIR1
I0614 12:05:05.397635 17379 net.cpp:434] data <- dataIR2
I0614 12:05:05.397639 17379 net.cpp:434] data <- dataIR3
I0614 12:05:05.397644 17379 net.cpp:434] data <- dataRGB
I0614 12:05:05.397647 17379 net.cpp:408] data -> data
I0614 12:05:05.397673 17379 net.cpp:150] Setting up data
I0614 12:05:05.397678 17379 net.cpp:157] Top shape: 5 6 360 480 (5184000)
I0614 12:05:05.397681 17379 net.cpp:165] Memory required for data: 51840000
I0614 12:05:05.397684 17379 layer_factory.hpp:77] Creating layer multiconv1_1
I0614 12:05:05.397701 17379 net.cpp:100] Creating Layer multiconv1_1
I0614 12:05:05.397706 17379 net.cpp:434] multiconv1_1 <- data
I0614 12:05:05.397711 17379 net.cpp:408] multiconv1_1 -> conv1_1
I0614 12:05:05.816998 17379 net.cpp:150] Setting up multiconv1_1
I0614 12:05:05.817030 17379 net.cpp:157] Top shape: 5 64 360 480 (55296000)
I0614 12:05:05.817034 17379 net.cpp:165] Memory required for data: 273024000
I0614 12:05:05.817050 17379 layer_factory.hpp:77] Creating layer conv1_1_bn
I0614 12:05:05.817061 17379 net.cpp:100] Creating Layer conv1_1_bn
I0614 12:05:05.817065 17379 net.cpp:434] conv1_1_bn <- conv1_1
I0614 12:05:05.817071 17379 net.cpp:395] conv1_1_bn -> conv1_1 (in-place)
I0614 12:05:05.817351 17379 net.cpp:150] Setting up conv1_1_bn
I0614 12:05:05.817358 17379 net.cpp:157] Top shape: 5 64 360 480 (55296000)
I0614 12:05:05.817361 17379 net.cpp:165] Memory required for data: 494208000
I0614 12:05:05.817368 17379 layer_factory.hpp:77] Creating layer relu1_1
I0614 12:05:05.817375 17379 net.cpp:100] Creating Layer relu1_1
I0614 12:05:05.817378 17379 net.cpp:434] relu1_1 <- conv1_1
I0614 12:05:05.817382 17379 net.cpp:395] relu1_1 -> conv1_1 (in-place)
I0614 12:05:05.817513 17379 net.cpp:150] Setting up relu1_1
I0614 12:05:05.817520 17379 net.cpp:157] Top shape: 5 64 360 480 (55296000)
I0614 12:05:05.817523 17379 net.cpp:165] Memory required for data: 715392000
I0614 12:05:05.817526 17379 layer_factory.hpp:77] Creating layer conv1_2
I0614 12:05:05.817533 17379 net.cpp:100] Creating Layer conv1_2
I0614 12:05:05.817538 17379 net.cpp:434] conv1_2 <- conv1_1
I0614 12:05:05.817541 17379 net.cpp:408] conv1_2 -> conv1_2
I0614 12:05:05.820268 17379 net.cpp:150] Setting up conv1_2
I0614 12:05:05.820279 17379 net.cpp:157] Top shape: 5 64 360 480 (55296000)
I0614 12:05:05.820283 17379 net.cpp:165] Memory required for data: 936576000
I0614 12:05:05.820291 17379 layer_factory.hpp:77] Creating layer conv1_2_bn
I0614 12:05:05.820298 17379 net.cpp:100] Creating Layer conv1_2_bn
I0614 12:05:05.820302 17379 net.cpp:434] conv1_2_bn <- conv1_2
I0614 12:05:05.820307 17379 net.cpp:395] conv1_2_bn -> conv1_2 (in-place)
I0614 12:05:05.820667 17379 net.cpp:150] Setting up conv1_2_bn
I0614 12:05:05.820677 17379 net.cpp:157] Top shape: 5 64 360 480 (55296000)
I0614 12:05:05.820679 17379 net.cpp:165] Memory required for data: 1157760000
I0614 12:05:05.820684 17379 layer_factory.hpp:77] Creating layer relu1_2
I0614 12:05:05.820690 17379 net.cpp:100] Creating Layer relu1_2
I0614 12:05:05.820693 17379 net.cpp:434] relu1_2 <- conv1_2
I0614 12:05:05.820698 17379 net.cpp:395] relu1_2 -> conv1_2 (in-place)
I0614 12:05:05.820847 17379 net.cpp:150] Setting up relu1_2
I0614 12:05:05.820854 17379 net.cpp:157] Top shape: 5 64 360 480 (55296000)
I0614 12:05:05.820857 17379 net.cpp:165] Memory required for data: 1378944000
I0614 12:05:05.820858 17379 layer_factory.hpp:77] Creating layer pool1
I0614 12:05:05.820863 17379 layer_factory.cpp:91] cuDNN does not support multiple tops. Using Caffe's own pooling layer.
I0614 12:05:05.820868 17379 net.cpp:100] Creating Layer pool1
I0614 12:05:05.820869 17379 net.cpp:434] pool1 <- conv1_2
I0614 12:05:05.820873 17379 net.cpp:408] pool1 -> pool1
I0614 12:05:05.820878 17379 net.cpp:408] pool1 -> pool1_mask
I0614 12:05:05.820920 17379 net.cpp:150] Setting up pool1
I0614 12:05:05.820924 17379 net.cpp:157] Top shape: 5 64 180 240 (13824000)
I0614 12:05:05.820926 17379 net.cpp:157] Top shape: 5 64 180 240 (13824000)
I0614 12:05:05.820927 17379 net.cpp:165] Memory required for data: 1489536000
I0614 12:05:05.820930 17379 layer_factory.hpp:77] Creating layer conv2_1
I0614 12:05:05.820935 17379 net.cpp:100] Creating Layer conv2_1
I0614 12:05:05.820936 17379 net.cpp:434] conv2_1 <- pool1
I0614 12:05:05.820940 17379 net.cpp:408] conv2_1 -> conv2_1
I0614 12:05:05.823860 17379 net.cpp:150] Setting up conv2_1
I0614 12:05:05.823871 17379 net.cpp:157] Top shape: 5 128 180 240 (27648000)
I0614 12:05:05.823873 17379 net.cpp:165] Memory required for data: 1600128000
I0614 12:05:05.823880 17379 layer_factory.hpp:77] Creating layer conv2_1_bn
I0614 12:05:05.823886 17379 net.cpp:100] Creating Layer conv2_1_bn
I0614 12:05:05.823889 17379 net.cpp:434] conv2_1_bn <- conv2_1
I0614 12:05:05.823892 17379 net.cpp:395] conv2_1_bn -> conv2_1 (in-place)
I0614 12:05:05.824146 17379 net.cpp:150] Setting up conv2_1_bn
I0614 12:05:05.824151 17379 net.cpp:157] Top shape: 5 128 180 240 (27648000)
I0614 12:05:05.824152 17379 net.cpp:165] Memory required for data: 1710720000
I0614 12:05:05.824156 17379 layer_factory.hpp:77] Creating layer relu2_1
I0614 12:05:05.824160 17379 net.cpp:100] Creating Layer relu2_1
I0614 12:05:05.824162 17379 net.cpp:434] relu2_1 <- conv2_1
I0614 12:05:05.824164 17379 net.cpp:395] relu2_1 -> conv2_1 (in-place)
I0614 12:05:05.824507 17379 net.cpp:150] Setting up relu2_1
I0614 12:05:05.824513 17379 net.cpp:157] Top shape: 5 128 180 240 (27648000)
I0614 12:05:05.824517 17379 net.cpp:165] Memory required for data: 1821312000
I0614 12:05:05.824518 17379 layer_factory.hpp:77] Creating layer conv2_2
I0614 12:05:05.824524 17379 net.cpp:100] Creating Layer conv2_2
I0614 12:05:05.824527 17379 net.cpp:434] conv2_2 <- conv2_1
I0614 12:05:05.824530 17379 net.cpp:408] conv2_2 -> conv2_2
I0614 12:05:05.827972 17379 net.cpp:150] Setting up conv2_2
I0614 12:05:05.827980 17379 net.cpp:157] Top shape: 5 128 180 240 (27648000)
I0614 12:05:05.827981 17379 net.cpp:165] Memory required for data: 1931904000
I0614 12:05:05.827986 17379 layer_factory.hpp:77] Creating layer conv2_2_bn
I0614 12:05:05.827991 17379 net.cpp:100] Creating Layer conv2_2_bn
I0614 12:05:05.827994 17379 net.cpp:434] conv2_2_bn <- conv2_2
I0614 12:05:05.827997 17379 net.cpp:395] conv2_2_bn -> conv2_2 (in-place)
I0614 12:05:05.828248 17379 net.cpp:150] Setting up conv2_2_bn
I0614 12:05:05.828253 17379 net.cpp:157] Top shape: 5 128 180 240 (27648000)
I0614 12:05:05.828254 17379 net.cpp:165] Memory required for data: 2042496000
I0614 12:05:05.828258 17379 layer_factory.hpp:77] Creating layer relu2_2
I0614 12:05:05.828260 17379 net.cpp:100] Creating Layer relu2_2
I0614 12:05:05.828263 17379 net.cpp:434] relu2_2 <- conv2_2
I0614 12:05:05.828265 17379 net.cpp:395] relu2_2 -> conv2_2 (in-place)
I0614 12:05:05.828382 17379 net.cpp:150] Setting up relu2_2
I0614 12:05:05.828387 17379 net.cpp:157] Top shape: 5 128 180 240 (27648000)
I0614 12:05:05.828389 17379 net.cpp:165] Memory required for data: 2153088000
I0614 12:05:05.828392 17379 layer_factory.hpp:77] Creating layer pool2
I0614 12:05:05.828393 17379 layer_factory.cpp:91] cuDNN does not support multiple tops. Using Caffe's own pooling layer.
I0614 12:05:05.828397 17379 net.cpp:100] Creating Layer pool2
I0614 12:05:05.828398 17379 net.cpp:434] pool2 <- conv2_2
I0614 12:05:05.828400 17379 net.cpp:408] pool2 -> pool2
I0614 12:05:05.828404 17379 net.cpp:408] pool2 -> pool2_mask
I0614 12:05:05.828441 17379 net.cpp:150] Setting up pool2
I0614 12:05:05.828444 17379 net.cpp:157] Top shape: 5 128 90 120 (6912000)
I0614 12:05:05.828446 17379 net.cpp:157] Top shape: 5 128 90 120 (6912000)
I0614 12:05:05.828449 17379 net.cpp:165] Memory required for data: 2208384000
I0614 12:05:05.828450 17379 layer_factory.hpp:77] Creating layer conv3_1
I0614 12:05:05.828454 17379 net.cpp:100] Creating Layer conv3_1
I0614 12:05:05.828457 17379 net.cpp:434] conv3_1 <- pool2
I0614 12:05:05.828461 17379 net.cpp:408] conv3_1 -> conv3_1
I0614 12:05:05.834944 17379 net.cpp:150] Setting up conv3_1
I0614 12:05:05.834952 17379 net.cpp:157] Top shape: 5 256 90 120 (13824000)
I0614 12:05:05.834954 17379 net.cpp:165] Memory required for data: 2263680000
I0614 12:05:05.834961 17379 layer_factory.hpp:77] Creating layer conv3_1_bn
I0614 12:05:05.834966 17379 net.cpp:100] Creating Layer conv3_1_bn
I0614 12:05:05.834969 17379 net.cpp:434] conv3_1_bn <- conv3_1
I0614 12:05:05.834972 17379 net.cpp:395] conv3_1_bn -> conv3_1 (in-place)
I0614 12:05:05.835196 17379 net.cpp:150] Setting up conv3_1_bn
I0614 12:05:05.835199 17379 net.cpp:157] Top shape: 5 256 90 120 (13824000)
I0614 12:05:05.835201 17379 net.cpp:165] Memory required for data: 2318976000
I0614 12:05:05.835204 17379 layer_factory.hpp:77] Creating layer relu3_1
I0614 12:05:05.835208 17379 net.cpp:100] Creating Layer relu3_1
I0614 12:05:05.835209 17379 net.cpp:434] relu3_1 <- conv3_1
I0614 12:05:05.835212 17379 net.cpp:395] relu3_1 -> conv3_1 (in-place)
I0614 12:05:05.835345 17379 net.cpp:150] Setting up relu3_1
I0614 12:05:05.835350 17379 net.cpp:157] Top shape: 5 256 90 120 (13824000)
I0614 12:05:05.835351 17379 net.cpp:165] Memory required for data: 2374272000
I0614 12:05:05.835353 17379 layer_factory.hpp:77] Creating layer conv3_2
I0614 12:05:05.835358 17379 net.cpp:100] Creating Layer conv3_2
I0614 12:05:05.835361 17379 net.cpp:434] conv3_2 <- conv3_1
I0614 12:05:05.835364 17379 net.cpp:408] conv3_2 -> conv3_2
I0614 12:05:05.847661 17379 net.cpp:150] Setting up conv3_2
I0614 12:05:05.847672 17379 net.cpp:157] Top shape: 5 256 90 120 (13824000)
I0614 12:05:05.847676 17379 net.cpp:165] Memory required for data: 2429568000
I0614 12:05:05.847681 17379 layer_factory.hpp:77] Creating layer conv3_2_bn
I0614 12:05:05.847687 17379 net.cpp:100] Creating Layer conv3_2_bn
I0614 12:05:05.847689 17379 net.cpp:434] conv3_2_bn <- conv3_2
I0614 12:05:05.847694 17379 net.cpp:395] conv3_2_bn -> conv3_2 (in-place)
I0614 12:05:05.847924 17379 net.cpp:150] Setting up conv3_2_bn
I0614 12:05:05.847929 17379 net.cpp:157] Top shape: 5 256 90 120 (13824000)
I0614 12:05:05.847931 17379 net.cpp:165] Memory required for data: 2484864000
I0614 12:05:05.847934 17379 layer_factory.hpp:77] Creating layer relu3_2
I0614 12:05:05.847937 17379 net.cpp:100] Creating Layer relu3_2
I0614 12:05:05.847939 17379 net.cpp:434] relu3_2 <- conv3_2
I0614 12:05:05.847941 17379 net.cpp:395] relu3_2 -> conv3_2 (in-place)
I0614 12:05:05.848289 17379 net.cpp:150] Setting up relu3_2
I0614 12:05:05.848296 17379 net.cpp:157] Top shape: 5 256 90 120 (13824000)
I0614 12:05:05.848299 17379 net.cpp:165] Memory required for data: 2540160000
I0614 12:05:05.848301 17379 layer_factory.hpp:77] Creating layer conv3_3
I0614 12:05:05.848307 17379 net.cpp:100] Creating Layer conv3_3
I0614 12:05:05.848310 17379 net.cpp:434] conv3_3 <- conv3_2
I0614 12:05:05.848314 17379 net.cpp:408] conv3_3 -> conv3_3
I0614 12:05:05.860069 17379 net.cpp:150] Setting up conv3_3
I0614 12:05:05.860080 17379 net.cpp:157] Top shape: 5 256 90 120 (13824000)
I0614 12:05:05.860081 17379 net.cpp:165] Memory required for data: 2595456000
I0614 12:05:05.860086 17379 layer_factory.hpp:77] Creating layer conv3_3_bn
I0614 12:05:05.860092 17379 net.cpp:100] Creating Layer conv3_3_bn
I0614 12:05:05.860095 17379 net.cpp:434] conv3_3_bn <- conv3_3
I0614 12:05:05.860100 17379 net.cpp:395] conv3_3_bn -> conv3_3 (in-place)
I0614 12:05:05.860329 17379 net.cpp:150] Setting up conv3_3_bn
I0614 12:05:05.860333 17379 net.cpp:157] Top shape: 5 256 90 120 (13824000)
I0614 12:05:05.860335 17379 net.cpp:165] Memory required for data: 2650752000
I0614 12:05:05.860338 17379 layer_factory.hpp:77] Creating layer relu3_3
I0614 12:05:05.860342 17379 net.cpp:100] Creating Layer relu3_3
I0614 12:05:05.860343 17379 net.cpp:434] relu3_3 <- conv3_3
I0614 12:05:05.860347 17379 net.cpp:395] relu3_3 -> conv3_3 (in-place)
I0614 12:05:05.860468 17379 net.cpp:150] Setting up relu3_3
I0614 12:05:05.860473 17379 net.cpp:157] Top shape: 5 256 90 120 (13824000)
I0614 12:05:05.860476 17379 net.cpp:165] Memory required for data: 2706048000
I0614 12:05:05.860477 17379 layer_factory.hpp:77] Creating layer pool3
I0614 12:05:05.860479 17379 layer_factory.cpp:91] cuDNN does not support multiple tops. Using Caffe's own pooling layer.
I0614 12:05:05.860481 17379 net.cpp:100] Creating Layer pool3
I0614 12:05:05.860483 17379 net.cpp:434] pool3 <- conv3_3
I0614 12:05:05.860487 17379 net.cpp:408] pool3 -> pool3
I0614 12:05:05.860491 17379 net.cpp:408] pool3 -> pool3_mask
I0614 12:05:05.860529 17379 net.cpp:150] Setting up pool3
I0614 12:05:05.860533 17379 net.cpp:157] Top shape: 5 256 45 60 (3456000)
I0614 12:05:05.860535 17379 net.cpp:157] Top shape: 5 256 45 60 (3456000)
I0614 12:05:05.860538 17379 net.cpp:165] Memory required for data: 2733696000
I0614 12:05:05.860538 17379 layer_factory.hpp:77] Creating layer conv4_1
I0614 12:05:05.860543 17379 net.cpp:100] Creating Layer conv4_1
I0614 12:05:05.860546 17379 net.cpp:434] conv4_1 <- pool3
I0614 12:05:05.860550 17379 net.cpp:408] conv4_1 -> conv4_1
I0614 12:05:05.882709 17379 net.cpp:150] Setting up conv4_1
I0614 12:05:05.882724 17379 net.cpp:157] Top shape: 5 512 45 60 (6912000)
I0614 12:05:05.882726 17379 net.cpp:165] Memory required for data: 2761344000
I0614 12:05:05.882732 17379 layer_factory.hpp:77] Creating layer conv4_1_bn
I0614 12:05:05.882740 17379 net.cpp:100] Creating Layer conv4_1_bn
I0614 12:05:05.882745 17379 net.cpp:434] conv4_1_bn <- conv4_1
I0614 12:05:05.882750 17379 net.cpp:395] conv4_1_bn -> conv4_1 (in-place)
I0614 12:05:05.882987 17379 net.cpp:150] Setting up conv4_1_bn
I0614 12:05:05.882992 17379 net.cpp:157] Top shape: 5 512 45 60 (6912000)
I0614 12:05:05.882993 17379 net.cpp:165] Memory required for data: 2788992000
I0614 12:05:05.882997 17379 layer_factory.hpp:77] Creating layer relu4_1
I0614 12:05:05.883002 17379 net.cpp:100] Creating Layer relu4_1
I0614 12:05:05.883005 17379 net.cpp:434] relu4_1 <- conv4_1
I0614 12:05:05.883008 17379 net.cpp:395] relu4_1 -> conv4_1 (in-place)
I0614 12:05:05.883131 17379 net.cpp:150] Setting up relu4_1
I0614 12:05:05.883136 17379 net.cpp:157] Top shape: 5 512 45 60 (6912000)
I0614 12:05:05.883138 17379 net.cpp:165] Memory required for data: 2816640000
I0614 12:05:05.883141 17379 layer_factory.hpp:77] Creating layer conv4_2
I0614 12:05:05.883146 17379 net.cpp:100] Creating Layer conv4_2
I0614 12:05:05.883147 17379 net.cpp:434] conv4_2 <- conv4_1
I0614 12:05:05.883152 17379 net.cpp:408] conv4_2 -> conv4_2
I0614 12:05:05.924830 17379 net.cpp:150] Setting up conv4_2
I0614 12:05:05.924845 17379 net.cpp:157] Top shape: 5 512 45 60 (6912000)
I0614 12:05:05.924849 17379 net.cpp:165] Memory required for data: 2844288000
I0614 12:05:05.924861 17379 layer_factory.hpp:77] Creating layer conv4_2_bn
I0614 12:05:05.924870 17379 net.cpp:100] Creating Layer conv4_2_bn
I0614 12:05:05.924872 17379 net.cpp:434] conv4_2_bn <- conv4_2
I0614 12:05:05.924877 17379 net.cpp:395] conv4_2_bn -> conv4_2 (in-place)
I0614 12:05:05.925109 17379 net.cpp:150] Setting up conv4_2_bn
I0614 12:05:05.925114 17379 net.cpp:157] Top shape: 5 512 45 60 (6912000)
I0614 12:05:05.925115 17379 net.cpp:165] Memory required for data: 2871936000
I0614 12:05:05.925119 17379 layer_factory.hpp:77] Creating layer relu4_2
I0614 12:05:05.925122 17379 net.cpp:100] Creating Layer relu4_2
I0614 12:05:05.925124 17379 net.cpp:434] relu4_2 <- conv4_2
I0614 12:05:05.925127 17379 net.cpp:395] relu4_2 -> conv4_2 (in-place)
I0614 12:05:05.925251 17379 net.cpp:150] Setting up relu4_2
I0614 12:05:05.925256 17379 net.cpp:157] Top shape: 5 512 45 60 (6912000)
I0614 12:05:05.925258 17379 net.cpp:165] Memory required for data: 2899584000
I0614 12:05:05.925261 17379 layer_factory.hpp:77] Creating layer conv4_3
I0614 12:05:05.925266 17379 net.cpp:100] Creating Layer conv4_3
I0614 12:05:05.925268 17379 net.cpp:434] conv4_3 <- conv4_2
I0614 12:05:05.925272 17379 net.cpp:408] conv4_3 -> conv4_3
I0614 12:05:05.967747 17379 net.cpp:150] Setting up conv4_3
I0614 12:05:05.967762 17379 net.cpp:157] Top shape: 5 512 45 60 (6912000)
I0614 12:05:05.967764 17379 net.cpp:165] Memory required for data: 2927232000
I0614 12:05:05.967772 17379 layer_factory.hpp:77] Creating layer conv4_3_bn
I0614 12:05:05.967779 17379 net.cpp:100] Creating Layer conv4_3_bn
I0614 12:05:05.967782 17379 net.cpp:434] conv4_3_bn <- conv4_3
I0614 12:05:05.967787 17379 net.cpp:395] conv4_3_bn -> conv4_3 (in-place)
I0614 12:05:05.968022 17379 net.cpp:150] Setting up conv4_3_bn
I0614 12:05:05.968027 17379 net.cpp:157] Top shape: 5 512 45 60 (6912000)
I0614 12:05:05.968029 17379 net.cpp:165] Memory required for data: 2954880000
I0614 12:05:05.968032 17379 layer_factory.hpp:77] Creating layer relu4_3
I0614 12:05:05.968036 17379 net.cpp:100] Creating Layer relu4_3
I0614 12:05:05.968039 17379 net.cpp:434] relu4_3 <- conv4_3
I0614 12:05:05.968041 17379 net.cpp:395] relu4_3 -> conv4_3 (in-place)
I0614 12:05:05.968427 17379 net.cpp:150] Setting up relu4_3
I0614 12:05:05.968435 17379 net.cpp:157] Top shape: 5 512 45 60 (6912000)
I0614 12:05:05.968436 17379 net.cpp:165] Memory required for data: 2982528000
I0614 12:05:05.968438 17379 layer_factory.hpp:77] Creating layer pool4
I0614 12:05:05.968451 17379 layer_factory.cpp:91] cuDNN does not support multiple tops. Using Caffe's own pooling layer.
I0614 12:05:05.968454 17379 net.cpp:100] Creating Layer pool4
I0614 12:05:05.968456 17379 net.cpp:434] pool4 <- conv4_3
I0614 12:05:05.968459 17379 net.cpp:408] pool4 -> pool4
I0614 12:05:05.968463 17379 net.cpp:408] pool4 -> pool4_mask
I0614 12:05:05.968505 17379 net.cpp:150] Setting up pool4
I0614 12:05:05.968508 17379 net.cpp:157] Top shape: 5 512 23 30 (1766400)
I0614 12:05:05.968511 17379 net.cpp:157] Top shape: 5 512 23 30 (1766400)
I0614 12:05:05.968513 17379 net.cpp:165] Memory required for data: 2996659200
I0614 12:05:05.968514 17379 layer_factory.hpp:77] Creating layer conv5_1
I0614 12:05:05.968520 17379 net.cpp:100] Creating Layer conv5_1
I0614 12:05:05.968523 17379 net.cpp:434] conv5_1 <- pool4
I0614 12:05:05.968526 17379 net.cpp:408] conv5_1 -> conv5_1
I0614 12:05:06.009930 17379 net.cpp:150] Setting up conv5_1
I0614 12:05:06.009945 17379 net.cpp:157] Top shape: 5 512 23 30 (1766400)
I0614 12:05:06.009948 17379 net.cpp:165] Memory required for data: 3003724800
I0614 12:05:06.009954 17379 layer_factory.hpp:77] Creating layer conv5_1_bn
I0614 12:05:06.009963 17379 net.cpp:100] Creating Layer conv5_1_bn
I0614 12:05:06.009966 17379 net.cpp:434] conv5_1_bn <- conv5_1
I0614 12:05:06.009970 17379 net.cpp:395] conv5_1_bn -> conv5_1 (in-place)
I0614 12:05:06.010206 17379 net.cpp:150] Setting up conv5_1_bn
I0614 12:05:06.010210 17379 net.cpp:157] Top shape: 5 512 23 30 (1766400)
I0614 12:05:06.010212 17379 net.cpp:165] Memory required for data: 3010790400
I0614 12:05:06.010215 17379 layer_factory.hpp:77] Creating layer relu5_1
I0614 12:05:06.010221 17379 net.cpp:100] Creating Layer relu5_1
I0614 12:05:06.010222 17379 net.cpp:434] relu5_1 <- conv5_1
I0614 12:05:06.010226 17379 net.cpp:395] relu5_1 -> conv5_1 (in-place)
I0614 12:05:06.010345 17379 net.cpp:150] Setting up relu5_1
I0614 12:05:06.010351 17379 net.cpp:157] Top shape: 5 512 23 30 (1766400)
I0614 12:05:06.010354 17379 net.cpp:165] Memory required for data: 3017856000
I0614 12:05:06.010355 17379 layer_factory.hpp:77] Creating layer conv5_2
I0614 12:05:06.010360 17379 net.cpp:100] Creating Layer conv5_2
I0614 12:05:06.010363 17379 net.cpp:434] conv5_2 <- conv5_1
I0614 12:05:06.010366 17379 net.cpp:408] conv5_2 -> conv5_2
I0614 12:05:06.053135 17379 net.cpp:150] Setting up conv5_2
I0614 12:05:06.053153 17379 net.cpp:157] Top shape: 5 512 23 30 (1766400)
I0614 12:05:06.053154 17379 net.cpp:165] Memory required for data: 3024921600
I0614 12:05:06.053160 17379 layer_factory.hpp:77] Creating layer conv5_2_bn
I0614 12:05:06.053167 17379 net.cpp:100] Creating Layer conv5_2_bn
I0614 12:05:06.053171 17379 net.cpp:434] conv5_2_bn <- conv5_2
I0614 12:05:06.053176 17379 net.cpp:395] conv5_2_bn -> conv5_2 (in-place)
I0614 12:05:06.053406 17379 net.cpp:150] Setting up conv5_2_bn
I0614 12:05:06.053411 17379 net.cpp:157] Top shape: 5 512 23 30 (1766400)
I0614 12:05:06.053412 17379 net.cpp:165] Memory required for data: 3031987200
I0614 12:05:06.053416 17379 layer_factory.hpp:77] Creating layer relu5_2
I0614 12:05:06.053418 17379 net.cpp:100] Creating Layer relu5_2
I0614 12:05:06.053421 17379 net.cpp:434] relu5_2 <- conv5_2
I0614 12:05:06.053423 17379 net.cpp:395] relu5_2 -> conv5_2 (in-place)
I0614 12:05:06.053547 17379 net.cpp:150] Setting up relu5_2
I0614 12:05:06.053551 17379 net.cpp:157] Top shape: 5 512 23 30 (1766400)
I0614 12:05:06.053553 17379 net.cpp:165] Memory required for data: 3039052800
I0614 12:05:06.053555 17379 layer_factory.hpp:77] Creating layer conv5_3
I0614 12:05:06.053560 17379 net.cpp:100] Creating Layer conv5_3
I0614 12:05:06.053563 17379 net.cpp:434] conv5_3 <- conv5_2
I0614 12:05:06.053567 17379 net.cpp:408] conv5_3 -> conv5_3
I0614 12:05:06.094974 17379 net.cpp:150] Setting up conv5_3
I0614 12:05:06.094990 17379 net.cpp:157] Top shape: 5 512 23 30 (1766400)
I0614 12:05:06.094993 17379 net.cpp:165] Memory required for data: 3046118400
I0614 12:05:06.095000 17379 layer_factory.hpp:77] Creating layer conv5_3_bn
I0614 12:05:06.095018 17379 net.cpp:100] Creating Layer conv5_3_bn
I0614 12:05:06.095022 17379 net.cpp:434] conv5_3_bn <- conv5_3
I0614 12:05:06.095027 17379 net.cpp:395] conv5_3_bn -> conv5_3 (in-place)
I0614 12:05:06.095263 17379 net.cpp:150] Setting up conv5_3_bn
I0614 12:05:06.095266 17379 net.cpp:157] Top shape: 5 512 23 30 (1766400)
I0614 12:05:06.095268 17379 net.cpp:165] Memory required for data: 3053184000
I0614 12:05:06.095271 17379 layer_factory.hpp:77] Creating layer relu5_3
I0614 12:05:06.095274 17379 net.cpp:100] Creating Layer relu5_3
I0614 12:05:06.095276 17379 net.cpp:434] relu5_3 <- conv5_3
I0614 12:05:06.095279 17379 net.cpp:395] relu5_3 -> conv5_3 (in-place)
I0614 12:05:06.095670 17379 net.cpp:150] Setting up relu5_3
I0614 12:05:06.095677 17379 net.cpp:157] Top shape: 5 512 23 30 (1766400)
I0614 12:05:06.095679 17379 net.cpp:165] Memory required for data: 3060249600
I0614 12:05:06.095681 17379 layer_factory.hpp:77] Creating layer pool5
I0614 12:05:06.095685 17379 layer_factory.cpp:91] cuDNN does not support multiple tops. Using Caffe's own pooling layer.
I0614 12:05:06.095687 17379 net.cpp:100] Creating Layer pool5
I0614 12:05:06.095690 17379 net.cpp:434] pool5 <- conv5_3
I0614 12:05:06.095692 17379 net.cpp:408] pool5 -> pool5
I0614 12:05:06.095696 17379 net.cpp:408] pool5 -> pool5_mask
I0614 12:05:06.095741 17379 net.cpp:150] Setting up pool5
I0614 12:05:06.095744 17379 net.cpp:157] Top shape: 5 512 12 15 (460800)
I0614 12:05:06.095746 17379 net.cpp:157] Top shape: 5 512 12 15 (460800)
I0614 12:05:06.095748 17379 net.cpp:165] Memory required for data: 3063936000
I0614 12:05:06.095751 17379 layer_factory.hpp:77] Creating layer upsample5
I0614 12:05:06.095759 17379 net.cpp:100] Creating Layer upsample5
I0614 12:05:06.095762 17379 net.cpp:434] upsample5 <- pool5
I0614 12:05:06.095764 17379 net.cpp:434] upsample5 <- pool5_mask
I0614 12:05:06.095767 17379 net.cpp:408] upsample5 -> pool5_D
I0614 12:05:06.095791 17379 net.cpp:150] Setting up upsample5
I0614 12:05:06.095794 17379 net.cpp:157] Top shape: 5 512 23 30 (1766400)
I0614 12:05:06.095796 17379 net.cpp:165] Memory required for data: 3071001600
I0614 12:05:06.095798 17379 layer_factory.hpp:77] Creating layer conv5_3_D
I0614 12:05:06.095803 17379 net.cpp:100] Creating Layer conv5_3_D
I0614 12:05:06.095805 17379 net.cpp:434] conv5_3_D <- pool5_D
I0614 12:05:06.095808 17379 net.cpp:408] conv5_3_D -> conv5_3_D
I0614 12:05:06.137184 17379 net.cpp:150] Setting up conv5_3_D
I0614 12:05:06.137200 17379 net.cpp:157] Top shape: 5 512 23 30 (1766400)
I0614 12:05:06.137203 17379 net.cpp:165] Memory required for data: 3078067200
I0614 12:05:06.137209 17379 layer_factory.hpp:77] Creating layer conv5_3_D_bn
I0614 12:05:06.137217 17379 net.cpp:100] Creating Layer conv5_3_D_bn
I0614 12:05:06.137221 17379 net.cpp:434] conv5_3_D_bn <- conv5_3_D
I0614 12:05:06.137225 17379 net.cpp:395] conv5_3_D_bn -> conv5_3_D (in-place)
I0614 12:05:06.137459 17379 net.cpp:150] Setting up conv5_3_D_bn
I0614 12:05:06.137464 17379 net.cpp:157] Top shape: 5 512 23 30 (1766400)
I0614 12:05:06.137465 17379 net.cpp:165] Memory required for data: 3085132800
I0614 12:05:06.137468 17379 layer_factory.hpp:77] Creating layer relu5_3_D
I0614 12:05:06.137472 17379 net.cpp:100] Creating Layer relu5_3_D
I0614 12:05:06.137475 17379 net.cpp:434] relu5_3_D <- conv5_3_D
I0614 12:05:06.137477 17379 net.cpp:395] relu5_3_D -> conv5_3_D (in-place)
I0614 12:05:06.137601 17379 net.cpp:150] Setting up relu5_3_D
I0614 12:05:06.137606 17379 net.cpp:157] Top shape: 5 512 23 30 (1766400)
I0614 12:05:06.137609 17379 net.cpp:165] Memory required for data: 3092198400
I0614 12:05:06.137610 17379 layer_factory.hpp:77] Creating layer conv5_2_D
I0614 12:05:06.137616 17379 net.cpp:100] Creating Layer conv5_2_D
I0614 12:05:06.137619 17379 net.cpp:434] conv5_2_D <- conv5_3_D
I0614 12:05:06.137622 17379 net.cpp:408] conv5_2_D -> conv5_2_D
I0614 12:05:06.179191 17379 net.cpp:150] Setting up conv5_2_D
I0614 12:05:06.179206 17379 net.cpp:157] Top shape: 5 512 23 30 (1766400)
I0614 12:05:06.179208 17379 net.cpp:165] Memory required for data: 3099264000
I0614 12:05:06.179237 17379 layer_factory.hpp:77] Creating layer conv5_2_D_bn
I0614 12:05:06.179245 17379 net.cpp:100] Creating Layer conv5_2_D_bn
I0614 12:05:06.179250 17379 net.cpp:434] conv5_2_D_bn <- conv5_2_D
I0614 12:05:06.179253 17379 net.cpp:395] conv5_2_D_bn -> conv5_2_D (in-place)
I0614 12:05:06.179497 17379 net.cpp:150] Setting up conv5_2_D_bn
I0614 12:05:06.179502 17379 net.cpp:157] Top shape: 5 512 23 30 (1766400)
I0614 12:05:06.179503 17379 net.cpp:165] Memory required for data: 3106329600
I0614 12:05:06.179507 17379 layer_factory.hpp:77] Creating layer relu5_2_D
I0614 12:05:06.179509 17379 net.cpp:100] Creating Layer relu5_2_D
I0614 12:05:06.179512 17379 net.cpp:434] relu5_2_D <- conv5_2_D
I0614 12:05:06.179514 17379 net.cpp:395] relu5_2_D -> conv5_2_D (in-place)
I0614 12:05:06.179651 17379 net.cpp:150] Setting up relu5_2_D
I0614 12:05:06.179656 17379 net.cpp:157] Top shape: 5 512 23 30 (1766400)
I0614 12:05:06.179657 17379 net.cpp:165] Memory required for data: 3113395200
I0614 12:05:06.179659 17379 layer_factory.hpp:77] Creating layer conv5_1_D
I0614 12:05:06.179664 17379 net.cpp:100] Creating Layer conv5_1_D
I0614 12:05:06.179667 17379 net.cpp:434] conv5_1_D <- conv5_2_D
I0614 12:05:06.179672 17379 net.cpp:408] conv5_1_D -> conv5_1_D
I0614 12:05:06.220715 17379 net.cpp:150] Setting up conv5_1_D
I0614 12:05:06.220729 17379 net.cpp:157] Top shape: 5 512 23 30 (1766400)
I0614 12:05:06.220731 17379 net.cpp:165] Memory required for data: 3120460800
I0614 12:05:06.220738 17379 layer_factory.hpp:77] Creating layer conv5_1_D_bn
I0614 12:05:06.220744 17379 net.cpp:100] Creating Layer conv5_1_D_bn
I0614 12:05:06.220749 17379 net.cpp:434] conv5_1_D_bn <- conv5_1_D
I0614 12:05:06.220753 17379 net.cpp:395] conv5_1_D_bn -> conv5_1_D (in-place)
I0614 12:05:06.220996 17379 net.cpp:150] Setting up conv5_1_D_bn
I0614 12:05:06.221001 17379 net.cpp:157] Top shape: 5 512 23 30 (1766400)
I0614 12:05:06.221002 17379 net.cpp:165] Memory required for data: 3127526400
I0614 12:05:06.221006 17379 layer_factory.hpp:77] Creating layer relu5_1_D
I0614 12:05:06.221009 17379 net.cpp:100] Creating Layer relu5_1_D
I0614 12:05:06.221011 17379 net.cpp:434] relu5_1_D <- conv5_1_D
I0614 12:05:06.221014 17379 net.cpp:395] relu5_1_D -> conv5_1_D (in-place)
I0614 12:05:06.221401 17379 net.cpp:150] Setting up relu5_1_D
I0614 12:05:06.221408 17379 net.cpp:157] Top shape: 5 512 23 30 (1766400)
I0614 12:05:06.221411 17379 net.cpp:165] Memory required for data: 3134592000
I0614 12:05:06.221413 17379 layer_factory.hpp:77] Creating layer upsample4
I0614 12:05:06.221417 17379 net.cpp:100] Creating Layer upsample4
I0614 12:05:06.221420 17379 net.cpp:434] upsample4 <- conv5_1_D
I0614 12:05:06.221422 17379 net.cpp:434] upsample4 <- pool4_mask
I0614 12:05:06.221426 17379 net.cpp:408] upsample4 -> pool4_D
I0614 12:05:06.221454 17379 net.cpp:150] Setting up upsample4
I0614 12:05:06.221457 17379 net.cpp:157] Top shape: 5 512 45 60 (6912000)
I0614 12:05:06.221459 17379 net.cpp:165] Memory required for data: 3162240000
I0614 12:05:06.221462 17379 layer_factory.hpp:77] Creating layer conv4_3_D
I0614 12:05:06.221467 17379 net.cpp:100] Creating Layer conv4_3_D
I0614 12:05:06.221469 17379 net.cpp:434] conv4_3_D <- pool4_D
I0614 12:05:06.221472 17379 net.cpp:408] conv4_3_D -> conv4_3_D
I0614 12:05:06.262457 17379 net.cpp:150] Setting up conv4_3_D
I0614 12:05:06.262473 17379 net.cpp:157] Top shape: 5 512 45 60 (6912000)
I0614 12:05:06.262475 17379 net.cpp:165] Memory required for data: 3189888000
I0614 12:05:06.262490 17379 layer_factory.hpp:77] Creating layer conv4_3_D_bn
I0614 12:05:06.262497 17379 net.cpp:100] Creating Layer conv4_3_D_bn
I0614 12:05:06.262501 17379 net.cpp:434] conv4_3_D_bn <- conv4_3_D
I0614 12:05:06.262506 17379 net.cpp:395] conv4_3_D_bn -> conv4_3_D (in-place)
I0614 12:05:06.262758 17379 net.cpp:150] Setting up conv4_3_D_bn
I0614 12:05:06.262763 17379 net.cpp:157] Top shape: 5 512 45 60 (6912000)
I0614 12:05:06.262764 17379 net.cpp:165] Memory required for data: 3217536000
I0614 12:05:06.262768 17379 layer_factory.hpp:77] Creating layer relu4_3_D
I0614 12:05:06.262779 17379 net.cpp:100] Creating Layer relu4_3_D
I0614 12:05:06.262781 17379 net.cpp:434] relu4_3_D <- conv4_3_D
I0614 12:05:06.262785 17379 net.cpp:395] relu4_3_D -> conv4_3_D (in-place)
I0614 12:05:06.262912 17379 net.cpp:150] Setting up relu4_3_D
I0614 12:05:06.262917 17379 net.cpp:157] Top shape: 5 512 45 60 (6912000)
I0614 12:05:06.262918 17379 net.cpp:165] Memory required for data: 3245184000
I0614 12:05:06.262920 17379 layer_factory.hpp:77] Creating layer conv4_2_D
I0614 12:05:06.262929 17379 net.cpp:100] Creating Layer conv4_2_D
I0614 12:05:06.262933 17379 net.cpp:434] conv4_2_D <- conv4_3_D
I0614 12:05:06.262936 17379 net.cpp:408] conv4_2_D -> conv4_2_D
I0614 12:05:06.303994 17379 net.cpp:150] Setting up conv4_2_D
I0614 12:05:06.304008 17379 net.cpp:157] Top shape: 5 512 45 60 (6912000)
I0614 12:05:06.304010 17379 net.cpp:165] Memory required for data: 3272832000
I0614 12:05:06.304018 17379 layer_factory.hpp:77] Creating layer conv4_2_D_bn
I0614 12:05:06.304026 17379 net.cpp:100] Creating Layer conv4_2_D_bn
I0614 12:05:06.304031 17379 net.cpp:434] conv4_2_D_bn <- conv4_2_D
I0614 12:05:06.304035 17379 net.cpp:395] conv4_2_D_bn -> conv4_2_D (in-place)
I0614 12:05:06.304291 17379 net.cpp:150] Setting up conv4_2_D_bn
I0614 12:05:06.304294 17379 net.cpp:157] Top shape: 5 512 45 60 (6912000)
I0614 12:05:06.304296 17379 net.cpp:165] Memory required for data: 3300480000
I0614 12:05:06.304299 17379 layer_factory.hpp:77] Creating layer relu4_2_D
I0614 12:05:06.304303 17379 net.cpp:100] Creating Layer relu4_2_D
I0614 12:05:06.304306 17379 net.cpp:434] relu4_2_D <- conv4_2_D
I0614 12:05:06.304308 17379 net.cpp:395] relu4_2_D -> conv4_2_D (in-place)
I0614 12:05:06.304432 17379 net.cpp:150] Setting up relu4_2_D
I0614 12:05:06.304437 17379 net.cpp:157] Top shape: 5 512 45 60 (6912000)
I0614 12:05:06.304440 17379 net.cpp:165] Memory required for data: 3328128000
I0614 12:05:06.304441 17379 layer_factory.hpp:77] Creating layer conv4_1_D
I0614 12:05:06.304446 17379 net.cpp:100] Creating Layer conv4_1_D
I0614 12:05:06.304450 17379 net.cpp:434] conv4_1_D <- conv4_2_D
I0614 12:05:06.304453 17379 net.cpp:408] conv4_1_D -> conv4_1_D
I0614 12:05:06.325876 17379 net.cpp:150] Setting up conv4_1_D
I0614 12:05:06.325889 17379 net.cpp:157] Top shape: 5 256 45 60 (3456000)
I0614 12:05:06.325891 17379 net.cpp:165] Memory required for data: 3341952000
I0614 12:05:06.325898 17379 layer_factory.hpp:77] Creating layer conv4_1_D_bn
I0614 12:05:06.325906 17379 net.cpp:100] Creating Layer conv4_1_D_bn
I0614 12:05:06.325909 17379 net.cpp:434] conv4_1_D_bn <- conv4_1_D
I0614 12:05:06.325913 17379 net.cpp:395] conv4_1_D_bn -> conv4_1_D (in-place)
I0614 12:05:06.326171 17379 net.cpp:150] Setting up conv4_1_D_bn
I0614 12:05:06.326176 17379 net.cpp:157] Top shape: 5 256 45 60 (3456000)
I0614 12:05:06.326179 17379 net.cpp:165] Memory required for data: 3355776000
I0614 12:05:06.326181 17379 layer_factory.hpp:77] Creating layer relu4_1_D
I0614 12:05:06.326187 17379 net.cpp:100] Creating Layer relu4_1_D
I0614 12:05:06.326189 17379 net.cpp:434] relu4_1_D <- conv4_1_D
I0614 12:05:06.326192 17379 net.cpp:395] relu4_1_D -> conv4_1_D (in-place)
I0614 12:05:06.326316 17379 net.cpp:150] Setting up relu4_1_D
I0614 12:05:06.326321 17379 net.cpp:157] Top shape: 5 256 45 60 (3456000)
I0614 12:05:06.326323 17379 net.cpp:165] Memory required for data: 3369600000
I0614 12:05:06.326324 17379 layer_factory.hpp:77] Creating layer upsample3
I0614 12:05:06.326328 17379 net.cpp:100] Creating Layer upsample3
I0614 12:05:06.326330 17379 net.cpp:434] upsample3 <- conv4_1_D
I0614 12:05:06.326333 17379 net.cpp:434] upsample3 <- pool3_mask
I0614 12:05:06.326335 17379 net.cpp:408] upsample3 -> pool3_D
I0614 12:05:06.326340 17379 upsample_layer.cpp:27] Params 'pad_out_{}_' are deprecated. Please declare upsample height and width useing the upsample_h, upsample_w parameters.
I0614 12:05:06.326365 17379 net.cpp:150] Setting up upsample3
I0614 12:05:06.326369 17379 net.cpp:157] Top shape: 5 256 90 120 (13824000)
I0614 12:05:06.326370 17379 net.cpp:165] Memory required for data: 3424896000
I0614 12:05:06.326380 17379 layer_factory.hpp:77] Creating layer conv3_3_D
I0614 12:05:06.326386 17379 net.cpp:100] Creating Layer conv3_3_D
I0614 12:05:06.326390 17379 net.cpp:434] conv3_3_D <- pool3_D
I0614 12:05:06.326392 17379 net.cpp:408] conv3_3_D -> conv3_3_D
I0614 12:05:06.337770 17379 net.cpp:150] Setting up conv3_3_D
I0614 12:05:06.337779 17379 net.cpp:157] Top shape: 5 256 90 120 (13824000)
I0614 12:05:06.337780 17379 net.cpp:165] Memory required for data: 3480192000
I0614 12:05:06.337785 17379 layer_factory.hpp:77] Creating layer conv3_3_D_bn
I0614 12:05:06.337790 17379 net.cpp:100] Creating Layer conv3_3_D_bn
I0614 12:05:06.337793 17379 net.cpp:434] conv3_3_D_bn <- conv3_3_D
I0614 12:05:06.337796 17379 net.cpp:395] conv3_3_D_bn -> conv3_3_D (in-place)
I0614 12:05:06.338054 17379 net.cpp:150] Setting up conv3_3_D_bn
I0614 12:05:06.338058 17379 net.cpp:157] Top shape: 5 256 90 120 (13824000)
I0614 12:05:06.338060 17379 net.cpp:165] Memory required for data: 3535488000
I0614 12:05:06.338063 17379 layer_factory.hpp:77] Creating layer relu3_3_D
I0614 12:05:06.338066 17379 net.cpp:100] Creating Layer relu3_3_D
I0614 12:05:06.338068 17379 net.cpp:434] relu3_3_D <- conv3_3_D
I0614 12:05:06.338070 17379 net.cpp:395] relu3_3_D -> conv3_3_D (in-place)
I0614 12:05:06.338439 17379 net.cpp:150] Setting up relu3_3_D
I0614 12:05:06.338446 17379 net.cpp:157] Top shape: 5 256 90 120 (13824000)
I0614 12:05:06.338449 17379 net.cpp:165] Memory required for data: 3590784000
I0614 12:05:06.338451 17379 layer_factory.hpp:77] Creating layer conv3_2_D
I0614 12:05:06.338456 17379 net.cpp:100] Creating Layer conv3_2_D
I0614 12:05:06.338459 17379 net.cpp:434] conv3_2_D <- conv3_3_D
I0614 12:05:06.338462 17379 net.cpp:408] conv3_2_D -> conv3_2_D
I0614 12:05:06.349963 17379 net.cpp:150] Setting up conv3_2_D
I0614 12:05:06.349977 17379 net.cpp:157] Top shape: 5 256 90 120 (13824000)
I0614 12:05:06.349978 17379 net.cpp:165] Memory required for data: 3646080000
I0614 12:05:06.349984 17379 layer_factory.hpp:77] Creating layer conv3_2_D_bn
I0614 12:05:06.349992 17379 net.cpp:100] Creating Layer conv3_2_D_bn
I0614 12:05:06.349994 17379 net.cpp:434] conv3_2_D_bn <- conv3_2_D
I0614 12:05:06.349998 17379 net.cpp:395] conv3_2_D_bn -> conv3_2_D (in-place)
I0614 12:05:06.350265 17379 net.cpp:150] Setting up conv3_2_D_bn
I0614 12:05:06.350270 17379 net.cpp:157] Top shape: 5 256 90 120 (13824000)
I0614 12:05:06.350271 17379 net.cpp:165] Memory required for data: 3701376000
I0614 12:05:06.350275 17379 layer_factory.hpp:77] Creating layer relu3_2_D
I0614 12:05:06.350277 17379 net.cpp:100] Creating Layer relu3_2_D
I0614 12:05:06.350280 17379 net.cpp:434] relu3_2_D <- conv3_2_D
I0614 12:05:06.350282 17379 net.cpp:395] relu3_2_D -> conv3_2_D (in-place)
I0614 12:05:06.350410 17379 net.cpp:150] Setting up relu3_2_D
I0614 12:05:06.350415 17379 net.cpp:157] Top shape: 5 256 90 120 (13824000)
I0614 12:05:06.350417 17379 net.cpp:165] Memory required for data: 3756672000
I0614 12:05:06.350419 17379 layer_factory.hpp:77] Creating layer conv3_1_D
I0614 12:05:06.350425 17379 net.cpp:100] Creating Layer conv3_1_D
I0614 12:05:06.350428 17379 net.cpp:434] conv3_1_D <- conv3_2_D
I0614 12:05:06.350431 17379 net.cpp:408] conv3_1_D -> conv3_1_D
I0614 12:05:06.357051 17379 net.cpp:150] Setting up conv3_1_D
I0614 12:05:06.357059 17379 net.cpp:157] Top shape: 5 128 90 120 (6912000)
I0614 12:05:06.357061 17379 net.cpp:165] Memory required for data: 3784320000
I0614 12:05:06.357065 17379 layer_factory.hpp:77] Creating layer conv3_1_D_bn
I0614 12:05:06.357070 17379 net.cpp:100] Creating Layer conv3_1_D_bn
I0614 12:05:06.357074 17379 net.cpp:434] conv3_1_D_bn <- conv3_1_D
I0614 12:05:06.357076 17379 net.cpp:395] conv3_1_D_bn -> conv3_1_D (in-place)
I0614 12:05:06.357334 17379 net.cpp:150] Setting up conv3_1_D_bn
I0614 12:05:06.357339 17379 net.cpp:157] Top shape: 5 128 90 120 (6912000)
I0614 12:05:06.357340 17379 net.cpp:165] Memory required for data: 3811968000
I0614 12:05:06.357343 17379 layer_factory.hpp:77] Creating layer relu3_1_D
I0614 12:05:06.357355 17379 net.cpp:100] Creating Layer relu3_1_D
I0614 12:05:06.357357 17379 net.cpp:434] relu3_1_D <- conv3_1_D
I0614 12:05:06.357362 17379 net.cpp:395] relu3_1_D -> conv3_1_D (in-place)
I0614 12:05:06.357486 17379 net.cpp:150] Setting up relu3_1_D
I0614 12:05:06.357491 17379 net.cpp:157] Top shape: 5 128 90 120 (6912000)
I0614 12:05:06.357493 17379 net.cpp:165] Memory required for data: 3839616000
I0614 12:05:06.357494 17379 layer_factory.hpp:77] Creating layer upsample2
I0614 12:05:06.357499 17379 net.cpp:100] Creating Layer upsample2
I0614 12:05:06.357501 17379 net.cpp:434] upsample2 <- conv3_1_D
I0614 12:05:06.357504 17379 net.cpp:434] upsample2 <- pool2_mask
I0614 12:05:06.357506 17379 net.cpp:408] upsample2 -> pool2_D
I0614 12:05:06.357511 17379 upsample_layer.cpp:27] Params 'pad_out_{}_' are deprecated. Please declare upsample height and width useing the upsample_h, upsample_w parameters.
I0614 12:05:06.357537 17379 net.cpp:150] Setting up upsample2
I0614 12:05:06.357540 17379 net.cpp:157] Top shape: 5 128 180 240 (27648000)
I0614 12:05:06.357543 17379 net.cpp:165] Memory required for data: 3950208000
I0614 12:05:06.357545 17379 layer_factory.hpp:77] Creating layer conv2_2_D
I0614 12:05:06.357549 17379 net.cpp:100] Creating Layer conv2_2_D
I0614 12:05:06.357551 17379 net.cpp:434] conv2_2_D <- pool2_D
I0614 12:05:06.357554 17379 net.cpp:408] conv2_2_D -> conv2_2_D
I0614 12:05:06.361107 17379 net.cpp:150] Setting up conv2_2_D
I0614 12:05:06.361115 17379 net.cpp:157] Top shape: 5 128 180 240 (27648000)
I0614 12:05:06.361117 17379 net.cpp:165] Memory required for data: 4060800000
I0614 12:05:06.361121 17379 layer_factory.hpp:77] Creating layer conv2_2_D_bn
I0614 12:05:06.361126 17379 net.cpp:100] Creating Layer conv2_2_D_bn
I0614 12:05:06.361129 17379 net.cpp:434] conv2_2_D_bn <- conv2_2_D
I0614 12:05:06.361132 17379 net.cpp:395] conv2_2_D_bn -> conv2_2_D (in-place)
I0614 12:05:06.361426 17379 net.cpp:150] Setting up conv2_2_D_bn
I0614 12:05:06.361431 17379 net.cpp:157] Top shape: 5 128 180 240 (27648000)
I0614 12:05:06.361433 17379 net.cpp:165] Memory required for data: 4171392000
I0614 12:05:06.361436 17379 layer_factory.hpp:77] Creating layer relu2_2_D
I0614 12:05:06.361440 17379 net.cpp:100] Creating Layer relu2_2_D
I0614 12:05:06.361443 17379 net.cpp:434] relu2_2_D <- conv2_2_D
I0614 12:05:06.361445 17379 net.cpp:395] relu2_2_D -> conv2_2_D (in-place)
I0614 12:05:06.361832 17379 net.cpp:150] Setting up relu2_2_D
I0614 12:05:06.361840 17379 net.cpp:157] Top shape: 5 128 180 240 (27648000)
I0614 12:05:06.361841 17379 net.cpp:165] Memory required for data: 4281984000
I0614 12:05:06.361843 17379 layer_factory.hpp:77] Creating layer conv2_1_D
I0614 12:05:06.361848 17379 net.cpp:100] Creating Layer conv2_1_D
I0614 12:05:06.361851 17379 net.cpp:434] conv2_1_D <- conv2_2_D
I0614 12:05:06.361855 17379 net.cpp:408] conv2_1_D -> conv2_1_D
I0614 12:05:06.364248 17379 net.cpp:150] Setting up conv2_1_D
I0614 12:05:06.364255 17379 net.cpp:157] Top shape: 5 64 180 240 (13824000)
I0614 12:05:06.364257 17379 net.cpp:165] Memory required for data: 4337280000
I0614 12:05:06.364261 17379 layer_factory.hpp:77] Creating layer conv2_1_D_bn
I0614 12:05:06.364266 17379 net.cpp:100] Creating Layer conv2_1_D_bn
I0614 12:05:06.364269 17379 net.cpp:434] conv2_1_D_bn <- conv2_1_D
I0614 12:05:06.364272 17379 net.cpp:395] conv2_1_D_bn -> conv2_1_D (in-place)
I0614 12:05:06.365221 17379 net.cpp:150] Setting up conv2_1_D_bn
I0614 12:05:06.365228 17379 net.cpp:157] Top shape: 5 64 180 240 (13824000)
I0614 12:05:06.365231 17379 net.cpp:165] Memory required for data: 4392576000
I0614 12:05:06.365234 17379 layer_factory.hpp:77] Creating layer relu2_1_D
I0614 12:05:06.365238 17379 net.cpp:100] Creating Layer relu2_1_D
I0614 12:05:06.365240 17379 net.cpp:434] relu2_1_D <- conv2_1_D
I0614 12:05:06.365243 17379 net.cpp:395] relu2_1_D -> conv2_1_D (in-place)
I0614 12:05:06.365375 17379 net.cpp:150] Setting up relu2_1_D
I0614 12:05:06.365381 17379 net.cpp:157] Top shape: 5 64 180 240 (13824000)
I0614 12:05:06.365382 17379 net.cpp:165] Memory required for data: 4447872000
I0614 12:05:06.365392 17379 layer_factory.hpp:77] Creating layer upsample1
I0614 12:05:06.365396 17379 net.cpp:100] Creating Layer upsample1
I0614 12:05:06.365397 17379 net.cpp:434] upsample1 <- conv2_1_D
I0614 12:05:06.365401 17379 net.cpp:434] upsample1 <- pool1_mask
I0614 12:05:06.365403 17379 net.cpp:408] upsample1 -> pool1_D
I0614 12:05:06.365407 17379 upsample_layer.cpp:27] Params 'pad_out_{}_' are deprecated. Please declare upsample height and width useing the upsample_h, upsample_w parameters.
I0614 12:05:06.365434 17379 net.cpp:150] Setting up upsample1
I0614 12:05:06.365438 17379 net.cpp:157] Top shape: 5 64 360 480 (55296000)
I0614 12:05:06.365439 17379 net.cpp:165] Memory required for data: 4669056000
I0614 12:05:06.365442 17379 layer_factory.hpp:77] Creating layer conv1_2_D
I0614 12:05:06.365447 17379 net.cpp:100] Creating Layer conv1_2_D
I0614 12:05:06.365449 17379 net.cpp:434] conv1_2_D <- pool1_D
I0614 12:05:06.365453 17379 net.cpp:408] conv1_2_D -> conv1_2_D
I0614 12:05:06.367672 17379 net.cpp:150] Setting up conv1_2_D
I0614 12:05:06.367681 17379 net.cpp:157] Top shape: 5 64 360 480 (55296000)
I0614 12:05:06.367682 17379 net.cpp:165] Memory required for data: 4890240000
I0614 12:05:06.367686 17379 layer_factory.hpp:77] Creating layer conv1_2_D_bn
I0614 12:05:06.367691 17379 net.cpp:100] Creating Layer conv1_2_D_bn
I0614 12:05:06.367694 17379 net.cpp:434] conv1_2_D_bn <- conv1_2_D
I0614 12:05:06.367697 17379 net.cpp:395] conv1_2_D_bn -> conv1_2_D (in-place)
I0614 12:05:06.368024 17379 net.cpp:150] Setting up conv1_2_D_bn
I0614 12:05:06.368028 17379 net.cpp:157] Top shape: 5 64 360 480 (55296000)
I0614 12:05:06.368031 17379 net.cpp:165] Memory required for data: 5111424000
I0614 12:05:06.368033 17379 layer_factory.hpp:77] Creating layer relu1_2_D
I0614 12:05:06.368036 17379 net.cpp:100] Creating Layer relu1_2_D
I0614 12:05:06.368038 17379 net.cpp:434] relu1_2_D <- conv1_2_D
I0614 12:05:06.368041 17379 net.cpp:395] relu1_2_D -> conv1_2_D (in-place)
I0614 12:05:06.368170 17379 net.cpp:150] Setting up relu1_2_D
I0614 12:05:06.368175 17379 net.cpp:157] Top shape: 5 64 360 480 (55296000)
I0614 12:05:06.368177 17379 net.cpp:165] Memory required for data: 5332608000
I0614 12:05:06.368180 17379 layer_factory.hpp:77] Creating layer conv1_1_D
I0614 12:05:06.368183 17379 net.cpp:100] Creating Layer conv1_1_D
I0614 12:05:06.368186 17379 net.cpp:434] conv1_1_D <- conv1_2_D
I0614 12:05:06.368191 17379 net.cpp:408] conv1_1_D -> conv1_1_D
I0614 12:05:06.369843 17379 net.cpp:150] Setting up conv1_1_D
I0614 12:05:06.369851 17379 net.cpp:157] Top shape: 5 4 360 480 (3456000)
I0614 12:05:06.369853 17379 net.cpp:165] Memory required for data: 5346432000
I0614 12:05:06.369858 17379 layer_factory.hpp:77] Creating layer conv1_1_D_conv1_1_D_0_split
I0614 12:05:06.369860 17379 net.cpp:100] Creating Layer conv1_1_D_conv1_1_D_0_split
I0614 12:05:06.369863 17379 net.cpp:434] conv1_1_D_conv1_1_D_0_split <- conv1_1_D
I0614 12:05:06.369866 17379 net.cpp:408] conv1_1_D_conv1_1_D_0_split -> conv1_1_D_conv1_1_D_0_split_0
I0614 12:05:06.369870 17379 net.cpp:408] conv1_1_D_conv1_1_D_0_split -> conv1_1_D_conv1_1_D_0_split_1
I0614 12:05:06.369920 17379 net.cpp:150] Setting up conv1_1_D_conv1_1_D_0_split
I0614 12:05:06.369925 17379 net.cpp:157] Top shape: 5 4 360 480 (3456000)
I0614 12:05:06.369926 17379 net.cpp:157] Top shape: 5 4 360 480 (3456000)
I0614 12:05:06.369928 17379 net.cpp:165] Memory required for data: 5374080000
I0614 12:05:06.369930 17379 layer_factory.hpp:77] Creating layer loss
I0614 12:05:06.369937 17379 net.cpp:100] Creating Layer loss
I0614 12:05:06.369940 17379 net.cpp:434] loss <- conv1_1_D_conv1_1_D_0_split_0
I0614 12:05:06.369942 17379 net.cpp:434] loss <- label_dataRGB_1_split_0
I0614 12:05:06.369945 17379 net.cpp:408] loss -> loss
I0614 12:05:06.369956 17379 layer_factory.hpp:77] Creating layer loss
I0614 12:05:06.374205 17379 net.cpp:150] Setting up loss
I0614 12:05:06.374222 17379 net.cpp:157] Top shape: (1)
I0614 12:05:06.374225 17379 net.cpp:160]     with loss weight 1
I0614 12:05:06.374258 17379 net.cpp:165] Memory required for data: 5374080004
I0614 12:05:06.374260 17379 layer_factory.hpp:77] Creating layer accuracy
I0614 12:05:06.374267 17379 net.cpp:100] Creating Layer accuracy
I0614 12:05:06.374271 17379 net.cpp:434] accuracy <- conv1_1_D_conv1_1_D_0_split_1
I0614 12:05:06.374275 17379 net.cpp:434] accuracy <- label_dataRGB_1_split_1
I0614 12:05:06.374279 17379 net.cpp:408] accuracy -> accuracy
I0614 12:05:06.374282 17379 net.cpp:408] accuracy -> per_class_accuracy
I0614 12:05:06.374359 17379 net.cpp:150] Setting up accuracy
I0614 12:05:06.374363 17379 net.cpp:157] Top shape: (1)
I0614 12:05:06.374366 17379 net.cpp:157] Top shape: 4 (4)
I0614 12:05:06.374367 17379 net.cpp:165] Memory required for data: 5374080024
I0614 12:05:06.374370 17379 net.cpp:228] accuracy does not need backward computation.
I0614 12:05:06.374372 17379 net.cpp:226] loss needs backward computation.
I0614 12:05:06.374374 17379 net.cpp:226] conv1_1_D_conv1_1_D_0_split needs backward computation.
I0614 12:05:06.374377 17379 net.cpp:226] conv1_1_D needs backward computation.
…
