…
  dense_image_data_param {
    source: "/home/mpopovic/workspace/weedNet-devel/SegNet-Tutorial/train_and_test_data/rit-18/10m_15m_20m/trainir3.txt"
    batch_size: 5
    shuffle: false
    new_height: 360
    new_width: 480
    is_color: false
  }
}
layer {
  name: "dataRGB"
  type: "DenseImageData"
  top: "dataRGB"
  top: "label"
  dense_image_data_param {
    source: "/home/mpopovic/workspace/weedNet-devel/SegNet-Tutorial/train_and_test_data/rit-18/10m_15m_20m/train.txt"
    batch_size: 5
    shuffle: false
    new_height: 360
    new_width: 480
    is_color: true
  }
}
layer {
  name: "data"
  type: "Concat"
  bottom: "dataIR1"
  bottom: "dataIR2"
  bottom: "dataIR3"
  bottom: "dataRGB"
  top: "data"
  concat_param {
    axis: 1
  }
}
layer {
  name: "multiconv1_1"
  type: "Convolution"
  bottom: "data"
  top: "conv1_1"
  param {
    lr_mult: 1
    decay_mult: 1
  }
  param {
    lr_mult: 2
    decay_mult: 0
  }
  convolution_param {
    num_output: 64
    pad: 1
    kernel_size: 3
    weight_filler {
      type: "msra"
    }
    bias_filler {
      type: "constant"
    }
  }
}
layer {
  name: "conv1_1_bn"
  type: "BN"
  bottom: "conv1_1"
  top: "conv1_1"
  param {
    lr_mult: 1
    decay_mult: 1
  }
  param {
    lr_mult: 1
    decay_mult: 0
  }
  bn_param {
    scale_filler {
      type: "constant"
      value: 1
    }
    shift_filler {
      type: "constant"
      value: 0.001
    }
  }
}
layer {
  name: "relu1_1"
  type: "ReLU"
  bottom: "conv1_1"
  top: "conv1_1"
}
layer {
  name: "conv1_2"
  type: "Convolution"
  bottom: "conv1_1"
  top: "conv1_2"
  param {
    lr_mult: 1
    decay_mult: 1
  }
  param {
    lr_mult: 2
    decay_mult: 0
  }
  convolution_param {
    num_output: 64
    pad: 1
    kernel_size: 3
    weight_filler {
      type: "msra"
    }
    bias_filler {
      type: "constant"
    }
  }
}
layer {
  name: "conv1_2_bn"
  type: "BN"
  bottom: "conv1_2"
  top: "conv1_2"
  param {
    lr_mult: 1
    decay_mult: 1
  }
  param {
    lr_mult: 1
    decay_mult: 0
  }
  bn_param {
    scale_filler {
      type: "constant"
      value: 1
    }
    shift_filler {
      type: "constant"
      value: 0.001
    }
  }
}
layer {
  name: "relu1_2"
  type: "ReLU"
  bottom: "conv1_2"
  top: "conv1_2"
}
layer {
  name: "pool1"
  type: "Pooling"
  bottom: "conv1_2"
  top: "pool1"
  top: "pool1_mask"
  pooling_param {
    pool: MAX
    kernel_size: 2
    stride: 2
  }
}
layer {
  name: "conv2_1"
  type: "Convolution"
  bottom: "pool1"
  top: "conv2_1"
  param {
    lr_mult: 1
    decay_mult: 1
  }
  param {
    lr_mult: 2
    decay_mult: 0
  }
  convolution_param {
    num_output: 128
    pad: 1
    kernel_size: 3
    weight_filler {
      type: "msra"
    }
    bias_filler {
      type: "constant"
    }
  }
}
layer {
  name: "conv2_1_bn"
  type: "BN"
  bottom: "conv2_1"
  top: "conv2_1"
  param {
    lr_mult: 1
    decay_mult: 1
  }
  param {
    lr_mult: 1
    decay_mult: 0
  }
  bn_param {
    scale_filler {
      type: "constant"
      value: 1
    }
    shift_filler {
      type: "constant"
      value: 0.001
    }
  }
}
layer {
  name: "relu2_1"
  type: "ReLU"
  bottom: "conv2_1"
  top: "conv2_1"
}
layer {
  name: "conv2_2"
  type: "Convolution"
  bottom: "conv2_1"
  top: "conv2_2"
  param {
    lr_mult: 1
    decay_mult: 1
  }
  param {
    lr_mult: 2
    decay_mult: 0
  }
  convolution_param {
    num_output: 128
    pad: 1
    kernel_size: 3
    weight_filler {
      type: "msra"
    }
    bias_filler {
      type: "constant"
    }
  }
}
layer {
  name: "conv2_2_bn"
  type: "BN"
  bottom: "conv2_2"
  top: "conv2_2"
  param {
    lr_mult: 1
    decay_mult: 1
  }
  param {
    lr_mult: 1
    decay_mult: 0
  }
  bn_param {
    scale_filler {
      type: "constant"
      value: 1
    }
    shift_filler {
      type: "constant"
      value: 0.001
    }
  }
}
layer {
  name: "relu2_2"
  type: "ReLU"
  bottom: "conv2_2"
  top: "conv2_2"
}
layer {
  name: "pool2"
  type: "Pooling"
  bottom: "conv2_2"
  top: "pool2"
  top: "pool2_mask"
  pooling_param {
    pool: MAX
    kernel_size: 2
    stride: 2
  }
}
layer {
  name: "conv3_1"
  type: "Convolution"
  bottom: "pool2"
  top: "conv3_1"
  param {
    lr_mult: 1
    decay_mult: 1
  }
  param {
    lr_mult: 2
    decay_mult: 0
  }
  convolution_param {
    num_output: 256
    pad: 1
    kernel_size: 3
    weight_filler {
      type: "msra"
    }
    bias_filler {
      type: "constant"
    }
  }
}
layer {
  name: "conv3_1_bn"
  type: "BN"
  bottom: "conv3_1"
  top: "conv3_1"
  param {
    lr_mult: 1
    decay_mult: 1
  }
  param {
    lr_mult: 1
    decay_mult: 0
  }
  bn_param {
    scale_filler {
      type: "constant"
      value: 1
    }
    shift_filler {
      type: "constant"
      value: 0.001
    }
  }
}
layer {
  name: "relu3_1"
  type: "ReLU"
  bottom: "conv3_1"
  top: "conv3_1"
}
layer {
  name: "conv3_2"
  type: "Convolution"
  bottom: "conv3_1"
  top: "conv3_2"
  param {
    lr_mult: 1
    decay_mult: 1
  }
  param {
    lr_mult: 2
    decay_mult: 0
  }
  convolution_param {
    num_output: 256
    pad: 1
    kernel_size: 3
    weight_filler {
      type: "msra"
    }
    bias_filler {
      type: "constant"
    }
  }
}
layer {
  name: "conv3_2_bn"
  type: "BN"
  bottom: "conv3_2"
  top: "conv3_2"
  param {
    lr_mult: 1
    decay_mult: 1
  }
  param {
    lr_mult: 1
    decay_mult: 0
  }
  bn_param {
    scale_filler {
      type: "constant"
      value: 1
    }
    shift_filler {
      type: "constant"
      value: 0.001
    }
  }
}
layer {
  name: "relu3_2"
  type: "ReLU"
  bottom: "conv3_2"
  top: "conv3_2"
}
layer {
  name: "conv3_3"
  type: "Convolution"
  bottom: "conv3_2"
  top: "conv3_3"
  param {
    lr_mult: 1
    decay_mult: 1
  }
  param {
    lr_mult: 2
    decay_mult: 0
  }
  convolution_param {
    num_output: 256
    pad: 1
    kernel_size: 3
    weight_filler {
      type: "msra"
    }
    bias_filler {
      type: "constant"
    }
  }
}
layer {
  name: "conv3_3_bn"
  type: "BN"
  bottom: "conv3_3"
  top: "conv3_3"
  param {
    lr_mult: 1
    decay_mult: 1
  }
  param {
    lr_mult: 1
    decay_mult: 0
  }
  bn_param {
    scale_filler {
      type: "constant"
      value: 1
    }
    shift_filler {
      type: "constant"
      value: 0.001
    }
  }
}
layer {
  name: "relu3_3"
  type: "ReLU"
  bottom: "conv3_3"
  top: "conv3_3"
}
layer {
  name: "pool3"
  type: "Pooling"
  bottom: "conv3_3"
  top: "pool3"
  top: "pool3_mask"
  pooling_param {
    pool: MAX
    kernel_size: 2
    stride: 2
  }
}
layer {
  name: "conv4_1"
  type: "Convolution"
  bottom: "pool3"
  top: "conv4_1"
  param {
    lr_mult: 1
    decay_mult: 1
  }
  param {
    lr_mult: 2
    decay_mult: 0
  }
  convolution_param {
    num_output: 512
    pad: 1
    kernel_size: 3
    weight_filler {
      type: "msra"
    }
    bias_filler {
      type: "constant"
    }
  }
}
layer {
  name: "conv4_1_bn"
  type: "BN"
  bottom: "conv4_1"
  top: "conv4_1"
  param {
    lr_mult: 1
    decay_mult: 1
  }
  param {
    lr_mult: 1
    decay_mult: 0
  }
  bn_param {
    scale_filler {
      type: "constant"
      value: 1
    }
    shift_filler {
      type: "constant"
      value: 0.001
    }
  }
}
layer {
  name: "relu4_1"
  type: "ReLU"
  bottom: "conv4_1"
  top: "conv4_1"
}
layer {
  name: "conv4_2"
  type: "Convolution"
  bottom: "conv4_1"
  top: "conv4_2"
  param {
    lr_mult: 1
    decay_mult: 1
  }
  param {
    lr_mult: 2
    decay_mult: 0
  }
  convolution_param {
    num_output: 512
    pad: 1
    kernel_size: 3
    weight_filler {
      type: "msra"
    }
    bias_filler {
      type: "constant"
    }
  }
}
layer {
  name: "conv4_2_bn"
  type: "BN"
  bottom: "conv4_2"
  top: "conv4_2"
  param {
    lr_mult: 1
    decay_mult: 1
  }
  param {
    lr_mult: 1
    decay_mult: 0
  }
  bn_param {
    scale_filler {
      type: "constant"
      value: 1
    }
    shift_filler {
      type: "constant"
      value: 0.001
    }
  }
}
layer {
  name: "relu4_2"
  type: "ReLU"
  bottom: "conv4_2"
  top: "conv4_2"
}
layer {
  name: "conv4_3"
  type: "Convolution"
  bottom: "conv4_2"
  top: "conv4_3"
  param {
    lr_mult: 1
    decay_mult: 1
  }
  param {
    lr_mult: 2
    decay_mult: 0
  }
  convolution_param {
    num_output: 512
    pad: 1
    kernel_size: 3
    weight_filler {
      type: "msra"
    }
    bias_filler {
      type: "constant"
    }
  }
}
layer {
  name: "conv4_3_bn"
  type: "BN"
  bottom: "conv4_3"
  top: "conv4_3"
  param {
    lr_mult: 1
    decay_mult: 1
  }
  param {
    lr_mult: 1
    decay_mult: 0
  }
  bn_param {
    scale_filler {
      type: "constant"
      value: 1
    }
    shift_filler {
      type: "constant"
      value: 0.001
    }
  }
}
layer {
  name: "relu4_3"
  type: "ReLU"
  bottom: "conv4_3"
  top: "conv4_3"
}
layer {
  name: "pool4"
  type: "Pooling"
  bottom: "conv4_3"
  top: "pool4"
  top: "pool4_mask"
  pooling_param {
    pool: MAX
    kernel_size: 2
    stride: 2
  }
}
layer {
  name: "conv5_1"
  type: "Convolution"
  bottom: "pool4"
  top: "conv5_1"
  param {
    lr_mult: 1
    decay_mult: 1
  }
  param {
    lr_mult: 2
    decay_mult: 0
  }
  convolution_param {
    num_output: 512
    pad: 1
    kernel_size: 3
    weight_filler {
      type: "msra"
    }
    bias_filler {
      type: "constant"
    }
  }
}
layer {
  name: "conv5_1_bn"
  type: "BN"
  bottom: "conv5_1"
  top: "conv5_1"
  param {
    lr_mult: 1
    decay_mult: 1
  }
  param {
    lr_mult: 1
    decay_mult: 0
  }
  bn_param {
    scale_filler {
      type: "constant"
      value: 1
    }
    shift_filler {
      type: "constant"
      value: 0.001
    }
  }
}
layer {
  name: "relu5_1"
  type: "ReLU"
  bottom: "conv5_1"
  top: "conv5_1"
}
layer {
  name: "conv5_2"
  type: "Convolution"
  bottom: "conv5_1"
  top: "conv5_2"
  param {
    lr_mult: 1
    decay_mult: 1
  }
  param {
    lr_mult: 2
    decay_mult: 0
  }
  convolution_param {
    num_output: 512
    pad: 1
    kernel_size: 3
    weight_filler {
      type: "msra"
    }
    bias_filler {
      type: "constant"
    }
  }
}
layer {
  name: "conv5_2_bn"
  type: "BN"
  bottom: "conv5_2"
  top: "conv5_2"
  param {
    lr_mult: 1
    decay_mult: 1
  }
  param {
    lr_mult: 1
    decay_mult: 0
  }
  bn_param {
    scale_filler {
      type: "constant"
      value: 1
    }
    shift_filler {
      type: "constant"
      value: 0.001
    }
  }
}
layer {
  name: "relu5_2"
  type: "ReLU"
  bottom: "conv5_2"
  top: "conv5_2"
}
layer {
  name: "conv5_3"
  type: "Convolution"
  bottom: "conv5_2"
  top: "conv5_3"
  param {
    lr_mult: 1
    decay_mult: 1
  }
  param {
    lr_mult: 2
    decay_mult: 0
  }
  convolution_param {
    num_output: 512
    pad: 1
    kernel_size: 3
    weight_filler {
      type: "msra"
    }
    bias_filler {
      type: "constant"
    }
  }
}
layer {
  name: "conv5_3_bn"
  type: "BN"
  bottom: "conv5_3"
  top: "conv5_3"
  param {
    lr_mult: 1
    decay_mult: 1
  }
  param {
    lr_mult: 1
    decay_mult: 0
  }
  bn_param {
    scale_filler {
      type: "constant"
      value: 1
    }
    shift_filler {
      type: "constant"
      value: 0.001
    }
  }
}
layer {
  name: "relu5_3"
  type: "ReLU"
  bottom: "conv5_3"
  top: "conv5_3"
}
layer {
  name: "pool5"
  type: "Pooling"
  bottom: "conv5_3"
  top: "pool5"
  top: "pool5_mask"
  pooling_param {
    pool: MAX
    kernel_size: 2
    stride: 2
  }
}
layer {
  name: "upsample5"
  type: "Upsample"
  bottom: "pool5"
  bottom: "pool5_mask"
  top: "pool5_D"
  upsample_param {
    scale: 2
    upsample_h: 23
    upsample_w: 30
  }
}
layer {
  name: "conv5_3_D"
  type: "Convolution"
  bottom: "pool5_D"
  top: "conv5_3_D"
  param {
    lr_mult: 1
    decay_mult: 1
  }
  param {
    lr_mult: 2
    decay_mult: 0
  }
  convolution_param {
    num_output: 512
    pad: 1
    kernel_size: 3
    weight_filler {
      type: "msra"
    }
    bias_filler {
      type: "constant"
    }
  }
}
layer {
  name: "conv5_3_D_bn"
  type: "BN"
  bottom: "conv5_3_D"
  top: "conv5_3_D"
  param {
    lr_mult: 1
    decay_mult: 1
  }
  param {
    lr_mult: 1
    decay_mult: 0
  }
  bn_param {
    scale_filler {
      type: "constant"
      value: 1
    }
    shift_filler {
      type: "constant"
      value: 0.001
    }
  }
}
layer {
  name: "relu5_3_D"
  type: "ReLU"
  bottom: "conv5_3_D"
  top: "conv5_3_D"
}
layer {
  name: "conv5_2_D"
  type: "Convolution"
  bottom: "conv5_3_D"
  top: "conv5_2_D"
  param {
    lr_mult: 1
    decay_mult: 1
  }
  param {
    lr_mult: 2
    decay_mult: 0
  }
  convolution_param {
    num_output: 512
    pad: 1
    kernel_size: 3
    weight_filler {
      type: "msra"
    }
    bias_filler {
      type: "constant"
    }
  }
}
layer {
  name: "conv5_2_D_bn"
  type: "BN"
  bottom: "conv5_2_D"
  top: "conv5_2_D"
  param {
    lr_mult: 1
    decay_mult: 1
  }
  param {
    lr_mult: 1
    decay_mult: 0
  }
  bn_param {
    scale_filler {
      type: "constant"
      value: 1
    }
    shift_filler {
      type: "constant"
      value: 0.001
    }
  }
}
layer {
  name: "relu5_2_D"
  type: "ReLU"
  bottom: "conv5_2_D"
  top: "conv5_2_D"
}
layer {
  name: "conv5_1_D"
  type: "Convolution"
  bottom: "conv5_2_D"
  top: "conv5_1_D"
  param {
    lr_mult: 1
    decay_mult: 1
  }
  param {
    lr_mult: 2
    decay_mult: 0
  }
  convolution_param {
    num_output: 512
    pad: 1
    kernel_size: 3
    weight_filler {
      type: "msra"
    }
    bias_filler {
      type: "constant"
    }
  }
}
layer {
  name: "conv5_1_D_bn"
  type: "BN"
  bottom: "conv5_1_D"
  top: "conv5_1_D"
  param {
    lr_mult: 1
    decay_mult: 1
  }
  param {
    lr_mult: 1
    decay_mult: 0
  }
  bn_param {
    scale_filler {
      type: "constant"
      value: 1
    }
    shift_filler {
      type: "constant"
      value: 0.001
    }
  }
}
layer {
  name: "relu5_1_D"
  type: "ReLU"
  bottom: "conv5_1_D"
  top: "conv5_1_D"
}
layer {
  name: "upsample4"
  type: "Upsample"
  bottom: "conv5_1_D"
  bottom: "pool4_mask"
  top: "pool4_D"
  upsample_param {
    scale: 2
    upsample_h: 45
    upsample_w: 60
  }
}
layer {
  name: "conv4_3_D"
  type: "Convolution"
  bottom: "pool4_D"
  top: "conv4_3_D"
  param {
    lr_mult: 1
    decay_mult: 1
  }
  param {
    lr_mult: 2
    decay_mult: 0
  }
  convolution_param {
    num_output: 512
    pad: 1
    kernel_size: 3
    weight_filler {
      type: "msra"
    }
    bias_filler {
      type: "constant"
    }
  }
}
layer {
  name: "conv4_3_D_bn"
  type: "BN"
  bottom: "conv4_3_D"
  top: "conv4_3_D"
  param {
    lr_mult: 1
    decay_mult: 1
  }
  param {
    lr_mult: 1
    decay_mult: 0
  }
  bn_param {
    scale_filler {
      type: "constant"
      value: 1
    }
    shift_filler {
      type: "constant"
      value: 0.001
    }
  }
}
layer {
  name: "relu4_3_D"
  type: "ReLU"
  bottom: "conv4_3_D"
  top: "conv4_3_D"
}
layer {
  name: "conv4_2_D"
  type: "Convolution"
  bottom: "conv4_3_D"
  top: "conv4_2_D"
  param {
    lr_mult: 1
    decay_mult: 1
  }
  param {
    lr_mult: 2
    decay_mult: 0
  }
  convolution_param {
    num_output: 512
    pad: 1
    kernel_size: 3
    weight_filler {
      type: "msra"
    }
    bias_filler {
      type: "constant"
    }
  }
}
layer {
  name: "conv4_2_D_bn"
  type: "BN"
  bottom: "conv4_2_D"
  top: "conv4_2_D"
  param {
    lr_mult: 1
    decay_mult: 1
  }
  param {
    lr_mult: 1
    decay_mult: 0
  }
  bn_param {
    scale_filler {
      type: "constant"
      value: 1
    }
    shift_filler {
      type: "constant"
      value: 0.001
    }
  }
}
layer {
  name: "relu4_2_D"
  type: "ReLU"
  bottom: "conv4_2_D"
  top: "conv4_2_D"
}
layer {
  name: "conv4_1_D"
  type: "Convolution"
  bottom: "conv4_2_D"
  top: "conv4_1_D"
  param {
    lr_mult: 1
    decay_mult: 1
  }
  param {
    lr_mult: 2
    decay_mult: 0
  }
  convolution_param {
    num_output: 256
    pad: 1
    kernel_size: 3
    weight_filler {
      type: "msra"
    }
    bias_filler {
      type: "constant"
    }
  }
}
layer {
  name: "conv4_1_D_bn"
  type: "BN"
  bottom: "conv4_1_D"
  top: "conv4_1_D"
  param {
    lr_mult: 1
    decay_mult: 1
  }
  param {
    lr_mult: 1
    decay_mult: 0
  }
  bn_param {
    scale_filler {
      type: "constant"
      value: 1
    }
    shift_filler {
      type: "constant"
      value: 0.001
    }
  }
}
layer {
  name: "relu4_1_D"
  type: "ReLU"
  bottom: "conv4_1_D"
  top: "conv4_1_D"
}
layer {
  name: "upsample3"
  type: "Upsample"
  bottom: "conv4_1_D"
  bottom: "pool3_mask"
  top: "pool3_D"
  upsample_param {
    scale: 2
  }
}
layer {
  name: "conv3_3_D"
  type: "Convolution"
  bottom: "pool3_D"
  top: "conv3_3_D"
  param {
    lr_mult: 1
    decay_mult: 1
  }
  param {
    lr_mult: 2
    decay_mult: 0
  }
  convolution_param {
    num_output: 256
    pad: 1
    kernel_size: 3
    weight_filler {
      type: "msra"
    }
    bias_filler {
      type: "constant"
    }
  }
}
layer {
  name: "conv3_3_D_bn"
  type: "BN"
  bottom: "conv3_3_D"
  top: "conv3_3_D"
  param {
    lr_mult: 1
    decay_mult: 1
  }
  param {
    lr_mult: 1
    decay_mult: 0
  }
  bn_param {
    scale_filler {
      type: "constant"
      value: 1
    }
    shift_filler {
      type: "constant"
      value: 0.001
    }
  }
}
layer {
  name: "relu3_3_D"
  type: "ReLU"
  bottom: "conv3_3_D"
  top: "conv3_3_D"
}
layer {
  name: "conv3_2_D"
  type: "Convolution"
  bottom: "conv3_3_D"
  top: "conv3_2_D"
  param {
    lr_mult: 1
    decay_mult: 1
  }
  param {
    lr_mult: 2
    decay_mult: 0
  }
  convolution_param {
    num_output: 256
    pad: 1
    kernel_size: 3
    weight_filler {
      type: "msra"
    }
    bias_filler {
      type: "constant"
    }
  }
}
layer {
  name: "conv3_2_D_bn"
  type: "BN"
  bottom: "conv3_2_D"
  top: "conv3_2_D"
  param {
    lr_mult: 1
    decay_mult: 1
  }
  param {
    lr_mult: 1
    decay_mult: 0
  }
  bn_param {
    scale_filler {
      type: "constant"
      value: 1
    }
    shift_filler {
      type: "constant"
      value: 0.001
    }
  }
}
layer {
  name: "relu3_2_D"
  type: "ReLU"
  bottom: "conv3_2_D"
  top: "conv3_2_D"
}
layer {
  name: "conv3_1_D"
  type: "Convolution"
  bottom: "conv3_2_D"
  top: "conv3_1_D"
  param {
    lr_mult: 1
    decay_mult: 1
  }
  param {
    lr_mult: 2
    decay_mult: 0
  }
  convolution_param {
    num_output: 128
    pad: 1
    kernel_size: 3
    weight_filler {
      type: "msra"
    }
    bias_filler {
      type: "constant"
    }
  }
}
layer {
  name: "conv3_1_D_bn"
  type: "BN"
  bottom: "conv3_1_D"
  top: "conv3_1_D"
  param {
    lr_mult: 1
    decay_mult: 1
  }
  param {
    lr_mult: 1
    decay_mult: 0
  }
  bn_param {
    scale_filler {
      type: "constant"
      value: 1
    }
    shift_filler {
      type: "constant"
      value: 0.001
    }
  }
}
layer {
  name: "relu3_1_D"
  type: "ReLU"
  bottom: "conv3_1_D"
  top: "conv3_1_D"
}
layer {
  name: "upsample2"
  type: "Upsample"
  bottom: "conv3_1_D"
  bottom: "pool2_mask"
  top: "pool2_D"
  upsample_param {
    scale: 2
  }
}
layer {
  name: "conv2_2_D"
  type: "Convolution"
  bottom: "pool2_D"
  top: "conv2_2_D"
  param {
    lr_mult: 1
    decay_mult: 1
  }
  param {
    lr_mult: 2
    decay_mult: 0
  }
  convolution_param {
    num_output: 128
    pad: 1
    kernel_size: 3
    weight_filler {
      type: "msra"
    }
    bias_filler {
      type: "constant"
    }
  }
}
layer {
  name: "conv2_2_D_bn"
  type: "BN"
  bottom: "conv2_2_D"
  top: "conv2_2_D"
  param {
    lr_mult: 1
    decay_mult: 1
  }
  param {
    lr_mult: 1
    decay_mult: 0
  }
  bn_param {
    scale_filler {
      type: "constant"
      value: 1
    }
    shift_filler {
      type: "constant"
      value: 0.001
    }
  }
}
layer {
  name: "relu2_2_D"
  type: "ReLU"
  bottom: "conv2_2_D"
  top: "conv2_2_D"
}
layer {
  name: "conv2_1_D"
  type: "Convolution"
  bottom: "conv2_2_D"
  top: "conv2_1_D"
  param {
    lr_mult: 1
    decay_mult: 1
  }
  param {
    lr_mult: 2
    decay_mult: 0
  }
  convolution_param {
    num_output: 64
    pad: 1
    kernel_size: 3
    weight_filler {
      type: "msra"
    }
    bias_filler {
      type: "constant"
    }
  }
}
layer {
  name: "conv2_1_D_bn"
  type: "BN"
  bottom: "conv2_1_D"
  top: "conv2_1_D"
  param {
    lr_mult: 1
    decay_mult: 1
  }
  param {
    lr_mult: 1
    decay_mult: 0
  }
  bn_param {
    scale_filler {
      type: "constant"
      value: 1
    }
    shift_filler {
      type: "constant"
      value: 0.001
    }
  }
}
layer {
  name: "relu2_1_D"
  type: "ReLU"
  bottom: "conv2_1_D"
  top: "conv2_1_D"
}
layer {
  name: "upsample1"
  type: "Upsample"
  bottom: "conv2_1_D"
  bottom: "pool1_mask"
  top: "pool1_D"
  upsample_param {
    scale: 2
  }
}
layer {
  name: "conv1_2_D"
  type: "Convolution"
  bottom: "pool1_D"
  top: "conv1_2_D"
  param {
    lr_mult: 1
    decay_mult: 1
  }
  param {
    lr_mult: 2
    decay_mult: 0
  }
  convolution_param {
    num_output: 64
    pad: 1
    kernel_size: 3
    weight_filler {
      type: "msra"
    }
    bias_filler {
      type: "constant"
    }
  }
}
layer {
  name: "conv1_2_D_bn"
  type: "BN"
  bottom: "conv1_2_D"
  top: "conv1_2_D"
  param {
    lr_mult: 1
    decay_mult: 1
  }
  param {
    lr_mult: 1
    decay_mult: 0
  }
  bn_param {
    scale_filler {
      type: "constant"
      value: 1
    }
    shift_filler {
      type: "constant"
      value: 0.001
    }
  }
}
layer {
  name: "relu1_2_D"
  type: "ReLU"
  bottom: "conv1_2_D"
  top: "conv1_2_D"
}
layer {
  name: "conv1_1_D"
  type: "Convolution"
  bottom: "conv1_2_D"
  top: "conv1_1_D"
  param {
    lr_mult: 1
    decay_mult: 1
  }
  param {
    lr_mult: 2
    decay_mult: 0
  }
  convolution_param {
    num_output: 4
    pad: 1
    kernel_size: 3
    weight_filler {
      type: "msra"
    }
    bias_filler {
      type: "constant"
    }
  }
}
layer {
  name: "loss"
  type: "SoftmaxWithLoss"
  bottom: "conv1_1_D"
  bottom: "label"
  top: "loss"
  loss_param {
    weight_by_label_freqs: true
    class_weighting: 0.9566
    class_weighting: 0.3986
    class_weighting: 1.3157
    class_weighting: 1.0475
  }
  softmax_param {
    engine: CAFFE
  }
}
layer {
  name: "accuracy"
  type: "Accuracy"
  bottom: "conv1_1_D"
  bottom: "label"
  top: "accuracy"
  top: "per_class_accuracy"
}
I0615 11:13:47.301443  5770 layer_factory.hpp:77] Creating layer dataIR1
I0615 11:13:47.301456  5770 net.cpp:100] Creating Layer dataIR1
I0615 11:13:47.301460  5770 net.cpp:408] dataIR1 -> dataIR1
I0615 11:13:47.301478  5770 dense_image_only_data_layer.cpp:49] Opening file /home/mpopovic/workspace/weedNet-devel/SegNet-Tutorial/train_and_test_data/rit-18/10m_15m_20m/trainir1.txt
I0615 11:13:47.301676  5770 dense_image_only_data_layer.cpp:65] A total of 754 examples.
I0615 11:13:47.311080  5770 dense_image_only_data_layer.cpp:118] output data size: 5,1,360,480
I0615 11:13:47.312041  5770 net.cpp:150] Setting up dataIR1
I0615 11:13:47.312057  5770 net.cpp:157] Top shape: 5 1 360 480 (864000)
I0615 11:13:47.312059  5770 net.cpp:165] Memory required for data: 3456000
I0615 11:13:47.312077  5770 layer_factory.hpp:77] Creating layer dataIR2
I0615 11:13:47.312088  5770 net.cpp:100] Creating Layer dataIR2
I0615 11:13:47.312090  5770 net.cpp:408] dataIR2 -> dataIR2
I0615 11:13:47.312098  5770 dense_image_only_data_layer.cpp:49] Opening file /home/mpopovic/workspace/weedNet-devel/SegNet-Tutorial/train_and_test_data/rit-18/10m_15m_20m/trainir2.txt
I0615 11:13:47.312283  5770 dense_image_only_data_layer.cpp:65] A total of 754 examples.
I0615 11:13:47.314476  5770 dense_image_only_data_layer.cpp:118] output data size: 5,1,360,480
I0615 11:13:47.316128  5770 net.cpp:150] Setting up dataIR2
I0615 11:13:47.316407  5770 net.cpp:157] Top shape: 5 1 360 480 (864000)
I0615 11:13:47.316424  5770 net.cpp:165] Memory required for data: 6912000
I0615 11:13:47.316464  5770 layer_factory.hpp:77] Creating layer dataIR3
I0615 11:13:47.316475  5770 net.cpp:100] Creating Layer dataIR3
I0615 11:13:47.316479  5770 net.cpp:408] dataIR3 -> dataIR3
I0615 11:13:47.316489  5770 dense_image_only_data_layer.cpp:49] Opening file /home/mpopovic/workspace/weedNet-devel/SegNet-Tutorial/train_and_test_data/rit-18/10m_15m_20m/trainir3.txt
I0615 11:13:47.316711  5770 dense_image_only_data_layer.cpp:65] A total of 754 examples.
I0615 11:13:47.319407  5770 dense_image_only_data_layer.cpp:118] output data size: 5,1,360,480
I0615 11:13:47.320456  5770 net.cpp:150] Setting up dataIR3
I0615 11:13:47.320468  5770 net.cpp:157] Top shape: 5 1 360 480 (864000)
I0615 11:13:47.320472  5770 net.cpp:165] Memory required for data: 10368000
I0615 11:13:47.320477  5770 layer_factory.hpp:77] Creating layer dataRGB
I0615 11:13:47.320487  5770 net.cpp:100] Creating Layer dataRGB
I0615 11:13:47.320492  5770 net.cpp:408] dataRGB -> dataRGB
I0615 11:13:47.320499  5770 net.cpp:408] dataRGB -> label
I0615 11:13:47.320510  5770 dense_image_data_layer.cpp:49] Opening file /home/mpopovic/workspace/weedNet-devel/SegNet-Tutorial/train_and_test_data/rit-18/10m_15m_20m/train.txt
I0615 11:13:47.321383  5770 dense_image_data_layer.cpp:64] A total of 754 examples.
I0615 11:13:47.330232  5770 dense_image_data_layer.cpp:117] output data size: 5,3,360,480
I0615 11:13:47.335618  5770 net.cpp:150] Setting up dataRGB
I0615 11:13:47.335636  5770 net.cpp:157] Top shape: 5 3 360 480 (2592000)
I0615 11:13:47.335642  5770 net.cpp:157] Top shape: 5 1 360 480 (864000)
I0615 11:13:47.335645  5770 net.cpp:165] Memory required for data: 24192000
I0615 11:13:47.335649  5770 layer_factory.hpp:77] Creating layer label_dataRGB_1_split
I0615 11:13:47.335665  5770 net.cpp:100] Creating Layer label_dataRGB_1_split
I0615 11:13:47.335672  5770 net.cpp:434] label_dataRGB_1_split <- label
I0615 11:13:47.335685  5770 net.cpp:408] label_dataRGB_1_split -> label_dataRGB_1_split_0
I0615 11:13:47.335693  5770 net.cpp:408] label_dataRGB_1_split -> label_dataRGB_1_split_1
I0615 11:13:47.335732  5770 net.cpp:150] Setting up label_dataRGB_1_split
I0615 11:13:47.335738  5770 net.cpp:157] Top shape: 5 1 360 480 (864000)
I0615 11:13:47.335743  5770 net.cpp:157] Top shape: 5 1 360 480 (864000)
I0615 11:13:47.335747  5770 net.cpp:165] Memory required for data: 31104000
I0615 11:13:47.335748  5770 layer_factory.hpp:77] Creating layer data
I0615 11:13:47.335754  5770 net.cpp:100] Creating Layer data
I0615 11:13:47.335760  5770 net.cpp:434] data <- dataIR1
I0615 11:13:47.335764  5770 net.cpp:434] data <- dataIR2
I0615 11:13:47.335768  5770 net.cpp:434] data <- dataIR3
I0615 11:13:47.335772  5770 net.cpp:434] data <- dataRGB
I0615 11:13:47.335777  5770 net.cpp:408] data -> data
I0615 11:13:47.335795  5770 net.cpp:150] Setting up data
I0615 11:13:47.335800  5770 net.cpp:157] Top shape: 5 6 360 480 (5184000)
I0615 11:13:47.335803  5770 net.cpp:165] Memory required for data: 51840000
I0615 11:13:47.335806  5770 layer_factory.hpp:77] Creating layer multiconv1_1
I0615 11:13:47.335820  5770 net.cpp:100] Creating Layer multiconv1_1
I0615 11:13:47.335824  5770 net.cpp:434] multiconv1_1 <- data
I0615 11:13:47.335829  5770 net.cpp:408] multiconv1_1 -> conv1_1
I0615 11:13:47.809995  5770 net.cpp:150] Setting up multiconv1_1
I0615 11:13:47.810024  5770 net.cpp:157] Top shape: 5 64 360 480 (55296000)
I0615 11:13:47.810026  5770 net.cpp:165] Memory required for data: 273024000
I0615 11:13:47.810041  5770 layer_factory.hpp:77] Creating layer conv1_1_bn
I0615 11:13:47.810052  5770 net.cpp:100] Creating Layer conv1_1_bn
I0615 11:13:47.810056  5770 net.cpp:434] conv1_1_bn <- conv1_1
I0615 11:13:47.810061  5770 net.cpp:395] conv1_1_bn -> conv1_1 (in-place)
I0615 11:13:47.827874  5770 net.cpp:150] Setting up conv1_1_bn
I0615 11:13:47.827924  5770 net.cpp:157] Top shape: 5 64 360 480 (55296000)
I0615 11:13:47.827927  5770 net.cpp:165] Memory required for data: 494208000
I0615 11:13:47.827956  5770 layer_factory.hpp:77] Creating layer relu1_1
I0615 11:13:47.827982  5770 net.cpp:100] Creating Layer relu1_1
I0615 11:13:47.827987  5770 net.cpp:434] relu1_1 <- conv1_1
I0615 11:13:47.827994  5770 net.cpp:395] relu1_1 -> conv1_1 (in-place)
I0615 11:13:47.828259  5770 net.cpp:150] Setting up relu1_1
I0615 11:13:47.828270  5770 net.cpp:157] Top shape: 5 64 360 480 (55296000)
I0615 11:13:47.828274  5770 net.cpp:165] Memory required for data: 715392000
I0615 11:13:47.828276  5770 layer_factory.hpp:77] Creating layer conv1_2
I0615 11:13:47.828295  5770 net.cpp:100] Creating Layer conv1_2
I0615 11:13:47.828299  5770 net.cpp:434] conv1_2 <- conv1_1
I0615 11:13:47.828305  5770 net.cpp:408] conv1_2 -> conv1_2
I0615 11:13:47.879150  5770 net.cpp:150] Setting up conv1_2
I0615 11:13:47.879169  5770 net.cpp:157] Top shape: 5 64 360 480 (55296000)
I0615 11:13:47.879173  5770 net.cpp:165] Memory required for data: 936576000
I0615 11:13:47.879186  5770 layer_factory.hpp:77] Creating layer conv1_2_bn
I0615 11:13:47.879204  5770 net.cpp:100] Creating Layer conv1_2_bn
I0615 11:13:47.879209  5770 net.cpp:434] conv1_2_bn <- conv1_2
I0615 11:13:47.879216  5770 net.cpp:395] conv1_2_bn -> conv1_2 (in-place)
I0615 11:13:47.906246  5770 net.cpp:150] Setting up conv1_2_bn
I0615 11:13:47.906265  5770 net.cpp:157] Top shape: 5 64 360 480 (55296000)
I0615 11:13:47.906267  5770 net.cpp:165] Memory required for data: 1157760000
I0615 11:13:47.906276  5770 layer_factory.hpp:77] Creating layer relu1_2
I0615 11:13:47.906285  5770 net.cpp:100] Creating Layer relu1_2
I0615 11:13:47.906288  5770 net.cpp:434] relu1_2 <- conv1_2
I0615 11:13:47.906293  5770 net.cpp:395] relu1_2 -> conv1_2 (in-place)
I0615 11:13:47.906431  5770 net.cpp:150] Setting up relu1_2
I0615 11:13:47.906437  5770 net.cpp:157] Top shape: 5 64 360 480 (55296000)
I0615 11:13:47.906440  5770 net.cpp:165] Memory required for data: 1378944000
I0615 11:13:47.906443  5770 layer_factory.hpp:77] Creating layer pool1
I0615 11:13:47.906447  5770 layer_factory.cpp:91] cuDNN does not support multiple tops. Using Caffe's own pooling layer.
I0615 11:13:47.906453  5770 net.cpp:100] Creating Layer pool1
I0615 11:13:47.906456  5770 net.cpp:434] pool1 <- conv1_2
I0615 11:13:47.906461  5770 net.cpp:408] pool1 -> pool1
I0615 11:13:47.906467  5770 net.cpp:408] pool1 -> pool1_mask
I0615 11:13:47.906512  5770 net.cpp:150] Setting up pool1
I0615 11:13:47.906517  5770 net.cpp:157] Top shape: 5 64 180 240 (13824000)
I0615 11:13:47.906519  5770 net.cpp:157] Top shape: 5 64 180 240 (13824000)
I0615 11:13:47.906522  5770 net.cpp:165] Memory required for data: 1489536000
I0615 11:13:47.906525  5770 layer_factory.hpp:77] Creating layer conv2_1
I0615 11:13:47.906533  5770 net.cpp:100] Creating Layer conv2_1
I0615 11:13:47.906535  5770 net.cpp:434] conv2_1 <- pool1
I0615 11:13:47.906540  5770 net.cpp:408] conv2_1 -> conv2_1
I0615 11:13:47.934806  5770 net.cpp:150] Setting up conv2_1
I0615 11:13:47.934821  5770 net.cpp:157] Top shape: 5 128 180 240 (27648000)
I0615 11:13:47.934825  5770 net.cpp:165] Memory required for data: 1600128000
I0615 11:13:47.934839  5770 layer_factory.hpp:77] Creating layer conv2_1_bn
I0615 11:13:47.934850  5770 net.cpp:100] Creating Layer conv2_1_bn
I0615 11:13:47.934854  5770 net.cpp:434] conv2_1_bn <- conv2_1
I0615 11:13:47.934861  5770 net.cpp:395] conv2_1_bn -> conv2_1 (in-place)
I0615 11:13:47.969235  5770 net.cpp:150] Setting up conv2_1_bn
I0615 11:13:47.969257  5770 net.cpp:157] Top shape: 5 128 180 240 (27648000)
I0615 11:13:47.969260  5770 net.cpp:165] Memory required for data: 1710720000
I0615 11:13:47.969270  5770 layer_factory.hpp:77] Creating layer relu2_1
I0615 11:13:47.969280  5770 net.cpp:100] Creating Layer relu2_1
I0615 11:13:47.969285  5770 net.cpp:434] relu2_1 <- conv2_1
I0615 11:13:47.969290  5770 net.cpp:395] relu2_1 -> conv2_1 (in-place)
I0615 11:13:47.969790  5770 net.cpp:150] Setting up relu2_1
I0615 11:13:47.969799  5770 net.cpp:157] Top shape: 5 128 180 240 (27648000)
I0615 11:13:47.969802  5770 net.cpp:165] Memory required for data: 1821312000
I0615 11:13:47.969805  5770 layer_factory.hpp:77] Creating layer conv2_2
I0615 11:13:47.969815  5770 net.cpp:100] Creating Layer conv2_2
I0615 11:13:47.969820  5770 net.cpp:434] conv2_2 <- conv2_1
I0615 11:13:47.969825  5770 net.cpp:408] conv2_2 -> conv2_2
I0615 11:13:48.025988  5770 net.cpp:150] Setting up conv2_2
I0615 11:13:48.026003  5770 net.cpp:157] Top shape: 5 128 180 240 (27648000)
I0615 11:13:48.026007  5770 net.cpp:165] Memory required for data: 1931904000
I0615 11:13:48.026015  5770 layer_factory.hpp:77] Creating layer conv2_2_bn
I0615 11:13:48.026023  5770 net.cpp:100] Creating Layer conv2_2_bn
I0615 11:13:48.026028  5770 net.cpp:434] conv2_2_bn <- conv2_2
I0615 11:13:48.026036  5770 net.cpp:395] conv2_2_bn -> conv2_2 (in-place)
I0615 11:13:48.058915  5770 net.cpp:150] Setting up conv2_2_bn
I0615 11:13:48.058931  5770 net.cpp:157] Top shape: 5 128 180 240 (27648000)
I0615 11:13:48.058934  5770 net.cpp:165] Memory required for data: 2042496000
I0615 11:13:48.058948  5770 layer_factory.hpp:77] Creating layer relu2_2
I0615 11:13:48.058960  5770 net.cpp:100] Creating Layer relu2_2
I0615 11:13:48.058969  5770 net.cpp:434] relu2_2 <- conv2_2
I0615 11:13:48.058977  5770 net.cpp:395] relu2_2 -> conv2_2 (in-place)
I0615 11:13:48.059201  5770 net.cpp:150] Setting up relu2_2
I0615 11:13:48.059209  5770 net.cpp:157] Top shape: 5 128 180 240 (27648000)
I0615 11:13:48.059212  5770 net.cpp:165] Memory required for data: 2153088000
I0615 11:13:48.059216  5770 layer_factory.hpp:77] Creating layer pool2
I0615 11:13:48.059221  5770 layer_factory.cpp:91] cuDNN does not support multiple tops. Using Caffe's own pooling layer.
I0615 11:13:48.059226  5770 net.cpp:100] Creating Layer pool2
I0615 11:13:48.059231  5770 net.cpp:434] pool2 <- conv2_2
I0615 11:13:48.059237  5770 net.cpp:408] pool2 -> pool2
I0615 11:13:48.059244  5770 net.cpp:408] pool2 -> pool2_mask
I0615 11:13:48.063453  5770 net.cpp:150] Setting up pool2
I0615 11:13:48.063462  5770 net.cpp:157] Top shape: 5 128 90 120 (6912000)
I0615 11:13:48.063465  5770 net.cpp:157] Top shape: 5 128 90 120 (6912000)
I0615 11:13:48.063469  5770 net.cpp:165] Memory required for data: 2208384000
I0615 11:13:48.063472  5770 layer_factory.hpp:77] Creating layer conv3_1
I0615 11:13:48.063480  5770 net.cpp:100] Creating Layer conv3_1
I0615 11:13:48.063484  5770 net.cpp:434] conv3_1 <- pool2
I0615 11:13:48.063489  5770 net.cpp:408] conv3_1 -> conv3_1
I0615 11:13:48.117146  5770 net.cpp:150] Setting up conv3_1
I0615 11:13:48.117162  5770 net.cpp:157] Top shape: 5 256 90 120 (13824000)
I0615 11:13:48.117171  5770 net.cpp:165] Memory required for data: 2263680000
I0615 11:13:48.117185  5770 layer_factory.hpp:77] Creating layer conv3_1_bn
I0615 11:13:48.117208  5770 net.cpp:100] Creating Layer conv3_1_bn
I0615 11:13:48.117221  5770 net.cpp:434] conv3_1_bn <- conv3_1
I0615 11:13:48.117235  5770 net.cpp:395] conv3_1_bn -> conv3_1 (in-place)
I0615 11:13:48.154846  5770 net.cpp:150] Setting up conv3_1_bn
I0615 11:13:48.154863  5770 net.cpp:157] Top shape: 5 256 90 120 (13824000)
I0615 11:13:48.154867  5770 net.cpp:165] Memory required for data: 2318976000
I0615 11:13:48.154876  5770 layer_factory.hpp:77] Creating layer relu3_1
I0615 11:13:48.154884  5770 net.cpp:100] Creating Layer relu3_1
I0615 11:13:48.154889  5770 net.cpp:434] relu3_1 <- conv3_1
I0615 11:13:48.154896  5770 net.cpp:395] relu3_1 -> conv3_1 (in-place)
I0615 11:13:48.155133  5770 net.cpp:150] Setting up relu3_1
I0615 11:13:48.155141  5770 net.cpp:157] Top shape: 5 256 90 120 (13824000)
I0615 11:13:48.155144  5770 net.cpp:165] Memory required for data: 2374272000
I0615 11:13:48.155148  5770 layer_factory.hpp:77] Creating layer conv3_2
I0615 11:13:48.155158  5770 net.cpp:100] Creating Layer conv3_2
I0615 11:13:48.155161  5770 net.cpp:434] conv3_2 <- conv3_1
I0615 11:13:48.155166  5770 net.cpp:408] conv3_2 -> conv3_2
I0615 11:13:48.205663  5770 net.cpp:150] Setting up conv3_2
I0615 11:13:48.205821  5770 net.cpp:157] Top shape: 5 256 90 120 (13824000)
I0615 11:13:48.205909  5770 net.cpp:165] Memory required for data: 2429568000
I0615 11:13:48.205996  5770 layer_factory.hpp:77] Creating layer conv3_2_bn
I0615 11:13:48.206082  5770 net.cpp:100] Creating Layer conv3_2_bn
I0615 11:13:48.206166  5770 net.cpp:434] conv3_2_bn <- conv3_2
I0615 11:13:48.206246  5770 net.cpp:395] conv3_2_bn -> conv3_2 (in-place)
I0615 11:13:48.206640  5770 net.cpp:150] Setting up conv3_2_bn
I0615 11:13:48.206732  5770 net.cpp:157] Top shape: 5 256 90 120 (13824000)
I0615 11:13:48.206815  5770 net.cpp:165] Memory required for data: 2484864000
I0615 11:13:48.206898  5770 layer_factory.hpp:77] Creating layer relu3_2
I0615 11:13:48.206981  5770 net.cpp:100] Creating Layer relu3_2
I0615 11:13:48.207057  5770 net.cpp:434] relu3_2 <- conv3_2
I0615 11:13:48.207134  5770 net.cpp:395] relu3_2 -> conv3_2 (in-place)
I0615 11:13:48.207757  5770 net.cpp:150] Setting up relu3_2
I0615 11:13:48.207859  5770 net.cpp:157] Top shape: 5 256 90 120 (13824000)
I0615 11:13:48.207942  5770 net.cpp:165] Memory required for data: 2540160000
I0615 11:13:48.208024  5770 layer_factory.hpp:77] Creating layer conv3_3
I0615 11:13:48.208107  5770 net.cpp:100] Creating Layer conv3_3
I0615 11:13:48.208185  5770 net.cpp:434] conv3_3 <- conv3_2
I0615 11:13:48.208263  5770 net.cpp:408] conv3_3 -> conv3_3
I0615 11:13:48.226071  5770 net.cpp:150] Setting up conv3_3
I0615 11:13:48.226223  5770 net.cpp:157] Top shape: 5 256 90 120 (13824000)
I0615 11:13:48.226310  5770 net.cpp:165] Memory required for data: 2595456000
I0615 11:13:48.226397  5770 layer_factory.hpp:77] Creating layer conv3_3_bn
I0615 11:13:48.226483  5770 net.cpp:100] Creating Layer conv3_3_bn
I0615 11:13:48.226563  5770 net.cpp:434] conv3_3_bn <- conv3_3
I0615 11:13:48.226642  5770 net.cpp:395] conv3_3_bn -> conv3_3 (in-place)
I0615 11:13:48.227046  5770 net.cpp:150] Setting up conv3_3_bn
I0615 11:13:48.227138  5770 net.cpp:157] Top shape: 5 256 90 120 (13824000)
I0615 11:13:48.227221  5770 net.cpp:165] Memory required for data: 2650752000
I0615 11:13:48.227303  5770 layer_factory.hpp:77] Creating layer relu3_3
I0615 11:13:48.227388  5770 net.cpp:100] Creating Layer relu3_3
I0615 11:13:48.227464  5770 net.cpp:434] relu3_3 <- conv3_3
I0615 11:13:48.227540  5770 net.cpp:395] relu3_3 -> conv3_3 (in-place)
I0615 11:13:48.227805  5770 net.cpp:150] Setting up relu3_3
I0615 11:13:48.227982  5770 net.cpp:157] Top shape: 5 256 90 120 (13824000)
I0615 11:13:48.228078  5770 net.cpp:165] Memory required for data: 2706048000
I0615 11:13:48.228164  5770 layer_factory.hpp:77] Creating layer pool3
I0615 11:13:48.228243  5770 layer_factory.cpp:91] cuDNN does not support multiple tops. Using Caffe's own pooling layer.
I0615 11:13:48.228340  5770 net.cpp:100] Creating Layer pool3
I0615 11:13:48.228415  5770 net.cpp:434] pool3 <- conv3_3
I0615 11:13:48.228494  5770 net.cpp:408] pool3 -> pool3
I0615 11:13:48.228574  5770 net.cpp:408] pool3 -> pool3_mask
I0615 11:13:48.228705  5770 net.cpp:150] Setting up pool3
I0615 11:13:48.228786  5770 net.cpp:157] Top shape: 5 256 45 60 (3456000)
I0615 11:13:48.228866  5770 net.cpp:157] Top shape: 5 256 45 60 (3456000)
I0615 11:13:48.228950  5770 net.cpp:165] Memory required for data: 2733696000
I0615 11:13:48.229034  5770 layer_factory.hpp:77] Creating layer conv4_1
I0615 11:13:48.229121  5770 net.cpp:100] Creating Layer conv4_1
I0615 11:13:48.229198  5770 net.cpp:434] conv4_1 <- pool3
I0615 11:13:48.229280  5770 net.cpp:408] conv4_1 -> conv4_1
I0615 11:13:48.259023  5770 net.cpp:150] Setting up conv4_1
I0615 11:13:48.259050  5770 net.cpp:157] Top shape: 5 512 45 60 (6912000)
I0615 11:13:48.259053  5770 net.cpp:165] Memory required for data: 2761344000
I0615 11:13:48.259063  5770 layer_factory.hpp:77] Creating layer conv4_1_bn
I0615 11:13:48.259224  5770 net.cpp:100] Creating Layer conv4_1_bn
I0615 11:13:48.259233  5770 net.cpp:434] conv4_1_bn <- conv4_1
I0615 11:13:48.259240  5770 net.cpp:395] conv4_1_bn -> conv4_1 (in-place)
I0615 11:13:48.259634  5770 net.cpp:150] Setting up conv4_1_bn
I0615 11:13:48.259644  5770 net.cpp:157] Top shape: 5 512 45 60 (6912000)
I0615 11:13:48.259685  5770 net.cpp:165] Memory required for data: 2788992000
I0615 11:13:48.259693  5770 layer_factory.hpp:77] Creating layer relu4_1
I0615 11:13:48.259781  5770 net.cpp:100] Creating Layer relu4_1
I0615 11:13:48.259788  5770 net.cpp:434] relu4_1 <- conv4_1
I0615 11:13:48.259793  5770 net.cpp:395] relu4_1 -> conv4_1 (in-place)
I0615 11:13:48.260040  5770 net.cpp:150] Setting up relu4_1
I0615 11:13:48.260047  5770 net.cpp:157] Top shape: 5 512 45 60 (6912000)
I0615 11:13:48.260104  5770 net.cpp:165] Memory required for data: 2816640000
I0615 11:13:48.260110  5770 layer_factory.hpp:77] Creating layer conv4_2
I0615 11:13:48.260171  5770 net.cpp:100] Creating Layer conv4_2
I0615 11:13:48.260176  5770 net.cpp:434] conv4_2 <- conv4_1
I0615 11:13:48.260213  5770 net.cpp:408] conv4_2 -> conv4_2
I0615 11:13:48.310467  5770 net.cpp:150] Setting up conv4_2
I0615 11:13:48.310484  5770 net.cpp:157] Top shape: 5 512 45 60 (6912000)
I0615 11:13:48.310487  5770 net.cpp:165] Memory required for data: 2844288000
I0615 11:13:48.310503  5770 layer_factory.hpp:77] Creating layer conv4_2_bn
I0615 11:13:48.310510  5770 net.cpp:100] Creating Layer conv4_2_bn
I0615 11:13:48.310516  5770 net.cpp:434] conv4_2_bn <- conv4_2
I0615 11:13:48.310523  5770 net.cpp:395] conv4_2_bn -> conv4_2 (in-place)
I0615 11:13:48.310832  5770 net.cpp:150] Setting up conv4_2_bn
I0615 11:13:48.310837  5770 net.cpp:157] Top shape: 5 512 45 60 (6912000)
I0615 11:13:48.310840  5770 net.cpp:165] Memory required for data: 2871936000
I0615 11:13:48.310847  5770 layer_factory.hpp:77] Creating layer relu4_2
I0615 11:13:48.310853  5770 net.cpp:100] Creating Layer relu4_2
I0615 11:13:48.310856  5770 net.cpp:434] relu4_2 <- conv4_2
I0615 11:13:48.310863  5770 net.cpp:395] relu4_2 -> conv4_2 (in-place)
I0615 11:13:48.311038  5770 net.cpp:150] Setting up relu4_2
I0615 11:13:48.311043  5770 net.cpp:157] Top shape: 5 512 45 60 (6912000)
I0615 11:13:48.311045  5770 net.cpp:165] Memory required for data: 2899584000
I0615 11:13:48.311049  5770 layer_factory.hpp:77] Creating layer conv4_3
I0615 11:13:48.311058  5770 net.cpp:100] Creating Layer conv4_3
I0615 11:13:48.311062  5770 net.cpp:434] conv4_3 <- conv4_2
I0615 11:13:48.311069  5770 net.cpp:408] conv4_3 -> conv4_3
I0615 11:13:48.353736  5770 net.cpp:150] Setting up conv4_3
I0615 11:13:48.353765  5770 net.cpp:157] Top shape: 5 512 45 60 (6912000)
I0615 11:13:48.353767  5770 net.cpp:165] Memory required for data: 2927232000
I0615 11:13:48.353776  5770 layer_factory.hpp:77] Creating layer conv4_3_bn
I0615 11:13:48.353790  5770 net.cpp:100] Creating Layer conv4_3_bn
I0615 11:13:48.353796  5770 net.cpp:434] conv4_3_bn <- conv4_3
I0615 11:13:48.353801  5770 net.cpp:395] conv4_3_bn -> conv4_3 (in-place)
I0615 11:13:48.354131  5770 net.cpp:150] Setting up conv4_3_bn
I0615 11:13:48.354138  5770 net.cpp:157] Top shape: 5 512 45 60 (6912000)
I0615 11:13:48.354141  5770 net.cpp:165] Memory required for data: 2954880000
I0615 11:13:48.354146  5770 layer_factory.hpp:77] Creating layer relu4_3
I0615 11:13:48.354162  5770 net.cpp:100] Creating Layer relu4_3
I0615 11:13:48.354172  5770 net.cpp:434] relu4_3 <- conv4_3
I0615 11:13:48.354182  5770 net.cpp:395] relu4_3 -> conv4_3 (in-place)
I0615 11:13:48.354629  5770 net.cpp:150] Setting up relu4_3
I0615 11:13:48.354640  5770 net.cpp:157] Top shape: 5 512 45 60 (6912000)
I0615 11:13:48.354642  5770 net.cpp:165] Memory required for data: 2982528000
I0615 11:13:48.354645  5770 layer_factory.hpp:77] Creating layer pool4
I0615 11:13:48.354666  5770 layer_factory.cpp:91] cuDNN does not support multiple tops. Using Caffe's own pooling layer.
I0615 11:13:48.354677  5770 net.cpp:100] Creating Layer pool4
I0615 11:13:48.354686  5770 net.cpp:434] pool4 <- conv4_3
I0615 11:13:48.354696  5770 net.cpp:408] pool4 -> pool4
I0615 11:13:48.354710  5770 net.cpp:408] pool4 -> pool4_mask
I0615 11:13:48.354779  5770 net.cpp:150] Setting up pool4
I0615 11:13:48.354792  5770 net.cpp:157] Top shape: 5 512 23 30 (1766400)
I0615 11:13:48.354802  5770 net.cpp:157] Top shape: 5 512 23 30 (1766400)
I0615 11:13:48.354810  5770 net.cpp:165] Memory required for data: 2996659200
I0615 11:13:48.354818  5770 layer_factory.hpp:77] Creating layer conv5_1
I0615 11:13:48.354832  5770 net.cpp:100] Creating Layer conv5_1
I0615 11:13:48.354841  5770 net.cpp:434] conv5_1 <- pool4
I0615 11:13:48.354854  5770 net.cpp:408] conv5_1 -> conv5_1
I0615 11:13:48.403328  5770 net.cpp:150] Setting up conv5_1
I0615 11:13:48.403370  5770 net.cpp:157] Top shape: 5 512 23 30 (1766400)
I0615 11:13:48.403379  5770 net.cpp:165] Memory required for data: 3003724800
I0615 11:13:48.403393  5770 layer_factory.hpp:77] Creating layer conv5_1_bn
I0615 11:13:48.403410  5770 net.cpp:100] Creating Layer conv5_1_bn
I0615 11:13:48.403421  5770 net.cpp:434] conv5_1_bn <- conv5_1
I0615 11:13:48.403434  5770 net.cpp:395] conv5_1_bn -> conv5_1 (in-place)
I0615 11:13:48.403761  5770 net.cpp:150] Setting up conv5_1_bn
I0615 11:13:48.403777  5770 net.cpp:157] Top shape: 5 512 23 30 (1766400)
I0615 11:13:48.403787  5770 net.cpp:165] Memory required for data: 3010790400
I0615 11:13:48.403798  5770 layer_factory.hpp:77] Creating layer relu5_1
I0615 11:13:48.403811  5770 net.cpp:100] Creating Layer relu5_1
I0615 11:13:48.403821  5770 net.cpp:434] relu5_1 <- conv5_1
I0615 11:13:48.403831  5770 net.cpp:395] relu5_1 -> conv5_1 (in-place)
I0615 11:13:48.404007  5770 net.cpp:150] Setting up relu5_1
I0615 11:13:48.404021  5770 net.cpp:157] Top shape: 5 512 23 30 (1766400)
I0615 11:13:48.404031  5770 net.cpp:165] Memory required for data: 3017856000
I0615 11:13:48.404040  5770 layer_factory.hpp:77] Creating layer conv5_2
I0615 11:13:48.404057  5770 net.cpp:100] Creating Layer conv5_2
I0615 11:13:48.404067  5770 net.cpp:434] conv5_2 <- conv5_1
I0615 11:13:48.404078  5770 net.cpp:408] conv5_2 -> conv5_2
I0615 11:13:48.448230  5770 net.cpp:150] Setting up conv5_2
I0615 11:13:48.448246  5770 net.cpp:157] Top shape: 5 512 23 30 (1766400)
I0615 11:13:48.448248  5770 net.cpp:165] Memory required for data: 3024921600
I0615 11:13:48.448256  5770 layer_factory.hpp:77] Creating layer conv5_2_bn
I0615 11:13:48.448266  5770 net.cpp:100] Creating Layer conv5_2_bn
I0615 11:13:48.448276  5770 net.cpp:434] conv5_2_bn <- conv5_2
I0615 11:13:48.448285  5770 net.cpp:395] conv5_2_bn -> conv5_2 (in-place)
I0615 11:13:48.448519  5770 net.cpp:150] Setting up conv5_2_bn
I0615 11:13:48.448524  5770 net.cpp:157] Top shape: 5 512 23 30 (1766400)
I0615 11:13:48.448527  5770 net.cpp:165] Memory required for data: 3031987200
I0615 11:13:48.448532  5770 layer_factory.hpp:77] Creating layer relu5_2
I0615 11:13:48.448540  5770 net.cpp:100] Creating Layer relu5_2
I0615 11:13:48.448544  5770 net.cpp:434] relu5_2 <- conv5_2
I0615 11:13:48.448549  5770 net.cpp:395] relu5_2 -> conv5_2 (in-place)
I0615 11:13:48.448676  5770 net.cpp:150] Setting up relu5_2
I0615 11:13:48.448683  5770 net.cpp:157] Top shape: 5 512 23 30 (1766400)
I0615 11:13:48.448685  5770 net.cpp:165] Memory required for data: 3039052800
I0615 11:13:48.448689  5770 layer_factory.hpp:77] Creating layer conv5_3
I0615 11:13:48.448698  5770 net.cpp:100] Creating Layer conv5_3
I0615 11:13:48.448700  5770 net.cpp:434] conv5_3 <- conv5_2
I0615 11:13:48.448706  5770 net.cpp:408] conv5_3 -> conv5_3
I0615 11:13:48.489821  5770 net.cpp:150] Setting up conv5_3
I0615 11:13:48.489837  5770 net.cpp:157] Top shape: 5 512 23 30 (1766400)
I0615 11:13:48.489841  5770 net.cpp:165] Memory required for data: 3046118400
I0615 11:13:48.489850  5770 layer_factory.hpp:77] Creating layer conv5_3_bn
I0615 11:13:48.489874  5770 net.cpp:100] Creating Layer conv5_3_bn
I0615 11:13:48.489881  5770 net.cpp:434] conv5_3_bn <- conv5_3
I0615 11:13:48.489889  5770 net.cpp:395] conv5_3_bn -> conv5_3 (in-place)
I0615 11:13:48.490125  5770 net.cpp:150] Setting up conv5_3_bn
I0615 11:13:48.490131  5770 net.cpp:157] Top shape: 5 512 23 30 (1766400)
I0615 11:13:48.490134  5770 net.cpp:165] Memory required for data: 3053184000
I0615 11:13:48.490139  5770 layer_factory.hpp:77] Creating layer relu5_3
I0615 11:13:48.490146  5770 net.cpp:100] Creating Layer relu5_3
I0615 11:13:48.490149  5770 net.cpp:434] relu5_3 <- conv5_3
I0615 11:13:48.490154  5770 net.cpp:395] relu5_3 -> conv5_3 (in-place)
I0615 11:13:48.490548  5770 net.cpp:150] Setting up relu5_3
I0615 11:13:48.490556  5770 net.cpp:157] Top shape: 5 512 23 30 (1766400)
I0615 11:13:48.490558  5770 net.cpp:165] Memory required for data: 3060249600
I0615 11:13:48.490561  5770 layer_factory.hpp:77] Creating layer pool5
I0615 11:13:48.490566  5770 layer_factory.cpp:91] cuDNN does not support multiple tops. Using Caffe's own pooling layer.
I0615 11:13:48.490571  5770 net.cpp:100] Creating Layer pool5
I0615 11:13:48.490574  5770 net.cpp:434] pool5 <- conv5_3
I0615 11:13:48.490581  5770 net.cpp:408] pool5 -> pool5
I0615 11:13:48.490586  5770 net.cpp:408] pool5 -> pool5_mask
I0615 11:13:48.490635  5770 net.cpp:150] Setting up pool5
I0615 11:13:48.490640  5770 net.cpp:157] Top shape: 5 512 12 15 (460800)
I0615 11:13:48.490644  5770 net.cpp:157] Top shape: 5 512 12 15 (460800)
I0615 11:13:48.490646  5770 net.cpp:165] Memory required for data: 3063936000
I0615 11:13:48.490649  5770 layer_factory.hpp:77] Creating layer upsample5
I0615 11:13:48.490658  5770 net.cpp:100] Creating Layer upsample5
I0615 11:13:48.490661  5770 net.cpp:434] upsample5 <- pool5
I0615 11:13:48.490664  5770 net.cpp:434] upsample5 <- pool5_mask
I0615 11:13:48.490669  5770 net.cpp:408] upsample5 -> pool5_D
I0615 11:13:48.490696  5770 net.cpp:150] Setting up upsample5
I0615 11:13:48.490700  5770 net.cpp:157] Top shape: 5 512 23 30 (1766400)
I0615 11:13:48.490703  5770 net.cpp:165] Memory required for data: 3071001600
I0615 11:13:48.490715  5770 layer_factory.hpp:77] Creating layer conv5_3_D
I0615 11:13:48.490722  5770 net.cpp:100] Creating Layer conv5_3_D
I0615 11:13:48.490726  5770 net.cpp:434] conv5_3_D <- pool5_D
I0615 11:13:48.490731  5770 net.cpp:408] conv5_3_D -> conv5_3_D
I0615 11:13:48.534682  5770 net.cpp:150] Setting up conv5_3_D
I0615 11:13:48.534701  5770 net.cpp:157] Top shape: 5 512 23 30 (1766400)
I0615 11:13:48.534704  5770 net.cpp:165] Memory required for data: 3078067200
I0615 11:13:48.534711  5770 layer_factory.hpp:77] Creating layer conv5_3_D_bn
I0615 11:13:48.534719  5770 net.cpp:100] Creating Layer conv5_3_D_bn
I0615 11:13:48.534725  5770 net.cpp:434] conv5_3_D_bn <- conv5_3_D
I0615 11:13:48.534735  5770 net.cpp:395] conv5_3_D_bn -> conv5_3_D (in-place)
I0615 11:13:48.535089  5770 net.cpp:150] Setting up conv5_3_D_bn
I0615 11:13:48.535102  5770 net.cpp:157] Top shape: 5 512 23 30 (1766400)
I0615 11:13:48.535105  5770 net.cpp:165] Memory required for data: 3085132800
I0615 11:13:48.535111  5770 layer_factory.hpp:77] Creating layer relu5_3_D
I0615 11:13:48.535120  5770 net.cpp:100] Creating Layer relu5_3_D
I0615 11:13:48.535123  5770 net.cpp:434] relu5_3_D <- conv5_3_D
I0615 11:13:48.535130  5770 net.cpp:395] relu5_3_D -> conv5_3_D (in-place)
I0615 11:13:48.535295  5770 net.cpp:150] Setting up relu5_3_D
I0615 11:13:48.535301  5770 net.cpp:157] Top shape: 5 512 23 30 (1766400)
I0615 11:13:48.535305  5770 net.cpp:165] Memory required for data: 3092198400
I0615 11:13:48.535307  5770 layer_factory.hpp:77] Creating layer conv5_2_D
I0615 11:13:48.535321  5770 net.cpp:100] Creating Layer conv5_2_D
I0615 11:13:48.535326  5770 net.cpp:434] conv5_2_D <- conv5_3_D
I0615 11:13:48.535331  5770 net.cpp:408] conv5_2_D -> conv5_2_D
I0615 11:13:48.582204  5770 net.cpp:150] Setting up conv5_2_D
I0615 11:13:48.582221  5770 net.cpp:157] Top shape: 5 512 23 30 (1766400)
I0615 11:13:48.582223  5770 net.cpp:165] Memory required for data: 3099264000
I0615 11:13:48.582244  5770 layer_factory.hpp:77] Creating layer conv5_2_D_bn
I0615 11:13:48.582254  5770 net.cpp:100] Creating Layer conv5_2_D_bn
I0615 11:13:48.582259  5770 net.cpp:434] conv5_2_D_bn <- conv5_2_D
I0615 11:13:48.582267  5770 net.cpp:395] conv5_2_D_bn -> conv5_2_D (in-place)
I0615 11:13:48.582533  5770 net.cpp:150] Setting up conv5_2_D_bn
I0615 11:13:48.582541  5770 net.cpp:157] Top shape: 5 512 23 30 (1766400)
I0615 11:13:48.582545  5770 net.cpp:165] Memory required for data: 3106329600
I0615 11:13:48.582550  5770 layer_factory.hpp:77] Creating layer relu5_2_D
I0615 11:13:48.582556  5770 net.cpp:100] Creating Layer relu5_2_D
I0615 11:13:48.582559  5770 net.cpp:434] relu5_2_D <- conv5_2_D
I0615 11:13:48.582564  5770 net.cpp:395] relu5_2_D -> conv5_2_D (in-place)
I0615 11:13:48.582708  5770 net.cpp:150] Setting up relu5_2_D
I0615 11:13:48.582715  5770 net.cpp:157] Top shape: 5 512 23 30 (1766400)
I0615 11:13:48.582716  5770 net.cpp:165] Memory required for data: 3113395200
I0615 11:13:48.582718  5770 layer_factory.hpp:77] Creating layer conv5_1_D
I0615 11:13:48.582723  5770 net.cpp:100] Creating Layer conv5_1_D
I0615 11:13:48.582726  5770 net.cpp:434] conv5_1_D <- conv5_2_D
I0615 11:13:48.582731  5770 net.cpp:408] conv5_1_D -> conv5_1_D
I0615 11:13:48.644737  5770 net.cpp:150] Setting up conv5_1_D
I0615 11:13:48.644757  5770 net.cpp:157] Top shape: 5 512 23 30 (1766400)
I0615 11:13:48.644762  5770 net.cpp:165] Memory required for data: 3120460800
I0615 11:13:48.644769  5770 layer_factory.hpp:77] Creating layer conv5_1_D_bn
I0615 11:13:48.644778  5770 net.cpp:100] Creating Layer conv5_1_D_bn
I0615 11:13:48.644784  5770 net.cpp:434] conv5_1_D_bn <- conv5_1_D
I0615 11:13:48.644791  5770 net.cpp:395] conv5_1_D_bn -> conv5_1_D (in-place)
I0615 11:13:48.645118  5770 net.cpp:150] Setting up conv5_1_D_bn
I0615 11:13:48.645124  5770 net.cpp:157] Top shape: 5 512 23 30 (1766400)
I0615 11:13:48.645128  5770 net.cpp:165] Memory required for data: 3127526400
I0615 11:13:48.645133  5770 layer_factory.hpp:77] Creating layer relu5_1_D
I0615 11:13:48.645138  5770 net.cpp:100] Creating Layer relu5_1_D
I0615 11:13:48.645140  5770 net.cpp:434] relu5_1_D <- conv5_1_D
I0615 11:13:48.645145  5770 net.cpp:395] relu5_1_D -> conv5_1_D (in-place)
I0615 11:13:48.645670  5770 net.cpp:150] Setting up relu5_1_D
I0615 11:13:48.645679  5770 net.cpp:157] Top shape: 5 512 23 30 (1766400)
I0615 11:13:48.645684  5770 net.cpp:165] Memory required for data: 3134592000
I0615 11:13:48.645686  5770 layer_factory.hpp:77] Creating layer upsample4
I0615 11:13:48.645692  5770 net.cpp:100] Creating Layer upsample4
I0615 11:13:48.645696  5770 net.cpp:434] upsample4 <- conv5_1_D
I0615 11:13:48.645700  5770 net.cpp:434] upsample4 <- pool4_mask
I0615 11:13:48.645705  5770 net.cpp:408] upsample4 -> pool4_D
I0615 11:13:48.645743  5770 net.cpp:150] Setting up upsample4
I0615 11:13:48.645748  5770 net.cpp:157] Top shape: 5 512 45 60 (6912000)
I0615 11:13:48.645751  5770 net.cpp:165] Memory required for data: 3162240000
I0615 11:13:48.645753  5770 layer_factory.hpp:77] Creating layer conv4_3_D
I0615 11:13:48.645762  5770 net.cpp:100] Creating Layer conv4_3_D
I0615 11:13:48.645766  5770 net.cpp:434] conv4_3_D <- pool4_D
I0615 11:13:48.645771  5770 net.cpp:408] conv4_3_D -> conv4_3_D
I0615 11:13:48.705880  5770 net.cpp:150] Setting up conv4_3_D
I0615 11:13:48.705901  5770 net.cpp:157] Top shape: 5 512 45 60 (6912000)
I0615 11:13:48.705905  5770 net.cpp:165] Memory required for data: 3189888000
I0615 11:13:48.705924  5770 layer_factory.hpp:77] Creating layer conv4_3_D_bn
I0615 11:13:48.705932  5770 net.cpp:100] Creating Layer conv4_3_D_bn
I0615 11:13:48.705938  5770 net.cpp:434] conv4_3_D_bn <- conv4_3_D
I0615 11:13:48.705945  5770 net.cpp:395] conv4_3_D_bn -> conv4_3_D (in-place)
I0615 11:13:48.706293  5770 net.cpp:150] Setting up conv4_3_D_bn
I0615 11:13:48.706300  5770 net.cpp:157] Top shape: 5 512 45 60 (6912000)
I0615 11:13:48.706302  5770 net.cpp:165] Memory required for data: 3217536000
I0615 11:13:48.706307  5770 layer_factory.hpp:77] Creating layer relu4_3_D
I0615 11:13:48.706322  5770 net.cpp:100] Creating Layer relu4_3_D
I0615 11:13:48.706326  5770 net.cpp:434] relu4_3_D <- conv4_3_D
I0615 11:13:48.706331  5770 net.cpp:395] relu4_3_D -> conv4_3_D (in-place)
I0615 11:13:48.706502  5770 net.cpp:150] Setting up relu4_3_D
I0615 11:13:48.706509  5770 net.cpp:157] Top shape: 5 512 45 60 (6912000)
I0615 11:13:48.706512  5770 net.cpp:165] Memory required for data: 3245184000
I0615 11:13:48.706516  5770 layer_factory.hpp:77] Creating layer conv4_2_D
I0615 11:13:48.706527  5770 net.cpp:100] Creating Layer conv4_2_D
I0615 11:13:48.706532  5770 net.cpp:434] conv4_2_D <- conv4_3_D
I0615 11:13:48.706537  5770 net.cpp:408] conv4_2_D -> conv4_2_D
I0615 11:13:48.753051  5770 net.cpp:150] Setting up conv4_2_D
I0615 11:13:48.753067  5770 net.cpp:157] Top shape: 5 512 45 60 (6912000)
I0615 11:13:48.753068  5770 net.cpp:165] Memory required for data: 3272832000
I0615 11:13:48.753075  5770 layer_factory.hpp:77] Creating layer conv4_2_D_bn
I0615 11:13:48.753084  5770 net.cpp:100] Creating Layer conv4_2_D_bn
I0615 11:13:48.753089  5770 net.cpp:434] conv4_2_D_bn <- conv4_2_D
I0615 11:13:48.753094  5770 net.cpp:395] conv4_2_D_bn -> conv4_2_D (in-place)
I0615 11:13:48.753345  5770 net.cpp:150] Setting up conv4_2_D_bn
I0615 11:13:48.753350  5770 net.cpp:157] Top shape: 5 512 45 60 (6912000)
I0615 11:13:48.753351  5770 net.cpp:165] Memory required for data: 3300480000
I0615 11:13:48.753355  5770 layer_factory.hpp:77] Creating layer relu4_2_D
I0615 11:13:48.753357  5770 net.cpp:100] Creating Layer relu4_2_D
I0615 11:13:48.753360  5770 net.cpp:434] relu4_2_D <- conv4_2_D
I0615 11:13:48.753363  5770 net.cpp:395] relu4_2_D -> conv4_2_D (in-place)
I0615 11:13:48.753487  5770 net.cpp:150] Setting up relu4_2_D
I0615 11:13:48.753494  5770 net.cpp:157] Top shape: 5 512 45 60 (6912000)
I0615 11:13:48.753496  5770 net.cpp:165] Memory required for data: 3328128000
I0615 11:13:48.753499  5770 layer_factory.hpp:77] Creating layer conv4_1_D
I0615 11:13:48.753506  5770 net.cpp:100] Creating Layer conv4_1_D
I0615 11:13:48.753509  5770 net.cpp:434] conv4_1_D <- conv4_2_D
I0615 11:13:48.753516  5770 net.cpp:408] conv4_1_D -> conv4_1_D
I0615 11:13:48.775286  5770 net.cpp:150] Setting up conv4_1_D
I0615 11:13:48.775300  5770 net.cpp:157] Top shape: 5 256 45 60 (3456000)
I0615 11:13:48.775303  5770 net.cpp:165] Memory required for data: 3341952000
I0615 11:13:48.775311  5770 layer_factory.hpp:77] Creating layer conv4_1_D_bn
I0615 11:13:48.775319  5770 net.cpp:100] Creating Layer conv4_1_D_bn
I0615 11:13:48.775323  5770 net.cpp:434] conv4_1_D_bn <- conv4_1_D
I0615 11:13:48.775331  5770 net.cpp:395] conv4_1_D_bn -> conv4_1_D (in-place)
I0615 11:13:48.775614  5770 net.cpp:150] Setting up conv4_1_D_bn
I0615 11:13:48.775619  5770 net.cpp:157] Top shape: 5 256 45 60 (3456000)
I0615 11:13:48.775621  5770 net.cpp:165] Memory required for data: 3355776000
I0615 11:13:48.775626  5770 layer_factory.hpp:77] Creating layer relu4_1_D
I0615 11:13:48.775632  5770 net.cpp:100] Creating Layer relu4_1_D
I0615 11:13:48.775635  5770 net.cpp:434] relu4_1_D <- conv4_1_D
I0615 11:13:48.775638  5770 net.cpp:395] relu4_1_D -> conv4_1_D (in-place)
I0615 11:13:48.775768  5770 net.cpp:150] Setting up relu4_1_D
I0615 11:13:48.775773  5770 net.cpp:157] Top shape: 5 256 45 60 (3456000)
I0615 11:13:48.775775  5770 net.cpp:165] Memory required for data: 3369600000
I0615 11:13:48.775779  5770 layer_factory.hpp:77] Creating layer upsample3
I0615 11:13:48.775784  5770 net.cpp:100] Creating Layer upsample3
I0615 11:13:48.775787  5770 net.cpp:434] upsample3 <- conv4_1_D
I0615 11:13:48.775790  5770 net.cpp:434] upsample3 <- pool3_mask
I0615 11:13:48.775796  5770 net.cpp:408] upsample3 -> pool3_D
I0615 11:13:48.775801  5770 upsample_layer.cpp:27] Params 'pad_out_{}_' are deprecated. Please declare upsample height and width useing the upsample_h, upsample_w parameters.
I0615 11:13:48.775830  5770 net.cpp:150] Setting up upsample3
I0615 11:13:48.775833  5770 net.cpp:157] Top shape: 5 256 90 120 (13824000)
I0615 11:13:48.775835  5770 net.cpp:165] Memory required for data: 3424896000
I0615 11:13:48.775847  5770 layer_factory.hpp:77] Creating layer conv3_3_D
I0615 11:13:48.775854  5770 net.cpp:100] Creating Layer conv3_3_D
I0615 11:13:48.775857  5770 net.cpp:434] conv3_3_D <- pool3_D
I0615 11:13:48.775862  5770 net.cpp:408] conv3_3_D -> conv3_3_D
I0615 11:13:48.787225  5770 net.cpp:150] Setting up conv3_3_D
I0615 11:13:48.787235  5770 net.cpp:157] Top shape: 5 256 90 120 (13824000)
I0615 11:13:48.787237  5770 net.cpp:165] Memory required for data: 3480192000
I0615 11:13:48.787245  5770 layer_factory.hpp:77] Creating layer conv3_3_D_bn
I0615 11:13:48.787252  5770 net.cpp:100] Creating Layer conv3_3_D_bn
I0615 11:13:48.787256  5770 net.cpp:434] conv3_3_D_bn <- conv3_3_D
I0615 11:13:48.787261  5770 net.cpp:395] conv3_3_D_bn -> conv3_3_D (in-place)
I0615 11:13:48.787521  5770 net.cpp:150] Setting up conv3_3_D_bn
I0615 11:13:48.787525  5770 net.cpp:157] Top shape: 5 256 90 120 (13824000)
I0615 11:13:48.787528  5770 net.cpp:165] Memory required for data: 3535488000
I0615 11:13:48.787530  5770 layer_factory.hpp:77] Creating layer relu3_3_D
I0615 11:13:48.787533  5770 net.cpp:100] Creating Layer relu3_3_D
I0615 11:13:48.787536  5770 net.cpp:434] relu3_3_D <- conv3_3_D
I0615 11:13:48.787539  5770 net.cpp:395] relu3_3_D -> conv3_3_D (in-place)
I0615 11:13:48.787926  5770 net.cpp:150] Setting up relu3_3_D
I0615 11:13:48.787933  5770 net.cpp:157] Top shape: 5 256 90 120 (13824000)
I0615 11:13:48.787935  5770 net.cpp:165] Memory required for data: 3590784000
I0615 11:13:48.787937  5770 layer_factory.hpp:77] Creating layer conv3_2_D
I0615 11:13:48.787943  5770 net.cpp:100] Creating Layer conv3_2_D
I0615 11:13:48.787946  5770 net.cpp:434] conv3_2_D <- conv3_3_D
I0615 11:13:48.787950  5770 net.cpp:408] conv3_2_D -> conv3_2_D
I0615 11:13:48.799331  5770 net.cpp:150] Setting up conv3_2_D
I0615 11:13:48.799342  5770 net.cpp:157] Top shape: 5 256 90 120 (13824000)
I0615 11:13:48.799345  5770 net.cpp:165] Memory required for data: 3646080000
I0615 11:13:48.799352  5770 layer_factory.hpp:77] Creating layer conv3_2_D_bn
I0615 11:13:48.799360  5770 net.cpp:100] Creating Layer conv3_2_D_bn
I0615 11:13:48.799363  5770 net.cpp:434] conv3_2_D_bn <- conv3_2_D
I0615 11:13:48.799369  5770 net.cpp:395] conv3_2_D_bn -> conv3_2_D (in-place)
I0615 11:13:48.799646  5770 net.cpp:150] Setting up conv3_2_D_bn
I0615 11:13:48.799654  5770 net.cpp:157] Top shape: 5 256 90 120 (13824000)
I0615 11:13:48.799655  5770 net.cpp:165] Memory required for data: 3701376000
I0615 11:13:48.799661  5770 layer_factory.hpp:77] Creating layer relu3_2_D
I0615 11:13:48.799677  5770 net.cpp:100] Creating Layer relu3_2_D
I0615 11:13:48.799681  5770 net.cpp:434] relu3_2_D <- conv3_2_D
I0615 11:13:48.799685  5770 net.cpp:395] relu3_2_D -> conv3_2_D (in-place)
I0615 11:13:48.799819  5770 net.cpp:150] Setting up relu3_2_D
I0615 11:13:48.799825  5770 net.cpp:157] Top shape: 5 256 90 120 (13824000)
I0615 11:13:48.799829  5770 net.cpp:165] Memory required for data: 3756672000
I0615 11:13:48.799831  5770 layer_factory.hpp:77] Creating layer conv3_1_D
I0615 11:13:48.799839  5770 net.cpp:100] Creating Layer conv3_1_D
I0615 11:13:48.799841  5770 net.cpp:434] conv3_1_D <- conv3_2_D
I0615 11:13:48.799847  5770 net.cpp:408] conv3_1_D -> conv3_1_D
I0615 11:13:48.806447  5770 net.cpp:150] Setting up conv3_1_D
I0615 11:13:48.806455  5770 net.cpp:157] Top shape: 5 128 90 120 (6912000)
I0615 11:13:48.806459  5770 net.cpp:165] Memory required for data: 3784320000
I0615 11:13:48.806465  5770 layer_factory.hpp:77] Creating layer conv3_1_D_bn
I0615 11:13:48.806473  5770 net.cpp:100] Creating Layer conv3_1_D_bn
I0615 11:13:48.806476  5770 net.cpp:434] conv3_1_D_bn <- conv3_1_D
I0615 11:13:48.806483  5770 net.cpp:395] conv3_1_D_bn -> conv3_1_D (in-place)
I0615 11:13:48.806744  5770 net.cpp:150] Setting up conv3_1_D_bn
I0615 11:13:48.806749  5770 net.cpp:157] Top shape: 5 128 90 120 (6912000)
I0615 11:13:48.806752  5770 net.cpp:165] Memory required for data: 3811968000
I0615 11:13:48.806757  5770 layer_factory.hpp:77] Creating layer relu3_1_D
I0615 11:13:48.806771  5770 net.cpp:100] Creating Layer relu3_1_D
I0615 11:13:48.806787  5770 net.cpp:434] relu3_1_D <- conv3_1_D
I0615 11:13:48.806792  5770 net.cpp:395] relu3_1_D -> conv3_1_D (in-place)
I0615 11:13:48.806922  5770 net.cpp:150] Setting up relu3_1_D
I0615 11:13:48.806928  5770 net.cpp:157] Top shape: 5 128 90 120 (6912000)
I0615 11:13:48.806931  5770 net.cpp:165] Memory required for data: 3839616000
I0615 11:13:48.806933  5770 layer_factory.hpp:77] Creating layer upsample2
I0615 11:13:48.806939  5770 net.cpp:100] Creating Layer upsample2
I0615 11:13:48.806942  5770 net.cpp:434] upsample2 <- conv3_1_D
I0615 11:13:48.806946  5770 net.cpp:434] upsample2 <- pool2_mask
I0615 11:13:48.806951  5770 net.cpp:408] upsample2 -> pool2_D
I0615 11:13:48.806957  5770 upsample_layer.cpp:27] Params 'pad_out_{}_' are deprecated. Please declare upsample height and width useing the upsample_h, upsample_w parameters.
I0615 11:13:48.806985  5770 net.cpp:150] Setting up upsample2
I0615 11:13:48.806990  5770 net.cpp:157] Top shape: 5 128 180 240 (27648000)
I0615 11:13:48.806994  5770 net.cpp:165] Memory required for data: 3950208000
I0615 11:13:48.806998  5770 layer_factory.hpp:77] Creating layer conv2_2_D
I0615 11:13:48.807003  5770 net.cpp:100] Creating Layer conv2_2_D
I0615 11:13:48.807006  5770 net.cpp:434] conv2_2_D <- pool2_D
I0615 11:13:48.807013  5770 net.cpp:408] conv2_2_D -> conv2_2_D
I0615 11:13:48.810566  5770 net.cpp:150] Setting up conv2_2_D
I0615 11:13:48.810575  5770 net.cpp:157] Top shape: 5 128 180 240 (27648000)
I0615 11:13:48.810578  5770 net.cpp:165] Memory required for data: 4060800000
I0615 11:13:48.810585  5770 layer_factory.hpp:77] Creating layer conv2_2_D_bn
I0615 11:13:48.810591  5770 net.cpp:100] Creating Layer conv2_2_D_bn
I0615 11:13:48.810595  5770 net.cpp:434] conv2_2_D_bn <- conv2_2_D
I0615 11:13:48.810600  5770 net.cpp:395] conv2_2_D_bn -> conv2_2_D (in-place)
I0615 11:13:48.810889  5770 net.cpp:150] Setting up conv2_2_D_bn
I0615 11:13:48.810895  5770 net.cpp:157] Top shape: 5 128 180 240 (27648000)
I0615 11:13:48.810899  5770 net.cpp:165] Memory required for data: 4171392000
I0615 11:13:48.810904  5770 layer_factory.hpp:77] Creating layer relu2_2_D
I0615 11:13:48.810909  5770 net.cpp:100] Creating Layer relu2_2_D
I0615 11:13:48.810911  5770 net.cpp:434] relu2_2_D <- conv2_2_D
I0615 11:13:48.810916  5770 net.cpp:395] relu2_2_D -> conv2_2_D (in-place)
I0615 11:13:48.811300  5770 net.cpp:150] Setting up relu2_2_D
I0615 11:13:48.811308  5770 net.cpp:157] Top shape: 5 128 180 240 (27648000)
I0615 11:13:48.811311  5770 net.cpp:165] Memory required for data: 4281984000
I0615 11:13:48.811314  5770 layer_factory.hpp:77] Creating layer conv2_1_D
I0615 11:13:48.811321  5770 net.cpp:100] Creating Layer conv2_1_D
I0615 11:13:48.811324  5770 net.cpp:434] conv2_1_D <- conv2_2_D
I0615 11:13:48.811331  5770 net.cpp:408] conv2_1_D -> conv2_1_D
I0615 11:13:48.813720  5770 net.cpp:150] Setting up conv2_1_D
I0615 11:13:48.813729  5770 net.cpp:157] Top shape: 5 64 180 240 (13824000)
I0615 11:13:48.813731  5770 net.cpp:165] Memory required for data: 4337280000
I0615 11:13:48.813737  5770 layer_factory.hpp:77] Creating layer conv2_1_D_bn
I0615 11:13:48.813745  5770 net.cpp:100] Creating Layer conv2_1_D_bn
I0615 11:13:48.813748  5770 net.cpp:434] conv2_1_D_bn <- conv2_1_D
I0615 11:13:48.813753  5770 net.cpp:395] conv2_1_D_bn -> conv2_1_D (in-place)
I0615 11:13:48.814730  5770 net.cpp:150] Setting up conv2_1_D_bn
I0615 11:13:48.814738  5770 net.cpp:157] Top shape: 5 64 180 240 (13824000)
I0615 11:13:48.814741  5770 net.cpp:165] Memory required for data: 4392576000
I0615 11:13:48.814748  5770 layer_factory.hpp:77] Creating layer relu2_1_D
I0615 11:13:48.814752  5770 net.cpp:100] Creating Layer relu2_1_D
I0615 11:13:48.814756  5770 net.cpp:434] relu2_1_D <- conv2_1_D
I0615 11:13:48.814760  5770 net.cpp:395] relu2_1_D -> conv2_1_D (in-place)
I0615 11:13:48.814903  5770 net.cpp:150] Setting up relu2_1_D
I0615 11:13:48.814909  5770 net.cpp:157] Top shape: 5 64 180 240 (13824000)
I0615 11:13:48.814913  5770 net.cpp:165] Memory required for data: 4447872000
I0615 11:13:48.814923  5770 layer_factory.hpp:77] Creating layer upsample1
I0615 11:13:48.814927  5770 net.cpp:100] Creating Layer upsample1
I0615 11:13:48.814930  5770 net.cpp:434] upsample1 <- conv2_1_D
I0615 11:13:48.814934  5770 net.cpp:434] upsample1 <- pool1_mask
I0615 11:13:48.814940  5770 net.cpp:408] upsample1 -> pool1_D
I0615 11:13:48.814946  5770 upsample_layer.cpp:27] Params 'pad_out_{}_' are deprecated. Please declare upsample height and width useing the upsample_h, upsample_w parameters.
I0615 11:13:48.814976  5770 net.cpp:150] Setting up upsample1
I0615 11:13:48.814981  5770 net.cpp:157] Top shape: 5 64 360 480 (55296000)
I0615 11:13:48.814985  5770 net.cpp:165] Memory required for data: 4669056000
I0615 11:13:48.814996  5770 layer_factory.hpp:77] Creating layer conv1_2_D
I0615 11:13:48.815003  5770 net.cpp:100] Creating Layer conv1_2_D
I0615 11:13:48.815006  5770 net.cpp:434] conv1_2_D <- pool1_D
I0615 11:13:48.815012  5770 net.cpp:408] conv1_2_D -> conv1_2_D
I0615 11:13:48.819823  5770 net.cpp:150] Setting up conv1_2_D
I0615 11:13:48.819833  5770 net.cpp:157] Top shape: 5 64 360 480 (55296000)
I0615 11:13:48.819835  5770 net.cpp:165] Memory required for data: 4890240000
I0615 11:13:48.819841  5770 layer_factory.hpp:77] Creating layer conv1_2_D_bn
I0615 11:13:48.819849  5770 net.cpp:100] Creating Layer conv1_2_D_bn
I0615 11:13:48.819852  5770 net.cpp:434] conv1_2_D_bn <- conv1_2_D
I0615 11:13:48.819859  5770 net.cpp:395] conv1_2_D_bn -> conv1_2_D (in-place)
I0615 11:13:48.820194  5770 net.cpp:150] Setting up conv1_2_D_bn
I0615 11:13:48.820199  5770 net.cpp:157] Top shape: 5 64 360 480 (55296000)
I0615 11:13:48.820201  5770 net.cpp:165] Memory required for data: 5111424000
I0615 11:13:48.820206  5770 layer_factory.hpp:77] Creating layer relu1_2_D
I0615 11:13:48.820211  5770 net.cpp:100] Creating Layer relu1_2_D
I0615 11:13:48.820215  5770 net.cpp:434] relu1_2_D <- conv1_2_D
I0615 11:13:48.820219  5770 net.cpp:395] relu1_2_D -> conv1_2_D (in-place)
I0615 11:13:48.820356  5770 net.cpp:150] Setting up relu1_2_D
I0615 11:13:48.820363  5770 net.cpp:157] Top shape: 5 64 360 480 (55296000)
I0615 11:13:48.820365  5770 net.cpp:165] Memory required for data: 5332608000
I0615 11:13:48.820369  5770 layer_factory.hpp:77] Creating layer conv1_1_D
I0615 11:13:48.820375  5770 net.cpp:100] Creating Layer conv1_1_D
I0615 11:13:48.820379  5770 net.cpp:434] conv1_1_D <- conv1_2_D
I0615 11:13:48.820384  5770 net.cpp:408] conv1_1_D -> conv1_1_D
I0615 11:13:48.822090  5770 net.cpp:150] Setting up conv1_1_D
I0615 11:13:48.822099  5770 net.cpp:157] Top shape: 5 4 360 480 (3456000)
I0615 11:13:48.822103  5770 net.cpp:165] Memory required for data: 5346432000
I0615 11:13:48.822108  5770 layer_factory.hpp:77] Creating layer conv1_1_D_conv1_1_D_0_split
I0615 11:13:48.822113  5770 net.cpp:100] Creating Layer conv1_1_D_conv1_1_D_0_split
I0615 11:13:48.822118  5770 net.cpp:434] conv1_1_D_conv1_1_D_0_split <- conv1_1_D
I0615 11:13:48.822122  5770 net.cpp:408] conv1_1_D_conv1_1_D_0_split -> conv1_1_D_conv1_1_D_0_split_0
I0615 11:13:48.822129  5770 net.cpp:408] conv1_1_D_conv1_1_D_0_split -> conv1_1_D_conv1_1_D_0_split_1
I0615 11:13:48.822180  5770 net.cpp:150] Setting up conv1_1_D_conv1_1_D_0_split
I0615 11:13:48.822185  5770 net.cpp:157] Top shape: 5 4 360 480 (3456000)
I0615 11:13:48.822190  5770 net.cpp:157] Top shape: 5 4 360 480 (3456000)
I0615 11:13:48.822193  5770 net.cpp:165] Memory required for data: 5374080000
I0615 11:13:48.822196  5770 layer_factory.hpp:77] Creating layer loss
I0615 11:13:48.822202  5770 net.cpp:100] Creating Layer loss
I0615 11:13:48.822207  5770 net.cpp:434] loss <- conv1_1_D_conv1_1_D_0_split_0
I0615 11:13:48.822211  5770 net.cpp:434] loss <- label_dataRGB_1_split_0
I0615 11:13:48.822216  5770 net.cpp:408] loss -> loss
I0615 11:13:48.822229  5770 layer_factory.hpp:77] Creating layer loss
I0615 11:13:48.826851  5770 net.cpp:150] Setting up loss
I0615 11:13:48.826869  5770 net.cpp:157] Top shape: (1)
I0615 11:13:48.826870  5770 net.cpp:160]     with loss weight 1
I0615 11:13:48.826920  5770 net.cpp:165] Memory required for data: 5374080004
I0615 11:13:48.826925  5770 layer_factory.hpp:77] Creating layer accuracy
I0615 11:13:48.826933  5770 net.cpp:100] Creating Layer accuracy
I0615 11:13:48.826938  5770 net.cpp:434] accuracy <- conv1_1_D_conv1_1_D_0_split_1
I0615 11:13:48.826944  5770 net.cpp:434] accuracy <- label_dataRGB_1_split_1
I0615 11:13:48.826949  5770 net.cpp:408] accuracy -> accuracy
I0615 11:13:48.826956  5770 net.cpp:408] accuracy -> per_class_accuracy
I0615 11:13:48.827029  5770 net.cpp:150] Setting up accuracy
I0615 11:13:48.827034  5770 net.cpp:157] Top shape: (1)
I0615 11:13:48.827039  5770 net.cpp:157] Top shape: 4 (4)
I0615 11:13:48.827042  5770 net.cpp:165] Memory required for data: 5374080024
I0615 11:13:48.827045  5770 net.cpp:228] accuracy does not need backward computation.
I0615 11:13:48.827049  5770 net.cpp:226] loss needs backward computation.
I0615 11:13:48.827052  5770 net.cpp:226] conv1_1_D_conv1_1_D_0_split needs backward computation.
I0615 11:13:48.827055  5770 net.cpp:226] conv1_1_D needs backward computation.
…
