…
  dense_image_data_param {
    source: "/home/mpopovic/workspace/weedNet-devel/SegNet-Tutorial/train_and_test_data/rit-18/5m_10m_15m/trainir3.txt"
    batch_size: 5
    shuffle: false
    new_height: 360
    new_width: 480
    is_color: false
  }
}
layer {
  name: "dataRGB"
  type: "DenseImageData"
  top: "dataRGB"
  top: "label"
  dense_image_data_param {
    source: "/home/mpopovic/workspace/weedNet-devel/SegNet-Tutorial/train_and_test_data/rit-18/5m_10m_15m/train.txt"
    batch_size: 5
    shuffle: false
    new_height: 360
    new_width: 480
    is_color: true
  }
}
layer {
  name: "data"
  type: "Concat"
  bottom: "dataIR1"
  bottom: "dataIR2"
  bottom: "dataIR3"
  bottom: "dataRGB"
  top: "data"
  concat_param {
    axis: 1
  }
}
layer {
  name: "multiconv1_1"
  type: "Convolution"
  bottom: "data"
  top: "conv1_1"
  param {
    lr_mult: 1
    decay_mult: 1
  }
  param {
    lr_mult: 2
    decay_mult: 0
  }
  convolution_param {
    num_output: 64
    pad: 1
    kernel_size: 3
    weight_filler {
      type: "msra"
    }
    bias_filler {
      type: "constant"
    }
  }
}
layer {
  name: "conv1_1_bn"
  type: "BN"
  bottom: "conv1_1"
  top: "conv1_1"
  param {
    lr_mult: 1
    decay_mult: 1
  }
  param {
    lr_mult: 1
    decay_mult: 0
  }
  bn_param {
    scale_filler {
      type: "constant"
      value: 1
    }
    shift_filler {
      type: "constant"
      value: 0.001
    }
  }
}
layer {
  name: "relu1_1"
  type: "ReLU"
  bottom: "conv1_1"
  top: "conv1_1"
}
layer {
  name: "conv1_2"
  type: "Convolution"
  bottom: "conv1_1"
  top: "conv1_2"
  param {
    lr_mult: 1
    decay_mult: 1
  }
  param {
    lr_mult: 2
    decay_mult: 0
  }
  convolution_param {
    num_output: 64
    pad: 1
    kernel_size: 3
    weight_filler {
      type: "msra"
    }
    bias_filler {
      type: "constant"
    }
  }
}
layer {
  name: "conv1_2_bn"
  type: "BN"
  bottom: "conv1_2"
  top: "conv1_2"
  param {
    lr_mult: 1
    decay_mult: 1
  }
  param {
    lr_mult: 1
    decay_mult: 0
  }
  bn_param {
    scale_filler {
      type: "constant"
      value: 1
    }
    shift_filler {
      type: "constant"
      value: 0.001
    }
  }
}
layer {
  name: "relu1_2"
  type: "ReLU"
  bottom: "conv1_2"
  top: "conv1_2"
}
layer {
  name: "pool1"
  type: "Pooling"
  bottom: "conv1_2"
  top: "pool1"
  top: "pool1_mask"
  pooling_param {
    pool: MAX
    kernel_size: 2
    stride: 2
  }
}
layer {
  name: "conv2_1"
  type: "Convolution"
  bottom: "pool1"
  top: "conv2_1"
  param {
    lr_mult: 1
    decay_mult: 1
  }
  param {
    lr_mult: 2
    decay_mult: 0
  }
  convolution_param {
    num_output: 128
    pad: 1
    kernel_size: 3
    weight_filler {
      type: "msra"
    }
    bias_filler {
      type: "constant"
    }
  }
}
layer {
  name: "conv2_1_bn"
  type: "BN"
  bottom: "conv2_1"
  top: "conv2_1"
  param {
    lr_mult: 1
    decay_mult: 1
  }
  param {
    lr_mult: 1
    decay_mult: 0
  }
  bn_param {
    scale_filler {
      type: "constant"
      value: 1
    }
    shift_filler {
      type: "constant"
      value: 0.001
    }
  }
}
layer {
  name: "relu2_1"
  type: "ReLU"
  bottom: "conv2_1"
  top: "conv2_1"
}
layer {
  name: "conv2_2"
  type: "Convolution"
  bottom: "conv2_1"
  top: "conv2_2"
  param {
    lr_mult: 1
    decay_mult: 1
  }
  param {
    lr_mult: 2
    decay_mult: 0
  }
  convolution_param {
    num_output: 128
    pad: 1
    kernel_size: 3
    weight_filler {
      type: "msra"
    }
    bias_filler {
      type: "constant"
    }
  }
}
layer {
  name: "conv2_2_bn"
  type: "BN"
  bottom: "conv2_2"
  top: "conv2_2"
  param {
    lr_mult: 1
    decay_mult: 1
  }
  param {
    lr_mult: 1
    decay_mult: 0
  }
  bn_param {
    scale_filler {
      type: "constant"
      value: 1
    }
    shift_filler {
      type: "constant"
      value: 0.001
    }
  }
}
layer {
  name: "relu2_2"
  type: "ReLU"
  bottom: "conv2_2"
  top: "conv2_2"
}
layer {
  name: "pool2"
  type: "Pooling"
  bottom: "conv2_2"
  top: "pool2"
  top: "pool2_mask"
  pooling_param {
    pool: MAX
    kernel_size: 2
    stride: 2
  }
}
layer {
  name: "conv3_1"
  type: "Convolution"
  bottom: "pool2"
  top: "conv3_1"
  param {
    lr_mult: 1
    decay_mult: 1
  }
  param {
    lr_mult: 2
    decay_mult: 0
  }
  convolution_param {
    num_output: 256
    pad: 1
    kernel_size: 3
    weight_filler {
      type: "msra"
    }
    bias_filler {
      type: "constant"
    }
  }
}
layer {
  name: "conv3_1_bn"
  type: "BN"
  bottom: "conv3_1"
  top: "conv3_1"
  param {
    lr_mult: 1
    decay_mult: 1
  }
  param {
    lr_mult: 1
    decay_mult: 0
  }
  bn_param {
    scale_filler {
      type: "constant"
      value: 1
    }
    shift_filler {
      type: "constant"
      value: 0.001
    }
  }
}
layer {
  name: "relu3_1"
  type: "ReLU"
  bottom: "conv3_1"
  top: "conv3_1"
}
layer {
  name: "conv3_2"
  type: "Convolution"
  bottom: "conv3_1"
  top: "conv3_2"
  param {
    lr_mult: 1
    decay_mult: 1
  }
  param {
    lr_mult: 2
    decay_mult: 0
  }
  convolution_param {
    num_output: 256
    pad: 1
    kernel_size: 3
    weight_filler {
      type: "msra"
    }
    bias_filler {
      type: "constant"
    }
  }
}
layer {
  name: "conv3_2_bn"
  type: "BN"
  bottom: "conv3_2"
  top: "conv3_2"
  param {
    lr_mult: 1
    decay_mult: 1
  }
  param {
    lr_mult: 1
    decay_mult: 0
  }
  bn_param {
    scale_filler {
      type: "constant"
      value: 1
    }
    shift_filler {
      type: "constant"
      value: 0.001
    }
  }
}
layer {
  name: "relu3_2"
  type: "ReLU"
  bottom: "conv3_2"
  top: "conv3_2"
}
layer {
  name: "conv3_3"
  type: "Convolution"
  bottom: "conv3_2"
  top: "conv3_3"
  param {
    lr_mult: 1
    decay_mult: 1
  }
  param {
    lr_mult: 2
    decay_mult: 0
  }
  convolution_param {
    num_output: 256
    pad: 1
    kernel_size: 3
    weight_filler {
      type: "msra"
    }
    bias_filler {
      type: "constant"
    }
  }
}
layer {
  name: "conv3_3_bn"
  type: "BN"
  bottom: "conv3_3"
  top: "conv3_3"
  param {
    lr_mult: 1
    decay_mult: 1
  }
  param {
    lr_mult: 1
    decay_mult: 0
  }
  bn_param {
    scale_filler {
      type: "constant"
      value: 1
    }
    shift_filler {
      type: "constant"
      value: 0.001
    }
  }
}
layer {
  name: "relu3_3"
  type: "ReLU"
  bottom: "conv3_3"
  top: "conv3_3"
}
layer {
  name: "pool3"
  type: "Pooling"
  bottom: "conv3_3"
  top: "pool3"
  top: "pool3_mask"
  pooling_param {
    pool: MAX
    kernel_size: 2
    stride: 2
  }
}
layer {
  name: "conv4_1"
  type: "Convolution"
  bottom: "pool3"
  top: "conv4_1"
  param {
    lr_mult: 1
    decay_mult: 1
  }
  param {
    lr_mult: 2
    decay_mult: 0
  }
  convolution_param {
    num_output: 512
    pad: 1
    kernel_size: 3
    weight_filler {
      type: "msra"
    }
    bias_filler {
      type: "constant"
    }
  }
}
layer {
  name: "conv4_1_bn"
  type: "BN"
  bottom: "conv4_1"
  top: "conv4_1"
  param {
    lr_mult: 1
    decay_mult: 1
  }
  param {
    lr_mult: 1
    decay_mult: 0
  }
  bn_param {
    scale_filler {
      type: "constant"
      value: 1
    }
    shift_filler {
      type: "constant"
      value: 0.001
    }
  }
}
layer {
  name: "relu4_1"
  type: "ReLU"
  bottom: "conv4_1"
  top: "conv4_1"
}
layer {
  name: "conv4_2"
  type: "Convolution"
  bottom: "conv4_1"
  top: "conv4_2"
  param {
    lr_mult: 1
    decay_mult: 1
  }
  param {
    lr_mult: 2
    decay_mult: 0
  }
  convolution_param {
    num_output: 512
    pad: 1
    kernel_size: 3
    weight_filler {
      type: "msra"
    }
    bias_filler {
      type: "constant"
    }
  }
}
layer {
  name: "conv4_2_bn"
  type: "BN"
  bottom: "conv4_2"
  top: "conv4_2"
  param {
    lr_mult: 1
    decay_mult: 1
  }
  param {
    lr_mult: 1
    decay_mult: 0
  }
  bn_param {
    scale_filler {
      type: "constant"
      value: 1
    }
    shift_filler {
      type: "constant"
      value: 0.001
    }
  }
}
layer {
  name: "relu4_2"
  type: "ReLU"
  bottom: "conv4_2"
  top: "conv4_2"
}
layer {
  name: "conv4_3"
  type: "Convolution"
  bottom: "conv4_2"
  top: "conv4_3"
  param {
    lr_mult: 1
    decay_mult: 1
  }
  param {
    lr_mult: 2
    decay_mult: 0
  }
  convolution_param {
    num_output: 512
    pad: 1
    kernel_size: 3
    weight_filler {
      type: "msra"
    }
    bias_filler {
      type: "constant"
    }
  }
}
layer {
  name: "conv4_3_bn"
  type: "BN"
  bottom: "conv4_3"
  top: "conv4_3"
  param {
    lr_mult: 1
    decay_mult: 1
  }
  param {
    lr_mult: 1
    decay_mult: 0
  }
  bn_param {
    scale_filler {
      type: "constant"
      value: 1
    }
    shift_filler {
      type: "constant"
      value: 0.001
    }
  }
}
layer {
  name: "relu4_3"
  type: "ReLU"
  bottom: "conv4_3"
  top: "conv4_3"
}
layer {
  name: "pool4"
  type: "Pooling"
  bottom: "conv4_3"
  top: "pool4"
  top: "pool4_mask"
  pooling_param {
    pool: MAX
    kernel_size: 2
    stride: 2
  }
}
layer {
  name: "conv5_1"
  type: "Convolution"
  bottom: "pool4"
  top: "conv5_1"
  param {
    lr_mult: 1
    decay_mult: 1
  }
  param {
    lr_mult: 2
    decay_mult: 0
  }
  convolution_param {
    num_output: 512
    pad: 1
    kernel_size: 3
    weight_filler {
      type: "msra"
    }
    bias_filler {
      type: "constant"
    }
  }
}
layer {
  name: "conv5_1_bn"
  type: "BN"
  bottom: "conv5_1"
  top: "conv5_1"
  param {
    lr_mult: 1
    decay_mult: 1
  }
  param {
    lr_mult: 1
    decay_mult: 0
  }
  bn_param {
    scale_filler {
      type: "constant"
      value: 1
    }
    shift_filler {
      type: "constant"
      value: 0.001
    }
  }
}
layer {
  name: "relu5_1"
  type: "ReLU"
  bottom: "conv5_1"
  top: "conv5_1"
}
layer {
  name: "conv5_2"
  type: "Convolution"
  bottom: "conv5_1"
  top: "conv5_2"
  param {
    lr_mult: 1
    decay_mult: 1
  }
  param {
    lr_mult: 2
    decay_mult: 0
  }
  convolution_param {
    num_output: 512
    pad: 1
    kernel_size: 3
    weight_filler {
      type: "msra"
    }
    bias_filler {
      type: "constant"
    }
  }
}
layer {
  name: "conv5_2_bn"
  type: "BN"
  bottom: "conv5_2"
  top: "conv5_2"
  param {
    lr_mult: 1
    decay_mult: 1
  }
  param {
    lr_mult: 1
    decay_mult: 0
  }
  bn_param {
    scale_filler {
      type: "constant"
      value: 1
    }
    shift_filler {
      type: "constant"
      value: 0.001
    }
  }
}
layer {
  name: "relu5_2"
  type: "ReLU"
  bottom: "conv5_2"
  top: "conv5_2"
}
layer {
  name: "conv5_3"
  type: "Convolution"
  bottom: "conv5_2"
  top: "conv5_3"
  param {
    lr_mult: 1
    decay_mult: 1
  }
  param {
    lr_mult: 2
    decay_mult: 0
  }
  convolution_param {
    num_output: 512
    pad: 1
    kernel_size: 3
    weight_filler {
      type: "msra"
    }
    bias_filler {
      type: "constant"
    }
  }
}
layer {
  name: "conv5_3_bn"
  type: "BN"
  bottom: "conv5_3"
  top: "conv5_3"
  param {
    lr_mult: 1
    decay_mult: 1
  }
  param {
    lr_mult: 1
    decay_mult: 0
  }
  bn_param {
    scale_filler {
      type: "constant"
      value: 1
    }
    shift_filler {
      type: "constant"
      value: 0.001
    }
  }
}
layer {
  name: "relu5_3"
  type: "ReLU"
  bottom: "conv5_3"
  top: "conv5_3"
}
layer {
  name: "pool5"
  type: "Pooling"
  bottom: "conv5_3"
  top: "pool5"
  top: "pool5_mask"
  pooling_param {
    pool: MAX
    kernel_size: 2
    stride: 2
  }
}
layer {
  name: "upsample5"
  type: "Upsample"
  bottom: "pool5"
  bottom: "pool5_mask"
  top: "pool5_D"
  upsample_param {
    scale: 2
    upsample_h: 23
    upsample_w: 30
  }
}
layer {
  name: "conv5_3_D"
  type: "Convolution"
  bottom: "pool5_D"
  top: "conv5_3_D"
  param {
    lr_mult: 1
    decay_mult: 1
  }
  param {
    lr_mult: 2
    decay_mult: 0
  }
  convolution_param {
    num_output: 512
    pad: 1
    kernel_size: 3
    weight_filler {
      type: "msra"
    }
    bias_filler {
      type: "constant"
    }
  }
}
layer {
  name: "conv5_3_D_bn"
  type: "BN"
  bottom: "conv5_3_D"
  top: "conv5_3_D"
  param {
    lr_mult: 1
    decay_mult: 1
  }
  param {
    lr_mult: 1
    decay_mult: 0
  }
  bn_param {
    scale_filler {
      type: "constant"
      value: 1
    }
    shift_filler {
      type: "constant"
      value: 0.001
    }
  }
}
layer {
  name: "relu5_3_D"
  type: "ReLU"
  bottom: "conv5_3_D"
  top: "conv5_3_D"
}
layer {
  name: "conv5_2_D"
  type: "Convolution"
  bottom: "conv5_3_D"
  top: "conv5_2_D"
  param {
    lr_mult: 1
    decay_mult: 1
  }
  param {
    lr_mult: 2
    decay_mult: 0
  }
  convolution_param {
    num_output: 512
    pad: 1
    kernel_size: 3
    weight_filler {
      type: "msra"
    }
    bias_filler {
      type: "constant"
    }
  }
}
layer {
  name: "conv5_2_D_bn"
  type: "BN"
  bottom: "conv5_2_D"
  top: "conv5_2_D"
  param {
    lr_mult: 1
    decay_mult: 1
  }
  param {
    lr_mult: 1
    decay_mult: 0
  }
  bn_param {
    scale_filler {
      type: "constant"
      value: 1
    }
    shift_filler {
      type: "constant"
      value: 0.001
    }
  }
}
layer {
  name: "relu5_2_D"
  type: "ReLU"
  bottom: "conv5_2_D"
  top: "conv5_2_D"
}
layer {
  name: "conv5_1_D"
  type: "Convolution"
  bottom: "conv5_2_D"
  top: "conv5_1_D"
  param {
    lr_mult: 1
    decay_mult: 1
  }
  param {
    lr_mult: 2
    decay_mult: 0
  }
  convolution_param {
    num_output: 512
    pad: 1
    kernel_size: 3
    weight_filler {
      type: "msra"
    }
    bias_filler {
      type: "constant"
    }
  }
}
layer {
  name: "conv5_1_D_bn"
  type: "BN"
  bottom: "conv5_1_D"
  top: "conv5_1_D"
  param {
    lr_mult: 1
    decay_mult: 1
  }
  param {
    lr_mult: 1
    decay_mult: 0
  }
  bn_param {
    scale_filler {
      type: "constant"
      value: 1
    }
    shift_filler {
      type: "constant"
      value: 0.001
    }
  }
}
layer {
  name: "relu5_1_D"
  type: "ReLU"
  bottom: "conv5_1_D"
  top: "conv5_1_D"
}
layer {
  name: "upsample4"
  type: "Upsample"
  bottom: "conv5_1_D"
  bottom: "pool4_mask"
  top: "pool4_D"
  upsample_param {
    scale: 2
    upsample_h: 45
    upsample_w: 60
  }
}
layer {
  name: "conv4_3_D"
  type: "Convolution"
  bottom: "pool4_D"
  top: "conv4_3_D"
  param {
    lr_mult: 1
    decay_mult: 1
  }
  param {
    lr_mult: 2
    decay_mult: 0
  }
  convolution_param {
    num_output: 512
    pad: 1
    kernel_size: 3
    weight_filler {
      type: "msra"
    }
    bias_filler {
      type: "constant"
    }
  }
}
layer {
  name: "conv4_3_D_bn"
  type: "BN"
  bottom: "conv4_3_D"
  top: "conv4_3_D"
  param {
    lr_mult: 1
    decay_mult: 1
  }
  param {
    lr_mult: 1
    decay_mult: 0
  }
  bn_param {
    scale_filler {
      type: "constant"
      value: 1
    }
    shift_filler {
      type: "constant"
      value: 0.001
    }
  }
}
layer {
  name: "relu4_3_D"
  type: "ReLU"
  bottom: "conv4_3_D"
  top: "conv4_3_D"
}
layer {
  name: "conv4_2_D"
  type: "Convolution"
  bottom: "conv4_3_D"
  top: "conv4_2_D"
  param {
    lr_mult: 1
    decay_mult: 1
  }
  param {
    lr_mult: 2
    decay_mult: 0
  }
  convolution_param {
    num_output: 512
    pad: 1
    kernel_size: 3
    weight_filler {
      type: "msra"
    }
    bias_filler {
      type: "constant"
    }
  }
}
layer {
  name: "conv4_2_D_bn"
  type: "BN"
  bottom: "conv4_2_D"
  top: "conv4_2_D"
  param {
    lr_mult: 1
    decay_mult: 1
  }
  param {
    lr_mult: 1
    decay_mult: 0
  }
  bn_param {
    scale_filler {
      type: "constant"
      value: 1
    }
    shift_filler {
      type: "constant"
      value: 0.001
    }
  }
}
layer {
  name: "relu4_2_D"
  type: "ReLU"
  bottom: "conv4_2_D"
  top: "conv4_2_D"
}
layer {
  name: "conv4_1_D"
  type: "Convolution"
  bottom: "conv4_2_D"
  top: "conv4_1_D"
  param {
    lr_mult: 1
    decay_mult: 1
  }
  param {
    lr_mult: 2
    decay_mult: 0
  }
  convolution_param {
    num_output: 256
    pad: 1
    kernel_size: 3
    weight_filler {
      type: "msra"
    }
    bias_filler {
      type: "constant"
    }
  }
}
layer {
  name: "conv4_1_D_bn"
  type: "BN"
  bottom: "conv4_1_D"
  top: "conv4_1_D"
  param {
    lr_mult: 1
    decay_mult: 1
  }
  param {
    lr_mult: 1
    decay_mult: 0
  }
  bn_param {
    scale_filler {
      type: "constant"
      value: 1
    }
    shift_filler {
      type: "constant"
      value: 0.001
    }
  }
}
layer {
  name: "relu4_1_D"
  type: "ReLU"
  bottom: "conv4_1_D"
  top: "conv4_1_D"
}
layer {
  name: "upsample3"
  type: "Upsample"
  bottom: "conv4_1_D"
  bottom: "pool3_mask"
  top: "pool3_D"
  upsample_param {
    scale: 2
  }
}
layer {
  name: "conv3_3_D"
  type: "Convolution"
  bottom: "pool3_D"
  top: "conv3_3_D"
  param {
    lr_mult: 1
    decay_mult: 1
  }
  param {
    lr_mult: 2
    decay_mult: 0
  }
  convolution_param {
    num_output: 256
    pad: 1
    kernel_size: 3
    weight_filler {
      type: "msra"
    }
    bias_filler {
      type: "constant"
    }
  }
}
layer {
  name: "conv3_3_D_bn"
  type: "BN"
  bottom: "conv3_3_D"
  top: "conv3_3_D"
  param {
    lr_mult: 1
    decay_mult: 1
  }
  param {
    lr_mult: 1
    decay_mult: 0
  }
  bn_param {
    scale_filler {
      type: "constant"
      value: 1
    }
    shift_filler {
      type: "constant"
      value: 0.001
    }
  }
}
layer {
  name: "relu3_3_D"
  type: "ReLU"
  bottom: "conv3_3_D"
  top: "conv3_3_D"
}
layer {
  name: "conv3_2_D"
  type: "Convolution"
  bottom: "conv3_3_D"
  top: "conv3_2_D"
  param {
    lr_mult: 1
    decay_mult: 1
  }
  param {
    lr_mult: 2
    decay_mult: 0
  }
  convolution_param {
    num_output: 256
    pad: 1
    kernel_size: 3
    weight_filler {
      type: "msra"
    }
    bias_filler {
      type: "constant"
    }
  }
}
layer {
  name: "conv3_2_D_bn"
  type: "BN"
  bottom: "conv3_2_D"
  top: "conv3_2_D"
  param {
    lr_mult: 1
    decay_mult: 1
  }
  param {
    lr_mult: 1
    decay_mult: 0
  }
  bn_param {
    scale_filler {
      type: "constant"
      value: 1
    }
    shift_filler {
      type: "constant"
      value: 0.001
    }
  }
}
layer {
  name: "relu3_2_D"
  type: "ReLU"
  bottom: "conv3_2_D"
  top: "conv3_2_D"
}
layer {
  name: "conv3_1_D"
  type: "Convolution"
  bottom: "conv3_2_D"
  top: "conv3_1_D"
  param {
    lr_mult: 1
    decay_mult: 1
  }
  param {
    lr_mult: 2
    decay_mult: 0
  }
  convolution_param {
    num_output: 128
    pad: 1
    kernel_size: 3
    weight_filler {
      type: "msra"
    }
    bias_filler {
      type: "constant"
    }
  }
}
layer {
  name: "conv3_1_D_bn"
  type: "BN"
  bottom: "conv3_1_D"
  top: "conv3_1_D"
  param {
    lr_mult: 1
    decay_mult: 1
  }
  param {
    lr_mult: 1
    decay_mult: 0
  }
  bn_param {
    scale_filler {
      type: "constant"
      value: 1
    }
    shift_filler {
      type: "constant"
      value: 0.001
    }
  }
}
layer {
  name: "relu3_1_D"
  type: "ReLU"
  bottom: "conv3_1_D"
  top: "conv3_1_D"
}
layer {
  name: "upsample2"
  type: "Upsample"
  bottom: "conv3_1_D"
  bottom: "pool2_mask"
  top: "pool2_D"
  upsample_param {
    scale: 2
  }
}
layer {
  name: "conv2_2_D"
  type: "Convolution"
  bottom: "pool2_D"
  top: "conv2_2_D"
  param {
    lr_mult: 1
    decay_mult: 1
  }
  param {
    lr_mult: 2
    decay_mult: 0
  }
  convolution_param {
    num_output: 128
    pad: 1
    kernel_size: 3
    weight_filler {
      type: "msra"
    }
    bias_filler {
      type: "constant"
    }
  }
}
layer {
  name: "conv2_2_D_bn"
  type: "BN"
  bottom: "conv2_2_D"
  top: "conv2_2_D"
  param {
    lr_mult: 1
    decay_mult: 1
  }
  param {
    lr_mult: 1
    decay_mult: 0
  }
  bn_param {
    scale_filler {
      type: "constant"
      value: 1
    }
    shift_filler {
      type: "constant"
      value: 0.001
    }
  }
}
layer {
  name: "relu2_2_D"
  type: "ReLU"
  bottom: "conv2_2_D"
  top: "conv2_2_D"
}
layer {
  name: "conv2_1_D"
  type: "Convolution"
  bottom: "conv2_2_D"
  top: "conv2_1_D"
  param {
    lr_mult: 1
    decay_mult: 1
  }
  param {
    lr_mult: 2
    decay_mult: 0
  }
  convolution_param {
    num_output: 64
    pad: 1
    kernel_size: 3
    weight_filler {
      type: "msra"
    }
    bias_filler {
      type: "constant"
    }
  }
}
layer {
  name: "conv2_1_D_bn"
  type: "BN"
  bottom: "conv2_1_D"
  top: "conv2_1_D"
  param {
    lr_mult: 1
    decay_mult: 1
  }
  param {
    lr_mult: 1
    decay_mult: 0
  }
  bn_param {
    scale_filler {
      type: "constant"
      value: 1
    }
    shift_filler {
      type: "constant"
      value: 0.001
    }
  }
}
layer {
  name: "relu2_1_D"
  type: "ReLU"
  bottom: "conv2_1_D"
  top: "conv2_1_D"
}
layer {
  name: "upsample1"
  type: "Upsample"
  bottom: "conv2_1_D"
  bottom: "pool1_mask"
  top: "pool1_D"
  upsample_param {
    scale: 2
  }
}
layer {
  name: "conv1_2_D"
  type: "Convolution"
  bottom: "pool1_D"
  top: "conv1_2_D"
  param {
    lr_mult: 1
    decay_mult: 1
  }
  param {
    lr_mult: 2
    decay_mult: 0
  }
  convolution_param {
    num_output: 64
    pad: 1
    kernel_size: 3
    weight_filler {
      type: "msra"
    }
    bias_filler {
      type: "constant"
    }
  }
}
layer {
  name: "conv1_2_D_bn"
  type: "BN"
  bottom: "conv1_2_D"
  top: "conv1_2_D"
  param {
    lr_mult: 1
    decay_mult: 1
  }
  param {
    lr_mult: 1
    decay_mult: 0
  }
  bn_param {
    scale_filler {
      type: "constant"
      value: 1
    }
    shift_filler {
      type: "constant"
      value: 0.001
    }
  }
}
layer {
  name: "relu1_2_D"
  type: "ReLU"
  bottom: "conv1_2_D"
  top: "conv1_2_D"
}
layer {
  name: "conv1_1_D"
  type: "Convolution"
  bottom: "conv1_2_D"
  top: "conv1_1_D"
  param {
    lr_mult: 1
    decay_mult: 1
  }
  param {
    lr_mult: 2
    decay_mult: 0
  }
  convolution_param {
    num_output: 3
    pad: 1
    kernel_size: 3
    weight_filler {
      type: "msra"
    }
    bias_filler {
      type: "constant"
    }
  }
}
layer {
  name: "loss"
  type: "SoftmaxWithLoss"
  bottom: "conv1_1_D"
  bottom: "label"
  top: "loss"
  loss_param {
    weight_by_label_freqs: true
    class_weighting: 0.0502
    class_weighting: 1
    class_weighting: 1.2301
  }
  softmax_param {
    engine: CAFFE
  }
}
layer {
  name: "accuracy"
  type: "Accuracy"
  bottom: "conv1_1_D"
  bottom: "label"
  top: "accuracy"
  top: "per_class_accuracy"
}
I0608 11:32:22.086838 28577 layer_factory.hpp:77] Creating layer dataIR1
I0608 11:32:22.086853 28577 net.cpp:100] Creating Layer dataIR1
I0608 11:32:22.086858 28577 net.cpp:408] dataIR1 -> dataIR1
I0608 11:32:22.086880 28577 dense_image_only_data_layer.cpp:49] Opening file /home/mpopovic/workspace/weedNet-devel/SegNet-Tutorial/train_and_test_data/rit-18/5m_10m_15m/trainir1.txt
I0608 11:32:22.087191 28577 dense_image_only_data_layer.cpp:65] A total of 810 examples.
I0608 11:32:22.101963 28577 dense_image_only_data_layer.cpp:118] output data size: 5,1,360,480
I0608 11:32:22.102802 28577 net.cpp:150] Setting up dataIR1
I0608 11:32:22.102818 28577 net.cpp:157] Top shape: 5 1 360 480 (864000)
I0608 11:32:22.102821 28577 net.cpp:165] Memory required for data: 3456000
I0608 11:32:22.102838 28577 layer_factory.hpp:77] Creating layer dataIR2
I0608 11:32:22.102846 28577 net.cpp:100] Creating Layer dataIR2
I0608 11:32:22.102849 28577 net.cpp:408] dataIR2 -> dataIR2
I0608 11:32:22.102859 28577 dense_image_only_data_layer.cpp:49] Opening file /home/mpopovic/workspace/weedNet-devel/SegNet-Tutorial/train_and_test_data/rit-18/5m_10m_15m/trainir2.txt
I0608 11:32:22.103045 28577 dense_image_only_data_layer.cpp:65] A total of 810 examples.
I0608 11:32:22.104651 28577 dense_image_only_data_layer.cpp:118] output data size: 5,1,360,480
I0608 11:32:22.106500 28577 net.cpp:150] Setting up dataIR2
I0608 11:32:22.106531 28577 net.cpp:157] Top shape: 5 1 360 480 (864000)
I0608 11:32:22.106535 28577 net.cpp:165] Memory required for data: 6912000
I0608 11:32:22.106541 28577 layer_factory.hpp:77] Creating layer dataIR3
I0608 11:32:22.106556 28577 net.cpp:100] Creating Layer dataIR3
I0608 11:32:22.106560 28577 net.cpp:408] dataIR3 -> dataIR3
I0608 11:32:22.106572 28577 dense_image_only_data_layer.cpp:49] Opening file /home/mpopovic/workspace/weedNet-devel/SegNet-Tutorial/train_and_test_data/rit-18/5m_10m_15m/trainir3.txt
I0608 11:32:22.106834 28577 dense_image_only_data_layer.cpp:65] A total of 810 examples.
I0608 11:32:22.110188 28577 dense_image_only_data_layer.cpp:118] output data size: 5,1,360,480
I0608 11:32:22.113348 28577 net.cpp:150] Setting up dataIR3
I0608 11:32:22.113368 28577 net.cpp:157] Top shape: 5 1 360 480 (864000)
I0608 11:32:22.113369 28577 net.cpp:165] Memory required for data: 10368000
I0608 11:32:22.113373 28577 layer_factory.hpp:77] Creating layer dataRGB
I0608 11:32:22.113380 28577 net.cpp:100] Creating Layer dataRGB
I0608 11:32:22.113384 28577 net.cpp:408] dataRGB -> dataRGB
I0608 11:32:22.113390 28577 net.cpp:408] dataRGB -> label
I0608 11:32:22.113401 28577 dense_image_data_layer.cpp:49] Opening file /home/mpopovic/workspace/weedNet-devel/SegNet-Tutorial/train_and_test_data/rit-18/5m_10m_15m/train.txt
I0608 11:32:22.113829 28577 dense_image_data_layer.cpp:64] A total of 810 examples.
I0608 11:32:22.121897 28577 dense_image_data_layer.cpp:117] output data size: 5,3,360,480
I0608 11:32:22.131037 28577 net.cpp:150] Setting up dataRGB
I0608 11:32:22.131057 28577 net.cpp:157] Top shape: 5 3 360 480 (2592000)
I0608 11:32:22.131062 28577 net.cpp:157] Top shape: 5 1 360 480 (864000)
I0608 11:32:22.131063 28577 net.cpp:165] Memory required for data: 24192000
I0608 11:32:22.131067 28577 layer_factory.hpp:77] Creating layer label_dataRGB_1_split
I0608 11:32:22.131466 28577 net.cpp:100] Creating Layer label_dataRGB_1_split
I0608 11:32:22.131484 28577 net.cpp:434] label_dataRGB_1_split <- label
I0608 11:32:22.131507 28577 net.cpp:408] label_dataRGB_1_split -> label_dataRGB_1_split_0
I0608 11:32:22.131515 28577 net.cpp:408] label_dataRGB_1_split -> label_dataRGB_1_split_1
I0608 11:32:22.131616 28577 net.cpp:150] Setting up label_dataRGB_1_split
I0608 11:32:22.131624 28577 net.cpp:157] Top shape: 5 1 360 480 (864000)
I0608 11:32:22.131628 28577 net.cpp:157] Top shape: 5 1 360 480 (864000)
I0608 11:32:22.131629 28577 net.cpp:165] Memory required for data: 31104000
I0608 11:32:22.131631 28577 layer_factory.hpp:77] Creating layer data
I0608 11:32:22.131639 28577 net.cpp:100] Creating Layer data
I0608 11:32:22.131645 28577 net.cpp:434] data <- dataIR1
I0608 11:32:22.131649 28577 net.cpp:434] data <- dataIR2
I0608 11:32:22.131654 28577 net.cpp:434] data <- dataIR3
I0608 11:32:22.131656 28577 net.cpp:434] data <- dataRGB
I0608 11:32:22.131659 28577 net.cpp:408] data -> data
I0608 11:32:22.131680 28577 net.cpp:150] Setting up data
I0608 11:32:22.131683 28577 net.cpp:157] Top shape: 5 6 360 480 (5184000)
I0608 11:32:22.131685 28577 net.cpp:165] Memory required for data: 51840000
I0608 11:32:22.131687 28577 layer_factory.hpp:77] Creating layer multiconv1_1
I0608 11:32:22.131701 28577 net.cpp:100] Creating Layer multiconv1_1
I0608 11:32:22.131705 28577 net.cpp:434] multiconv1_1 <- data
I0608 11:32:22.131707 28577 net.cpp:408] multiconv1_1 -> conv1_1
I0608 11:32:22.794409 28577 net.cpp:150] Setting up multiconv1_1
I0608 11:32:22.794440 28577 net.cpp:157] Top shape: 5 64 360 480 (55296000)
I0608 11:32:22.794441 28577 net.cpp:165] Memory required for data: 273024000
I0608 11:32:22.794456 28577 layer_factory.hpp:77] Creating layer conv1_1_bn
I0608 11:32:22.794467 28577 net.cpp:100] Creating Layer conv1_1_bn
I0608 11:32:22.794472 28577 net.cpp:434] conv1_1_bn <- conv1_1
I0608 11:32:22.794478 28577 net.cpp:395] conv1_1_bn -> conv1_1 (in-place)
I0608 11:32:22.794755 28577 net.cpp:150] Setting up conv1_1_bn
I0608 11:32:22.794760 28577 net.cpp:157] Top shape: 5 64 360 480 (55296000)
I0608 11:32:22.794764 28577 net.cpp:165] Memory required for data: 494208000
I0608 11:32:22.794771 28577 layer_factory.hpp:77] Creating layer relu1_1
I0608 11:32:22.794777 28577 net.cpp:100] Creating Layer relu1_1
I0608 11:32:22.794780 28577 net.cpp:434] relu1_1 <- conv1_1
I0608 11:32:22.794783 28577 net.cpp:395] relu1_1 -> conv1_1 (in-place)
I0608 11:32:22.795238 28577 net.cpp:150] Setting up relu1_1
I0608 11:32:22.795243 28577 net.cpp:157] Top shape: 5 64 360 480 (55296000)
I0608 11:32:22.795248 28577 net.cpp:165] Memory required for data: 715392000
I0608 11:32:22.795250 28577 layer_factory.hpp:77] Creating layer conv1_2
I0608 11:32:22.795258 28577 net.cpp:100] Creating Layer conv1_2
I0608 11:32:22.795260 28577 net.cpp:434] conv1_2 <- conv1_1
I0608 11:32:22.795264 28577 net.cpp:408] conv1_2 -> conv1_2
I0608 11:32:22.797969 28577 net.cpp:150] Setting up conv1_2
I0608 11:32:22.797979 28577 net.cpp:157] Top shape: 5 64 360 480 (55296000)
I0608 11:32:22.797981 28577 net.cpp:165] Memory required for data: 936576000
I0608 11:32:22.797991 28577 layer_factory.hpp:77] Creating layer conv1_2_bn
I0608 11:32:22.797997 28577 net.cpp:100] Creating Layer conv1_2_bn
I0608 11:32:22.798000 28577 net.cpp:434] conv1_2_bn <- conv1_2
I0608 11:32:22.798005 28577 net.cpp:395] conv1_2_bn -> conv1_2 (in-place)
I0608 11:32:22.798275 28577 net.cpp:150] Setting up conv1_2_bn
I0608 11:32:22.798280 28577 net.cpp:157] Top shape: 5 64 360 480 (55296000)
I0608 11:32:22.798285 28577 net.cpp:165] Memory required for data: 1157760000
I0608 11:32:22.798290 28577 layer_factory.hpp:77] Creating layer relu1_2
I0608 11:32:22.798295 28577 net.cpp:100] Creating Layer relu1_2
I0608 11:32:22.798297 28577 net.cpp:434] relu1_2 <- conv1_2
I0608 11:32:22.798300 28577 net.cpp:395] relu1_2 -> conv1_2 (in-place)
I0608 11:32:22.798419 28577 net.cpp:150] Setting up relu1_2
I0608 11:32:22.798424 28577 net.cpp:157] Top shape: 5 64 360 480 (55296000)
I0608 11:32:22.798427 28577 net.cpp:165] Memory required for data: 1378944000
I0608 11:32:22.798430 28577 layer_factory.hpp:77] Creating layer pool1
I0608 11:32:22.798434 28577 layer_factory.cpp:91] cuDNN does not support multiple tops. Using Caffe's own pooling layer.
I0608 11:32:22.798439 28577 net.cpp:100] Creating Layer pool1
I0608 11:32:22.798442 28577 net.cpp:434] pool1 <- conv1_2
I0608 11:32:22.798446 28577 net.cpp:408] pool1 -> pool1
I0608 11:32:22.798454 28577 net.cpp:408] pool1 -> pool1_mask
I0608 11:32:22.798493 28577 net.cpp:150] Setting up pool1
I0608 11:32:22.798498 28577 net.cpp:157] Top shape: 5 64 180 240 (13824000)
I0608 11:32:22.798501 28577 net.cpp:157] Top shape: 5 64 180 240 (13824000)
I0608 11:32:22.798504 28577 net.cpp:165] Memory required for data: 1489536000
I0608 11:32:22.798507 28577 layer_factory.hpp:77] Creating layer conv2_1
I0608 11:32:22.798513 28577 net.cpp:100] Creating Layer conv2_1
I0608 11:32:22.798516 28577 net.cpp:434] conv2_1 <- pool1
I0608 11:32:22.798521 28577 net.cpp:408] conv2_1 -> conv2_1
I0608 11:32:22.803130 28577 net.cpp:150] Setting up conv2_1
I0608 11:32:22.803143 28577 net.cpp:157] Top shape: 5 128 180 240 (27648000)
I0608 11:32:22.803146 28577 net.cpp:165] Memory required for data: 1600128000
I0608 11:32:22.803154 28577 layer_factory.hpp:77] Creating layer conv2_1_bn
I0608 11:32:22.803162 28577 net.cpp:100] Creating Layer conv2_1_bn
I0608 11:32:22.803165 28577 net.cpp:434] conv2_1_bn <- conv2_1
I0608 11:32:22.803169 28577 net.cpp:395] conv2_1_bn -> conv2_1 (in-place)
I0608 11:32:22.803411 28577 net.cpp:150] Setting up conv2_1_bn
I0608 11:32:22.803424 28577 net.cpp:157] Top shape: 5 128 180 240 (27648000)
I0608 11:32:22.803426 28577 net.cpp:165] Memory required for data: 1710720000
I0608 11:32:22.803431 28577 layer_factory.hpp:77] Creating layer relu2_1
I0608 11:32:22.803433 28577 net.cpp:100] Creating Layer relu2_1
I0608 11:32:22.803436 28577 net.cpp:434] relu2_1 <- conv2_1
I0608 11:32:22.803438 28577 net.cpp:395] relu2_1 -> conv2_1 (in-place)
I0608 11:32:22.803795 28577 net.cpp:150] Setting up relu2_1
I0608 11:32:22.803803 28577 net.cpp:157] Top shape: 5 128 180 240 (27648000)
I0608 11:32:22.803805 28577 net.cpp:165] Memory required for data: 1821312000
I0608 11:32:22.803807 28577 layer_factory.hpp:77] Creating layer conv2_2
I0608 11:32:22.803813 28577 net.cpp:100] Creating Layer conv2_2
I0608 11:32:22.803817 28577 net.cpp:434] conv2_2 <- conv2_1
I0608 11:32:22.803820 28577 net.cpp:408] conv2_2 -> conv2_2
I0608 11:32:22.807314 28577 net.cpp:150] Setting up conv2_2
I0608 11:32:22.807324 28577 net.cpp:157] Top shape: 5 128 180 240 (27648000)
I0608 11:32:22.807327 28577 net.cpp:165] Memory required for data: 1931904000
I0608 11:32:22.807332 28577 layer_factory.hpp:77] Creating layer conv2_2_bn
I0608 11:32:22.807337 28577 net.cpp:100] Creating Layer conv2_2_bn
I0608 11:32:22.807340 28577 net.cpp:434] conv2_2_bn <- conv2_2
I0608 11:32:22.807343 28577 net.cpp:395] conv2_2_bn -> conv2_2 (in-place)
I0608 11:32:22.807600 28577 net.cpp:150] Setting up conv2_2_bn
I0608 11:32:22.807606 28577 net.cpp:157] Top shape: 5 128 180 240 (27648000)
I0608 11:32:22.807607 28577 net.cpp:165] Memory required for data: 2042496000
I0608 11:32:22.807611 28577 layer_factory.hpp:77] Creating layer relu2_2
I0608 11:32:22.807615 28577 net.cpp:100] Creating Layer relu2_2
I0608 11:32:22.807617 28577 net.cpp:434] relu2_2 <- conv2_2
I0608 11:32:22.807621 28577 net.cpp:395] relu2_2 -> conv2_2 (in-place)
I0608 11:32:22.807732 28577 net.cpp:150] Setting up relu2_2
I0608 11:32:22.807737 28577 net.cpp:157] Top shape: 5 128 180 240 (27648000)
I0608 11:32:22.807739 28577 net.cpp:165] Memory required for data: 2153088000
I0608 11:32:22.807741 28577 layer_factory.hpp:77] Creating layer pool2
I0608 11:32:22.807744 28577 layer_factory.cpp:91] cuDNN does not support multiple tops. Using Caffe's own pooling layer.
I0608 11:32:22.807746 28577 net.cpp:100] Creating Layer pool2
I0608 11:32:22.807749 28577 net.cpp:434] pool2 <- conv2_2
I0608 11:32:22.807751 28577 net.cpp:408] pool2 -> pool2
I0608 11:32:22.807755 28577 net.cpp:408] pool2 -> pool2_mask
I0608 11:32:22.807791 28577 net.cpp:150] Setting up pool2
I0608 11:32:22.807795 28577 net.cpp:157] Top shape: 5 128 90 120 (6912000)
I0608 11:32:22.807797 28577 net.cpp:157] Top shape: 5 128 90 120 (6912000)
I0608 11:32:22.807799 28577 net.cpp:165] Memory required for data: 2208384000
I0608 11:32:22.807801 28577 layer_factory.hpp:77] Creating layer conv3_1
I0608 11:32:22.807806 28577 net.cpp:100] Creating Layer conv3_1
I0608 11:32:22.807807 28577 net.cpp:434] conv3_1 <- pool2
I0608 11:32:22.807811 28577 net.cpp:408] conv3_1 -> conv3_1
I0608 11:32:22.814263 28577 net.cpp:150] Setting up conv3_1
I0608 11:32:22.814272 28577 net.cpp:157] Top shape: 5 256 90 120 (13824000)
I0608 11:32:22.814275 28577 net.cpp:165] Memory required for data: 2263680000
I0608 11:32:22.814285 28577 layer_factory.hpp:77] Creating layer conv3_1_bn
I0608 11:32:22.814291 28577 net.cpp:100] Creating Layer conv3_1_bn
I0608 11:32:22.814294 28577 net.cpp:434] conv3_1_bn <- conv3_1
I0608 11:32:22.814297 28577 net.cpp:395] conv3_1_bn -> conv3_1 (in-place)
I0608 11:32:22.814534 28577 net.cpp:150] Setting up conv3_1_bn
I0608 11:32:22.814540 28577 net.cpp:157] Top shape: 5 256 90 120 (13824000)
I0608 11:32:22.814543 28577 net.cpp:165] Memory required for data: 2318976000
I0608 11:32:22.814545 28577 layer_factory.hpp:77] Creating layer relu3_1
I0608 11:32:22.814549 28577 net.cpp:100] Creating Layer relu3_1
I0608 11:32:22.814553 28577 net.cpp:434] relu3_1 <- conv3_1
I0608 11:32:22.814554 28577 net.cpp:395] relu3_1 -> conv3_1 (in-place)
I0608 11:32:22.814680 28577 net.cpp:150] Setting up relu3_1
I0608 11:32:22.814692 28577 net.cpp:157] Top shape: 5 256 90 120 (13824000)
I0608 11:32:22.814695 28577 net.cpp:165] Memory required for data: 2374272000
I0608 11:32:22.814697 28577 layer_factory.hpp:77] Creating layer conv3_2
I0608 11:32:22.814702 28577 net.cpp:100] Creating Layer conv3_2
I0608 11:32:22.814705 28577 net.cpp:434] conv3_2 <- conv3_1
I0608 11:32:22.814708 28577 net.cpp:408] conv3_2 -> conv3_2
I0608 11:32:22.826439 28577 net.cpp:150] Setting up conv3_2
I0608 11:32:22.826452 28577 net.cpp:157] Top shape: 5 256 90 120 (13824000)
I0608 11:32:22.826455 28577 net.cpp:165] Memory required for data: 2429568000
I0608 11:32:22.826460 28577 layer_factory.hpp:77] Creating layer conv3_2_bn
I0608 11:32:22.826467 28577 net.cpp:100] Creating Layer conv3_2_bn
I0608 11:32:22.826472 28577 net.cpp:434] conv3_2_bn <- conv3_2
I0608 11:32:22.826475 28577 net.cpp:395] conv3_2_bn -> conv3_2 (in-place)
I0608 11:32:22.826694 28577 net.cpp:150] Setting up conv3_2_bn
I0608 11:32:22.826699 28577 net.cpp:157] Top shape: 5 256 90 120 (13824000)
I0608 11:32:22.826700 28577 net.cpp:165] Memory required for data: 2484864000
I0608 11:32:22.826704 28577 layer_factory.hpp:77] Creating layer relu3_2
I0608 11:32:22.826707 28577 net.cpp:100] Creating Layer relu3_2
I0608 11:32:22.826709 28577 net.cpp:434] relu3_2 <- conv3_2
I0608 11:32:22.826711 28577 net.cpp:395] relu3_2 -> conv3_2 (in-place)
I0608 11:32:22.827049 28577 net.cpp:150] Setting up relu3_2
I0608 11:32:22.827056 28577 net.cpp:157] Top shape: 5 256 90 120 (13824000)
I0608 11:32:22.827059 28577 net.cpp:165] Memory required for data: 2540160000
I0608 11:32:22.827061 28577 layer_factory.hpp:77] Creating layer conv3_3
I0608 11:32:22.827066 28577 net.cpp:100] Creating Layer conv3_3
I0608 11:32:22.827069 28577 net.cpp:434] conv3_3 <- conv3_2
I0608 11:32:22.827072 28577 net.cpp:408] conv3_3 -> conv3_3
I0608 11:32:22.838343 28577 net.cpp:150] Setting up conv3_3
I0608 11:32:22.838352 28577 net.cpp:157] Top shape: 5 256 90 120 (13824000)
I0608 11:32:22.838354 28577 net.cpp:165] Memory required for data: 2595456000
I0608 11:32:22.838358 28577 layer_factory.hpp:77] Creating layer conv3_3_bn
I0608 11:32:22.838363 28577 net.cpp:100] Creating Layer conv3_3_bn
I0608 11:32:22.838366 28577 net.cpp:434] conv3_3_bn <- conv3_3
I0608 11:32:22.838369 28577 net.cpp:395] conv3_3_bn -> conv3_3 (in-place)
I0608 11:32:22.838587 28577 net.cpp:150] Setting up conv3_3_bn
I0608 11:32:22.838591 28577 net.cpp:157] Top shape: 5 256 90 120 (13824000)
I0608 11:32:22.838593 28577 net.cpp:165] Memory required for data: 2650752000
I0608 11:32:22.838596 28577 layer_factory.hpp:77] Creating layer relu3_3
I0608 11:32:22.838599 28577 net.cpp:100] Creating Layer relu3_3
I0608 11:32:22.838603 28577 net.cpp:434] relu3_3 <- conv3_3
I0608 11:32:22.838604 28577 net.cpp:395] relu3_3 -> conv3_3 (in-place)
I0608 11:32:22.838717 28577 net.cpp:150] Setting up relu3_3
I0608 11:32:22.838722 28577 net.cpp:157] Top shape: 5 256 90 120 (13824000)
I0608 11:32:22.838724 28577 net.cpp:165] Memory required for data: 2706048000
I0608 11:32:22.838726 28577 layer_factory.hpp:77] Creating layer pool3
I0608 11:32:22.838728 28577 layer_factory.cpp:91] cuDNN does not support multiple tops. Using Caffe's own pooling layer.
I0608 11:32:22.838730 28577 net.cpp:100] Creating Layer pool3
I0608 11:32:22.838732 28577 net.cpp:434] pool3 <- conv3_3
I0608 11:32:22.838735 28577 net.cpp:408] pool3 -> pool3
I0608 11:32:22.838739 28577 net.cpp:408] pool3 -> pool3_mask
I0608 11:32:22.838776 28577 net.cpp:150] Setting up pool3
I0608 11:32:22.838780 28577 net.cpp:157] Top shape: 5 256 45 60 (3456000)
I0608 11:32:22.838783 28577 net.cpp:157] Top shape: 5 256 45 60 (3456000)
I0608 11:32:22.838784 28577 net.cpp:165] Memory required for data: 2733696000
I0608 11:32:22.838785 28577 layer_factory.hpp:77] Creating layer conv4_1
I0608 11:32:22.838790 28577 net.cpp:100] Creating Layer conv4_1
I0608 11:32:22.838793 28577 net.cpp:434] conv4_1 <- pool3
I0608 11:32:22.838795 28577 net.cpp:408] conv4_1 -> conv4_1
I0608 11:32:22.860843 28577 net.cpp:150] Setting up conv4_1
I0608 11:32:22.860868 28577 net.cpp:157] Top shape: 5 512 45 60 (6912000)
I0608 11:32:22.860872 28577 net.cpp:165] Memory required for data: 2761344000
I0608 11:32:22.860877 28577 layer_factory.hpp:77] Creating layer conv4_1_bn
I0608 11:32:22.860884 28577 net.cpp:100] Creating Layer conv4_1_bn
I0608 11:32:22.860888 28577 net.cpp:434] conv4_1_bn <- conv4_1
I0608 11:32:22.860893 28577 net.cpp:395] conv4_1_bn -> conv4_1 (in-place)
I0608 11:32:22.861120 28577 net.cpp:150] Setting up conv4_1_bn
I0608 11:32:22.861124 28577 net.cpp:157] Top shape: 5 512 45 60 (6912000)
I0608 11:32:22.861126 28577 net.cpp:165] Memory required for data: 2788992000
I0608 11:32:22.861129 28577 layer_factory.hpp:77] Creating layer relu4_1
I0608 11:32:22.861136 28577 net.cpp:100] Creating Layer relu4_1
I0608 11:32:22.861140 28577 net.cpp:434] relu4_1 <- conv4_1
I0608 11:32:22.861141 28577 net.cpp:395] relu4_1 -> conv4_1 (in-place)
I0608 11:32:22.861258 28577 net.cpp:150] Setting up relu4_1
I0608 11:32:22.861261 28577 net.cpp:157] Top shape: 5 512 45 60 (6912000)
I0608 11:32:22.861263 28577 net.cpp:165] Memory required for data: 2816640000
I0608 11:32:22.861265 28577 layer_factory.hpp:77] Creating layer conv4_2
I0608 11:32:22.861270 28577 net.cpp:100] Creating Layer conv4_2
I0608 11:32:22.861272 28577 net.cpp:434] conv4_2 <- conv4_1
I0608 11:32:22.861275 28577 net.cpp:408] conv4_2 -> conv4_2
I0608 11:32:22.902096 28577 net.cpp:150] Setting up conv4_2
I0608 11:32:22.902110 28577 net.cpp:157] Top shape: 5 512 45 60 (6912000)
I0608 11:32:22.902112 28577 net.cpp:165] Memory required for data: 2844288000
I0608 11:32:22.902122 28577 layer_factory.hpp:77] Creating layer conv4_2_bn
I0608 11:32:22.902130 28577 net.cpp:100] Creating Layer conv4_2_bn
I0608 11:32:22.902134 28577 net.cpp:434] conv4_2_bn <- conv4_2
I0608 11:32:22.902139 28577 net.cpp:395] conv4_2_bn -> conv4_2 (in-place)
I0608 11:32:22.902356 28577 net.cpp:150] Setting up conv4_2_bn
I0608 11:32:22.902361 28577 net.cpp:157] Top shape: 5 512 45 60 (6912000)
I0608 11:32:22.902364 28577 net.cpp:165] Memory required for data: 2871936000
I0608 11:32:22.902366 28577 layer_factory.hpp:77] Creating layer relu4_2
I0608 11:32:22.902369 28577 net.cpp:100] Creating Layer relu4_2
I0608 11:32:22.902372 28577 net.cpp:434] relu4_2 <- conv4_2
I0608 11:32:22.902374 28577 net.cpp:395] relu4_2 -> conv4_2 (in-place)
I0608 11:32:22.902487 28577 net.cpp:150] Setting up relu4_2
I0608 11:32:22.902492 28577 net.cpp:157] Top shape: 5 512 45 60 (6912000)
I0608 11:32:22.902493 28577 net.cpp:165] Memory required for data: 2899584000
I0608 11:32:22.902495 28577 layer_factory.hpp:77] Creating layer conv4_3
I0608 11:32:22.902500 28577 net.cpp:100] Creating Layer conv4_3
I0608 11:32:22.902503 28577 net.cpp:434] conv4_3 <- conv4_2
I0608 11:32:22.902506 28577 net.cpp:408] conv4_3 -> conv4_3
I0608 11:32:22.943624 28577 net.cpp:150] Setting up conv4_3
I0608 11:32:22.943639 28577 net.cpp:157] Top shape: 5 512 45 60 (6912000)
I0608 11:32:22.943641 28577 net.cpp:165] Memory required for data: 2927232000
I0608 11:32:22.943648 28577 layer_factory.hpp:77] Creating layer conv4_3_bn
I0608 11:32:22.943655 28577 net.cpp:100] Creating Layer conv4_3_bn
I0608 11:32:22.943660 28577 net.cpp:434] conv4_3_bn <- conv4_3
I0608 11:32:22.943665 28577 net.cpp:395] conv4_3_bn -> conv4_3 (in-place)
I0608 11:32:22.943878 28577 net.cpp:150] Setting up conv4_3_bn
I0608 11:32:22.943882 28577 net.cpp:157] Top shape: 5 512 45 60 (6912000)
I0608 11:32:22.943884 28577 net.cpp:165] Memory required for data: 2954880000
I0608 11:32:22.943888 28577 layer_factory.hpp:77] Creating layer relu4_3
I0608 11:32:22.943892 28577 net.cpp:100] Creating Layer relu4_3
I0608 11:32:22.943894 28577 net.cpp:434] relu4_3 <- conv4_3
I0608 11:32:22.943897 28577 net.cpp:395] relu4_3 -> conv4_3 (in-place)
I0608 11:32:22.944253 28577 net.cpp:150] Setting up relu4_3
I0608 11:32:22.944260 28577 net.cpp:157] Top shape: 5 512 45 60 (6912000)
I0608 11:32:22.944262 28577 net.cpp:165] Memory required for data: 2982528000
I0608 11:32:22.944264 28577 layer_factory.hpp:77] Creating layer pool4
I0608 11:32:22.944277 28577 layer_factory.cpp:91] cuDNN does not support multiple tops. Using Caffe's own pooling layer.
I0608 11:32:22.944280 28577 net.cpp:100] Creating Layer pool4
I0608 11:32:22.944283 28577 net.cpp:434] pool4 <- conv4_3
I0608 11:32:22.944285 28577 net.cpp:408] pool4 -> pool4
I0608 11:32:22.944290 28577 net.cpp:408] pool4 -> pool4_mask
I0608 11:32:22.944329 28577 net.cpp:150] Setting up pool4
I0608 11:32:22.944334 28577 net.cpp:157] Top shape: 5 512 23 30 (1766400)
I0608 11:32:22.944336 28577 net.cpp:157] Top shape: 5 512 23 30 (1766400)
I0608 11:32:22.944339 28577 net.cpp:165] Memory required for data: 2996659200
I0608 11:32:22.944341 28577 layer_factory.hpp:77] Creating layer conv5_1
I0608 11:32:22.944345 28577 net.cpp:100] Creating Layer conv5_1
I0608 11:32:22.944348 28577 net.cpp:434] conv5_1 <- pool4
I0608 11:32:22.944351 28577 net.cpp:408] conv5_1 -> conv5_1
I0608 11:32:22.985203 28577 net.cpp:150] Setting up conv5_1
I0608 11:32:22.985218 28577 net.cpp:157] Top shape: 5 512 23 30 (1766400)
I0608 11:32:22.985220 28577 net.cpp:165] Memory required for data: 3003724800
I0608 11:32:22.985226 28577 layer_factory.hpp:77] Creating layer conv5_1_bn
I0608 11:32:22.985235 28577 net.cpp:100] Creating Layer conv5_1_bn
I0608 11:32:22.985240 28577 net.cpp:434] conv5_1_bn <- conv5_1
I0608 11:32:22.985244 28577 net.cpp:395] conv5_1_bn -> conv5_1 (in-place)
I0608 11:32:22.985455 28577 net.cpp:150] Setting up conv5_1_bn
I0608 11:32:22.985460 28577 net.cpp:157] Top shape: 5 512 23 30 (1766400)
I0608 11:32:22.985462 28577 net.cpp:165] Memory required for data: 3010790400
I0608 11:32:22.985466 28577 layer_factory.hpp:77] Creating layer relu5_1
I0608 11:32:22.985471 28577 net.cpp:100] Creating Layer relu5_1
I0608 11:32:22.985473 28577 net.cpp:434] relu5_1 <- conv5_1
I0608 11:32:22.985476 28577 net.cpp:395] relu5_1 -> conv5_1 (in-place)
I0608 11:32:22.985584 28577 net.cpp:150] Setting up relu5_1
I0608 11:32:22.985589 28577 net.cpp:157] Top shape: 5 512 23 30 (1766400)
I0608 11:32:22.985591 28577 net.cpp:165] Memory required for data: 3017856000
I0608 11:32:22.985594 28577 layer_factory.hpp:77] Creating layer conv5_2
I0608 11:32:22.985597 28577 net.cpp:100] Creating Layer conv5_2
I0608 11:32:22.985600 28577 net.cpp:434] conv5_2 <- conv5_1
I0608 11:32:22.985604 28577 net.cpp:408] conv5_2 -> conv5_2
I0608 11:32:23.026742 28577 net.cpp:150] Setting up conv5_2
I0608 11:32:23.026757 28577 net.cpp:157] Top shape: 5 512 23 30 (1766400)
I0608 11:32:23.026759 28577 net.cpp:165] Memory required for data: 3024921600
I0608 11:32:23.026765 28577 layer_factory.hpp:77] Creating layer conv5_2_bn
I0608 11:32:23.026774 28577 net.cpp:100] Creating Layer conv5_2_bn
I0608 11:32:23.026778 28577 net.cpp:434] conv5_2_bn <- conv5_2
I0608 11:32:23.026784 28577 net.cpp:395] conv5_2_bn -> conv5_2 (in-place)
I0608 11:32:23.026993 28577 net.cpp:150] Setting up conv5_2_bn
I0608 11:32:23.026998 28577 net.cpp:157] Top shape: 5 512 23 30 (1766400)
I0608 11:32:23.026999 28577 net.cpp:165] Memory required for data: 3031987200
I0608 11:32:23.027003 28577 layer_factory.hpp:77] Creating layer relu5_2
I0608 11:32:23.027006 28577 net.cpp:100] Creating Layer relu5_2
I0608 11:32:23.027009 28577 net.cpp:434] relu5_2 <- conv5_2
I0608 11:32:23.027011 28577 net.cpp:395] relu5_2 -> conv5_2 (in-place)
I0608 11:32:23.027120 28577 net.cpp:150] Setting up relu5_2
I0608 11:32:23.027125 28577 net.cpp:157] Top shape: 5 512 23 30 (1766400)
I0608 11:32:23.027127 28577 net.cpp:165] Memory required for data: 3039052800
I0608 11:32:23.027129 28577 layer_factory.hpp:77] Creating layer conv5_3
I0608 11:32:23.027133 28577 net.cpp:100] Creating Layer conv5_3
I0608 11:32:23.027137 28577 net.cpp:434] conv5_3 <- conv5_2
I0608 11:32:23.027139 28577 net.cpp:408] conv5_3 -> conv5_3
I0608 11:32:23.068190 28577 net.cpp:150] Setting up conv5_3
I0608 11:32:23.068205 28577 net.cpp:157] Top shape: 5 512 23 30 (1766400)
I0608 11:32:23.068207 28577 net.cpp:165] Memory required for data: 3046118400
I0608 11:32:23.068213 28577 layer_factory.hpp:77] Creating layer conv5_3_bn
I0608 11:32:23.068222 28577 net.cpp:100] Creating Layer conv5_3_bn
I0608 11:32:23.068234 28577 net.cpp:434] conv5_3_bn <- conv5_3
I0608 11:32:23.068239 28577 net.cpp:395] conv5_3_bn -> conv5_3 (in-place)
I0608 11:32:23.068454 28577 net.cpp:150] Setting up conv5_3_bn
I0608 11:32:23.068457 28577 net.cpp:157] Top shape: 5 512 23 30 (1766400)
I0608 11:32:23.068459 28577 net.cpp:165] Memory required for data: 3053184000
I0608 11:32:23.068462 28577 layer_factory.hpp:77] Creating layer relu5_3
I0608 11:32:23.068466 28577 net.cpp:100] Creating Layer relu5_3
I0608 11:32:23.068469 28577 net.cpp:434] relu5_3 <- conv5_3
I0608 11:32:23.068471 28577 net.cpp:395] relu5_3 -> conv5_3 (in-place)
I0608 11:32:23.068842 28577 net.cpp:150] Setting up relu5_3
I0608 11:32:23.068850 28577 net.cpp:157] Top shape: 5 512 23 30 (1766400)
I0608 11:32:23.068852 28577 net.cpp:165] Memory required for data: 3060249600
I0608 11:32:23.068855 28577 layer_factory.hpp:77] Creating layer pool5
I0608 11:32:23.068856 28577 layer_factory.cpp:91] cuDNN does not support multiple tops. Using Caffe's own pooling layer.
I0608 11:32:23.068859 28577 net.cpp:100] Creating Layer pool5
I0608 11:32:23.068861 28577 net.cpp:434] pool5 <- conv5_3
I0608 11:32:23.068864 28577 net.cpp:408] pool5 -> pool5
I0608 11:32:23.068869 28577 net.cpp:408] pool5 -> pool5_mask
I0608 11:32:23.068910 28577 net.cpp:150] Setting up pool5
I0608 11:32:23.068915 28577 net.cpp:157] Top shape: 5 512 12 15 (460800)
I0608 11:32:23.068917 28577 net.cpp:157] Top shape: 5 512 12 15 (460800)
I0608 11:32:23.068919 28577 net.cpp:165] Memory required for data: 3063936000
I0608 11:32:23.068920 28577 layer_factory.hpp:77] Creating layer upsample5
I0608 11:32:23.068930 28577 net.cpp:100] Creating Layer upsample5
I0608 11:32:23.068933 28577 net.cpp:434] upsample5 <- pool5
I0608 11:32:23.068935 28577 net.cpp:434] upsample5 <- pool5_mask
I0608 11:32:23.068938 28577 net.cpp:408] upsample5 -> pool5_D
I0608 11:32:23.068959 28577 net.cpp:150] Setting up upsample5
I0608 11:32:23.068964 28577 net.cpp:157] Top shape: 5 512 23 30 (1766400)
I0608 11:32:23.068964 28577 net.cpp:165] Memory required for data: 3071001600
I0608 11:32:23.068966 28577 layer_factory.hpp:77] Creating layer conv5_3_D
I0608 11:32:23.068971 28577 net.cpp:100] Creating Layer conv5_3_D
I0608 11:32:23.068974 28577 net.cpp:434] conv5_3_D <- pool5_D
I0608 11:32:23.068976 28577 net.cpp:408] conv5_3_D -> conv5_3_D
I0608 11:32:23.110013 28577 net.cpp:150] Setting up conv5_3_D
I0608 11:32:23.110028 28577 net.cpp:157] Top shape: 5 512 23 30 (1766400)
I0608 11:32:23.110030 28577 net.cpp:165] Memory required for data: 3078067200
I0608 11:32:23.110036 28577 layer_factory.hpp:77] Creating layer conv5_3_D_bn
I0608 11:32:23.110045 28577 net.cpp:100] Creating Layer conv5_3_D_bn
I0608 11:32:23.110049 28577 net.cpp:434] conv5_3_D_bn <- conv5_3_D
I0608 11:32:23.110054 28577 net.cpp:395] conv5_3_D_bn -> conv5_3_D (in-place)
I0608 11:32:23.110263 28577 net.cpp:150] Setting up conv5_3_D_bn
I0608 11:32:23.110268 28577 net.cpp:157] Top shape: 5 512 23 30 (1766400)
I0608 11:32:23.110270 28577 net.cpp:165] Memory required for data: 3085132800
I0608 11:32:23.110273 28577 layer_factory.hpp:77] Creating layer relu5_3_D
I0608 11:32:23.110277 28577 net.cpp:100] Creating Layer relu5_3_D
I0608 11:32:23.110280 28577 net.cpp:434] relu5_3_D <- conv5_3_D
I0608 11:32:23.110282 28577 net.cpp:395] relu5_3_D -> conv5_3_D (in-place)
I0608 11:32:23.110394 28577 net.cpp:150] Setting up relu5_3_D
I0608 11:32:23.110399 28577 net.cpp:157] Top shape: 5 512 23 30 (1766400)
I0608 11:32:23.110402 28577 net.cpp:165] Memory required for data: 3092198400
I0608 11:32:23.110404 28577 layer_factory.hpp:77] Creating layer conv5_2_D
I0608 11:32:23.110409 28577 net.cpp:100] Creating Layer conv5_2_D
I0608 11:32:23.110410 28577 net.cpp:434] conv5_2_D <- conv5_3_D
I0608 11:32:23.110414 28577 net.cpp:408] conv5_2_D -> conv5_2_D
I0608 11:32:23.151698 28577 net.cpp:150] Setting up conv5_2_D
I0608 11:32:23.151713 28577 net.cpp:157] Top shape: 5 512 23 30 (1766400)
I0608 11:32:23.151715 28577 net.cpp:165] Memory required for data: 3099264000
I0608 11:32:23.151736 28577 layer_factory.hpp:77] Creating layer conv5_2_D_bn
I0608 11:32:23.151743 28577 net.cpp:100] Creating Layer conv5_2_D_bn
I0608 11:32:23.151747 28577 net.cpp:434] conv5_2_D_bn <- conv5_2_D
I0608 11:32:23.151752 28577 net.cpp:395] conv5_2_D_bn -> conv5_2_D (in-place)
I0608 11:32:23.151971 28577 net.cpp:150] Setting up conv5_2_D_bn
I0608 11:32:23.151976 28577 net.cpp:157] Top shape: 5 512 23 30 (1766400)
I0608 11:32:23.151978 28577 net.cpp:165] Memory required for data: 3106329600
I0608 11:32:23.151981 28577 layer_factory.hpp:77] Creating layer relu5_2_D
I0608 11:32:23.151985 28577 net.cpp:100] Creating Layer relu5_2_D
I0608 11:32:23.151988 28577 net.cpp:434] relu5_2_D <- conv5_2_D
I0608 11:32:23.151990 28577 net.cpp:395] relu5_2_D -> conv5_2_D (in-place)
I0608 11:32:23.152107 28577 net.cpp:150] Setting up relu5_2_D
I0608 11:32:23.152112 28577 net.cpp:157] Top shape: 5 512 23 30 (1766400)
I0608 11:32:23.152114 28577 net.cpp:165] Memory required for data: 3113395200
I0608 11:32:23.152115 28577 layer_factory.hpp:77] Creating layer conv5_1_D
I0608 11:32:23.152120 28577 net.cpp:100] Creating Layer conv5_1_D
I0608 11:32:23.152123 28577 net.cpp:434] conv5_1_D <- conv5_2_D
I0608 11:32:23.152127 28577 net.cpp:408] conv5_1_D -> conv5_1_D
I0608 11:32:23.193248 28577 net.cpp:150] Setting up conv5_1_D
I0608 11:32:23.193264 28577 net.cpp:157] Top shape: 5 512 23 30 (1766400)
I0608 11:32:23.193265 28577 net.cpp:165] Memory required for data: 3120460800
I0608 11:32:23.193272 28577 layer_factory.hpp:77] Creating layer conv5_1_D_bn
I0608 11:32:23.193279 28577 net.cpp:100] Creating Layer conv5_1_D_bn
I0608 11:32:23.193284 28577 net.cpp:434] conv5_1_D_bn <- conv5_1_D
I0608 11:32:23.193289 28577 net.cpp:395] conv5_1_D_bn -> conv5_1_D (in-place)
I0608 11:32:23.193505 28577 net.cpp:150] Setting up conv5_1_D_bn
I0608 11:32:23.193509 28577 net.cpp:157] Top shape: 5 512 23 30 (1766400)
I0608 11:32:23.193511 28577 net.cpp:165] Memory required for data: 3127526400
I0608 11:32:23.193514 28577 layer_factory.hpp:77] Creating layer relu5_1_D
I0608 11:32:23.193517 28577 net.cpp:100] Creating Layer relu5_1_D
I0608 11:32:23.193521 28577 net.cpp:434] relu5_1_D <- conv5_1_D
I0608 11:32:23.193522 28577 net.cpp:395] relu5_1_D -> conv5_1_D (in-place)
I0608 11:32:23.193897 28577 net.cpp:150] Setting up relu5_1_D
I0608 11:32:23.193904 28577 net.cpp:157] Top shape: 5 512 23 30 (1766400)
I0608 11:32:23.193907 28577 net.cpp:165] Memory required for data: 3134592000
I0608 11:32:23.193908 28577 layer_factory.hpp:77] Creating layer upsample4
I0608 11:32:23.193912 28577 net.cpp:100] Creating Layer upsample4
I0608 11:32:23.193915 28577 net.cpp:434] upsample4 <- conv5_1_D
I0608 11:32:23.193918 28577 net.cpp:434] upsample4 <- pool4_mask
I0608 11:32:23.193922 28577 net.cpp:408] upsample4 -> pool4_D
I0608 11:32:23.193948 28577 net.cpp:150] Setting up upsample4
I0608 11:32:23.193953 28577 net.cpp:157] Top shape: 5 512 45 60 (6912000)
I0608 11:32:23.193954 28577 net.cpp:165] Memory required for data: 3162240000
I0608 11:32:23.193956 28577 layer_factory.hpp:77] Creating layer conv4_3_D
I0608 11:32:23.193960 28577 net.cpp:100] Creating Layer conv4_3_D
I0608 11:32:23.193964 28577 net.cpp:434] conv4_3_D <- pool4_D
I0608 11:32:23.193966 28577 net.cpp:408] conv4_3_D -> conv4_3_D
I0608 11:32:23.235213 28577 net.cpp:150] Setting up conv4_3_D
I0608 11:32:23.235229 28577 net.cpp:157] Top shape: 5 512 45 60 (6912000)
I0608 11:32:23.235232 28577 net.cpp:165] Memory required for data: 3189888000
I0608 11:32:23.235245 28577 layer_factory.hpp:77] Creating layer conv4_3_D_bn
I0608 11:32:23.235255 28577 net.cpp:100] Creating Layer conv4_3_D_bn
I0608 11:32:23.235260 28577 net.cpp:434] conv4_3_D_bn <- conv4_3_D
I0608 11:32:23.235265 28577 net.cpp:395] conv4_3_D_bn -> conv4_3_D (in-place)
I0608 11:32:23.235498 28577 net.cpp:150] Setting up conv4_3_D_bn
I0608 11:32:23.235502 28577 net.cpp:157] Top shape: 5 512 45 60 (6912000)
I0608 11:32:23.235504 28577 net.cpp:165] Memory required for data: 3217536000
I0608 11:32:23.235507 28577 layer_factory.hpp:77] Creating layer relu4_3_D
I0608 11:32:23.235520 28577 net.cpp:100] Creating Layer relu4_3_D
I0608 11:32:23.235522 28577 net.cpp:434] relu4_3_D <- conv4_3_D
I0608 11:32:23.235525 28577 net.cpp:395] relu4_3_D -> conv4_3_D (in-place)
I0608 11:32:23.235646 28577 net.cpp:150] Setting up relu4_3_D
I0608 11:32:23.235651 28577 net.cpp:157] Top shape: 5 512 45 60 (6912000)
I0608 11:32:23.235652 28577 net.cpp:165] Memory required for data: 3245184000
I0608 11:32:23.235654 28577 layer_factory.hpp:77] Creating layer conv4_2_D
I0608 11:32:23.235662 28577 net.cpp:100] Creating Layer conv4_2_D
I0608 11:32:23.235666 28577 net.cpp:434] conv4_2_D <- conv4_3_D
I0608 11:32:23.235668 28577 net.cpp:408] conv4_2_D -> conv4_2_D
I0608 11:32:23.276626 28577 net.cpp:150] Setting up conv4_2_D
I0608 11:32:23.276643 28577 net.cpp:157] Top shape: 5 512 45 60 (6912000)
I0608 11:32:23.276644 28577 net.cpp:165] Memory required for data: 3272832000
I0608 11:32:23.276654 28577 layer_factory.hpp:77] Creating layer conv4_2_D_bn
I0608 11:32:23.276664 28577 net.cpp:100] Creating Layer conv4_2_D_bn
I0608 11:32:23.276667 28577 net.cpp:434] conv4_2_D_bn <- conv4_2_D
I0608 11:32:23.276672 28577 net.cpp:395] conv4_2_D_bn -> conv4_2_D (in-place)
I0608 11:32:23.276911 28577 net.cpp:150] Setting up conv4_2_D_bn
I0608 11:32:23.276916 28577 net.cpp:157] Top shape: 5 512 45 60 (6912000)
I0608 11:32:23.276918 28577 net.cpp:165] Memory required for data: 3300480000
I0608 11:32:23.276921 28577 layer_factory.hpp:77] Creating layer relu4_2_D
I0608 11:32:23.276926 28577 net.cpp:100] Creating Layer relu4_2_D
I0608 11:32:23.276928 28577 net.cpp:434] relu4_2_D <- conv4_2_D
I0608 11:32:23.276931 28577 net.cpp:395] relu4_2_D -> conv4_2_D (in-place)
I0608 11:32:23.277045 28577 net.cpp:150] Setting up relu4_2_D
I0608 11:32:23.277050 28577 net.cpp:157] Top shape: 5 512 45 60 (6912000)
I0608 11:32:23.277051 28577 net.cpp:165] Memory required for data: 3328128000
I0608 11:32:23.277052 28577 layer_factory.hpp:77] Creating layer conv4_1_D
I0608 11:32:23.277057 28577 net.cpp:100] Creating Layer conv4_1_D
I0608 11:32:23.277060 28577 net.cpp:434] conv4_1_D <- conv4_2_D
I0608 11:32:23.277063 28577 net.cpp:408] conv4_1_D -> conv4_1_D
I0608 11:32:23.298643 28577 net.cpp:150] Setting up conv4_1_D
I0608 11:32:23.298657 28577 net.cpp:157] Top shape: 5 256 45 60 (3456000)
I0608 11:32:23.298660 28577 net.cpp:165] Memory required for data: 3341952000
I0608 11:32:23.298666 28577 layer_factory.hpp:77] Creating layer conv4_1_D_bn
I0608 11:32:23.298674 28577 net.cpp:100] Creating Layer conv4_1_D_bn
I0608 11:32:23.298678 28577 net.cpp:434] conv4_1_D_bn <- conv4_1_D
I0608 11:32:23.298683 28577 net.cpp:395] conv4_1_D_bn -> conv4_1_D (in-place)
I0608 11:32:23.298928 28577 net.cpp:150] Setting up conv4_1_D_bn
I0608 11:32:23.298933 28577 net.cpp:157] Top shape: 5 256 45 60 (3456000)
I0608 11:32:23.298933 28577 net.cpp:165] Memory required for data: 3355776000
I0608 11:32:23.298936 28577 layer_factory.hpp:77] Creating layer relu4_1_D
I0608 11:32:23.298941 28577 net.cpp:100] Creating Layer relu4_1_D
I0608 11:32:23.298943 28577 net.cpp:434] relu4_1_D <- conv4_1_D
I0608 11:32:23.298946 28577 net.cpp:395] relu4_1_D -> conv4_1_D (in-place)
I0608 11:32:23.299062 28577 net.cpp:150] Setting up relu4_1_D
I0608 11:32:23.299067 28577 net.cpp:157] Top shape: 5 256 45 60 (3456000)
I0608 11:32:23.299068 28577 net.cpp:165] Memory required for data: 3369600000
I0608 11:32:23.299070 28577 layer_factory.hpp:77] Creating layer upsample3
I0608 11:32:23.299074 28577 net.cpp:100] Creating Layer upsample3
I0608 11:32:23.299077 28577 net.cpp:434] upsample3 <- conv4_1_D
I0608 11:32:23.299079 28577 net.cpp:434] upsample3 <- pool3_mask
I0608 11:32:23.299082 28577 net.cpp:408] upsample3 -> pool3_D
I0608 11:32:23.299088 28577 upsample_layer.cpp:27] Params 'pad_out_{}_' are deprecated. Please declare upsample height and width useing the upsample_h, upsample_w parameters.
I0608 11:32:23.299110 28577 net.cpp:150] Setting up upsample3
I0608 11:32:23.299113 28577 net.cpp:157] Top shape: 5 256 90 120 (13824000)
I0608 11:32:23.299116 28577 net.cpp:165] Memory required for data: 3424896000
I0608 11:32:23.299126 28577 layer_factory.hpp:77] Creating layer conv3_3_D
I0608 11:32:23.299131 28577 net.cpp:100] Creating Layer conv3_3_D
I0608 11:32:23.299134 28577 net.cpp:434] conv3_3_D <- pool3_D
I0608 11:32:23.299137 28577 net.cpp:408] conv3_3_D -> conv3_3_D
I0608 11:32:23.310577 28577 net.cpp:150] Setting up conv3_3_D
I0608 11:32:23.310590 28577 net.cpp:157] Top shape: 5 256 90 120 (13824000)
I0608 11:32:23.310591 28577 net.cpp:165] Memory required for data: 3480192000
I0608 11:32:23.310596 28577 layer_factory.hpp:77] Creating layer conv3_3_D_bn
I0608 11:32:23.310602 28577 net.cpp:100] Creating Layer conv3_3_D_bn
I0608 11:32:23.310606 28577 net.cpp:434] conv3_3_D_bn <- conv3_3_D
I0608 11:32:23.310609 28577 net.cpp:395] conv3_3_D_bn -> conv3_3_D (in-place)
I0608 11:32:23.310854 28577 net.cpp:150] Setting up conv3_3_D_bn
I0608 11:32:23.310858 28577 net.cpp:157] Top shape: 5 256 90 120 (13824000)
I0608 11:32:23.310860 28577 net.cpp:165] Memory required for data: 3535488000
I0608 11:32:23.310863 28577 layer_factory.hpp:77] Creating layer relu3_3_D
I0608 11:32:23.310868 28577 net.cpp:100] Creating Layer relu3_3_D
I0608 11:32:23.310870 28577 net.cpp:434] relu3_3_D <- conv3_3_D
I0608 11:32:23.310873 28577 net.cpp:395] relu3_3_D -> conv3_3_D (in-place)
I0608 11:32:23.311239 28577 net.cpp:150] Setting up relu3_3_D
I0608 11:32:23.311246 28577 net.cpp:157] Top shape: 5 256 90 120 (13824000)
I0608 11:32:23.311249 28577 net.cpp:165] Memory required for data: 3590784000
I0608 11:32:23.311250 28577 layer_factory.hpp:77] Creating layer conv3_2_D
I0608 11:32:23.311255 28577 net.cpp:100] Creating Layer conv3_2_D
I0608 11:32:23.311259 28577 net.cpp:434] conv3_2_D <- conv3_3_D
I0608 11:32:23.311261 28577 net.cpp:408] conv3_2_D -> conv3_2_D
I0608 11:32:23.323899 28577 net.cpp:150] Setting up conv3_2_D
I0608 11:32:23.323909 28577 net.cpp:157] Top shape: 5 256 90 120 (13824000)
I0608 11:32:23.323911 28577 net.cpp:165] Memory required for data: 3646080000
I0608 11:32:23.323917 28577 layer_factory.hpp:77] Creating layer conv3_2_D_bn
I0608 11:32:23.323925 28577 net.cpp:100] Creating Layer conv3_2_D_bn
I0608 11:32:23.323927 28577 net.cpp:434] conv3_2_D_bn <- conv3_2_D
I0608 11:32:23.323932 28577 net.cpp:395] conv3_2_D_bn -> conv3_2_D (in-place)
I0608 11:32:23.324180 28577 net.cpp:150] Setting up conv3_2_D_bn
I0608 11:32:23.324184 28577 net.cpp:157] Top shape: 5 256 90 120 (13824000)
I0608 11:32:23.324187 28577 net.cpp:165] Memory required for data: 3701376000
I0608 11:32:23.324189 28577 layer_factory.hpp:77] Creating layer relu3_2_D
I0608 11:32:23.324193 28577 net.cpp:100] Creating Layer relu3_2_D
I0608 11:32:23.324196 28577 net.cpp:434] relu3_2_D <- conv3_2_D
I0608 11:32:23.324198 28577 net.cpp:395] relu3_2_D -> conv3_2_D (in-place)
I0608 11:32:23.324319 28577 net.cpp:150] Setting up relu3_2_D
I0608 11:32:23.324324 28577 net.cpp:157] Top shape: 5 256 90 120 (13824000)
I0608 11:32:23.324326 28577 net.cpp:165] Memory required for data: 3756672000
I0608 11:32:23.324327 28577 layer_factory.hpp:77] Creating layer conv3_1_D
I0608 11:32:23.324332 28577 net.cpp:100] Creating Layer conv3_1_D
I0608 11:32:23.324335 28577 net.cpp:434] conv3_1_D <- conv3_2_D
I0608 11:32:23.324338 28577 net.cpp:408] conv3_1_D -> conv3_1_D
I0608 11:32:23.330965 28577 net.cpp:150] Setting up conv3_1_D
I0608 11:32:23.330973 28577 net.cpp:157] Top shape: 5 128 90 120 (6912000)
I0608 11:32:23.330976 28577 net.cpp:165] Memory required for data: 3784320000
I0608 11:32:23.330979 28577 layer_factory.hpp:77] Creating layer conv3_1_D_bn
I0608 11:32:23.330984 28577 net.cpp:100] Creating Layer conv3_1_D_bn
I0608 11:32:23.330987 28577 net.cpp:434] conv3_1_D_bn <- conv3_1_D
I0608 11:32:23.330991 28577 net.cpp:395] conv3_1_D_bn -> conv3_1_D (in-place)
I0608 11:32:23.331241 28577 net.cpp:150] Setting up conv3_1_D_bn
I0608 11:32:23.331246 28577 net.cpp:157] Top shape: 5 128 90 120 (6912000)
I0608 11:32:23.331248 28577 net.cpp:165] Memory required for data: 3811968000
I0608 11:32:23.331251 28577 layer_factory.hpp:77] Creating layer relu3_1_D
I0608 11:32:23.331255 28577 net.cpp:100] Creating Layer relu3_1_D
I0608 11:32:23.331267 28577 net.cpp:434] relu3_1_D <- conv3_1_D
I0608 11:32:23.331270 28577 net.cpp:395] relu3_1_D -> conv3_1_D (in-place)
I0608 11:32:23.331389 28577 net.cpp:150] Setting up relu3_1_D
I0608 11:32:23.331394 28577 net.cpp:157] Top shape: 5 128 90 120 (6912000)
I0608 11:32:23.331396 28577 net.cpp:165] Memory required for data: 3839616000
I0608 11:32:23.331398 28577 layer_factory.hpp:77] Creating layer upsample2
I0608 11:32:23.331401 28577 net.cpp:100] Creating Layer upsample2
I0608 11:32:23.331404 28577 net.cpp:434] upsample2 <- conv3_1_D
I0608 11:32:23.331406 28577 net.cpp:434] upsample2 <- pool2_mask
I0608 11:32:23.331410 28577 net.cpp:408] upsample2 -> pool2_D
I0608 11:32:23.331414 28577 upsample_layer.cpp:27] Params 'pad_out_{}_' are deprecated. Please declare upsample height and width useing the upsample_h, upsample_w parameters.
I0608 11:32:23.331439 28577 net.cpp:150] Setting up upsample2
I0608 11:32:23.331441 28577 net.cpp:157] Top shape: 5 128 180 240 (27648000)
I0608 11:32:23.331444 28577 net.cpp:165] Memory required for data: 3950208000
I0608 11:32:23.331445 28577 layer_factory.hpp:77] Creating layer conv2_2_D
I0608 11:32:23.331449 28577 net.cpp:100] Creating Layer conv2_2_D
I0608 11:32:23.331452 28577 net.cpp:434] conv2_2_D <- pool2_D
I0608 11:32:23.331455 28577 net.cpp:408] conv2_2_D -> conv2_2_D
I0608 11:32:23.335018 28577 net.cpp:150] Setting up conv2_2_D
I0608 11:32:23.335026 28577 net.cpp:157] Top shape: 5 128 180 240 (27648000)
I0608 11:32:23.335028 28577 net.cpp:165] Memory required for data: 4060800000
I0608 11:32:23.335032 28577 layer_factory.hpp:77] Creating layer conv2_2_D_bn
I0608 11:32:23.335037 28577 net.cpp:100] Creating Layer conv2_2_D_bn
I0608 11:32:23.335039 28577 net.cpp:434] conv2_2_D_bn <- conv2_2_D
I0608 11:32:23.335043 28577 net.cpp:395] conv2_2_D_bn -> conv2_2_D (in-place)
I0608 11:32:23.335316 28577 net.cpp:150] Setting up conv2_2_D_bn
I0608 11:32:23.335321 28577 net.cpp:157] Top shape: 5 128 180 240 (27648000)
I0608 11:32:23.335322 28577 net.cpp:165] Memory required for data: 4171392000
I0608 11:32:23.335325 28577 layer_factory.hpp:77] Creating layer relu2_2_D
I0608 11:32:23.335330 28577 net.cpp:100] Creating Layer relu2_2_D
I0608 11:32:23.335332 28577 net.cpp:434] relu2_2_D <- conv2_2_D
I0608 11:32:23.335335 28577 net.cpp:395] relu2_2_D -> conv2_2_D (in-place)
I0608 11:32:23.335726 28577 net.cpp:150] Setting up relu2_2_D
I0608 11:32:23.335733 28577 net.cpp:157] Top shape: 5 128 180 240 (27648000)
I0608 11:32:23.335736 28577 net.cpp:165] Memory required for data: 4281984000
I0608 11:32:23.335738 28577 layer_factory.hpp:77] Creating layer conv2_1_D
I0608 11:32:23.335743 28577 net.cpp:100] Creating Layer conv2_1_D
I0608 11:32:23.335746 28577 net.cpp:434] conv2_1_D <- conv2_2_D
I0608 11:32:23.335749 28577 net.cpp:408] conv2_1_D -> conv2_1_D
I0608 11:32:23.338070 28577 net.cpp:150] Setting up conv2_1_D
I0608 11:32:23.338078 28577 net.cpp:157] Top shape: 5 64 180 240 (13824000)
I0608 11:32:23.338081 28577 net.cpp:165] Memory required for data: 4337280000
I0608 11:32:23.338084 28577 layer_factory.hpp:77] Creating layer conv2_1_D_bn
I0608 11:32:23.338089 28577 net.cpp:100] Creating Layer conv2_1_D_bn
I0608 11:32:23.338091 28577 net.cpp:434] conv2_1_D_bn <- conv2_1_D
I0608 11:32:23.338095 28577 net.cpp:395] conv2_1_D_bn -> conv2_1_D (in-place)
I0608 11:32:23.339077 28577 net.cpp:150] Setting up conv2_1_D_bn
I0608 11:32:23.339085 28577 net.cpp:157] Top shape: 5 64 180 240 (13824000)
I0608 11:32:23.339087 28577 net.cpp:165] Memory required for data: 4392576000
I0608 11:32:23.339090 28577 layer_factory.hpp:77] Creating layer relu2_1_D
I0608 11:32:23.339094 28577 net.cpp:100] Creating Layer relu2_1_D
I0608 11:32:23.339097 28577 net.cpp:434] relu2_1_D <- conv2_1_D
I0608 11:32:23.339100 28577 net.cpp:395] relu2_1_D -> conv2_1_D (in-place)
I0608 11:32:23.339226 28577 net.cpp:150] Setting up relu2_1_D
I0608 11:32:23.339229 28577 net.cpp:157] Top shape: 5 64 180 240 (13824000)
I0608 11:32:23.339232 28577 net.cpp:165] Memory required for data: 4447872000
I0608 11:32:23.339242 28577 layer_factory.hpp:77] Creating layer upsample1
I0608 11:32:23.339246 28577 net.cpp:100] Creating Layer upsample1
I0608 11:32:23.339247 28577 net.cpp:434] upsample1 <- conv2_1_D
I0608 11:32:23.339251 28577 net.cpp:434] upsample1 <- pool1_mask
I0608 11:32:23.339253 28577 net.cpp:408] upsample1 -> pool1_D
I0608 11:32:23.339257 28577 upsample_layer.cpp:27] Params 'pad_out_{}_' are deprecated. Please declare upsample height and width useing the upsample_h, upsample_w parameters.
I0608 11:32:23.339282 28577 net.cpp:150] Setting up upsample1
I0608 11:32:23.339285 28577 net.cpp:157] Top shape: 5 64 360 480 (55296000)
I0608 11:32:23.339287 28577 net.cpp:165] Memory required for data: 4669056000
I0608 11:32:23.339288 28577 layer_factory.hpp:77] Creating layer conv1_2_D
I0608 11:32:23.339293 28577 net.cpp:100] Creating Layer conv1_2_D
I0608 11:32:23.339296 28577 net.cpp:434] conv1_2_D <- pool1_D
I0608 11:32:23.339298 28577 net.cpp:408] conv1_2_D -> conv1_2_D
I0608 11:32:23.341512 28577 net.cpp:150] Setting up conv1_2_D
I0608 11:32:23.341521 28577 net.cpp:157] Top shape: 5 64 360 480 (55296000)
I0608 11:32:23.341522 28577 net.cpp:165] Memory required for data: 4890240000
I0608 11:32:23.341526 28577 layer_factory.hpp:77] Creating layer conv1_2_D_bn
I0608 11:32:23.341531 28577 net.cpp:100] Creating Layer conv1_2_D_bn
I0608 11:32:23.341533 28577 net.cpp:434] conv1_2_D_bn <- conv1_2_D
I0608 11:32:23.341536 28577 net.cpp:395] conv1_2_D_bn -> conv1_2_D (in-place)
I0608 11:32:23.341845 28577 net.cpp:150] Setting up conv1_2_D_bn
I0608 11:32:23.341850 28577 net.cpp:157] Top shape: 5 64 360 480 (55296000)
I0608 11:32:23.341852 28577 net.cpp:165] Memory required for data: 5111424000
I0608 11:32:23.341856 28577 layer_factory.hpp:77] Creating layer relu1_2_D
I0608 11:32:23.341858 28577 net.cpp:100] Creating Layer relu1_2_D
I0608 11:32:23.341861 28577 net.cpp:434] relu1_2_D <- conv1_2_D
I0608 11:32:23.341863 28577 net.cpp:395] relu1_2_D -> conv1_2_D (in-place)
I0608 11:32:23.341985 28577 net.cpp:150] Setting up relu1_2_D
I0608 11:32:23.341990 28577 net.cpp:157] Top shape: 5 64 360 480 (55296000)
I0608 11:32:23.341992 28577 net.cpp:165] Memory required for data: 5332608000
I0608 11:32:23.341995 28577 layer_factory.hpp:77] Creating layer conv1_1_D
I0608 11:32:23.342000 28577 net.cpp:100] Creating Layer conv1_1_D
I0608 11:32:23.342001 28577 net.cpp:434] conv1_1_D <- conv1_2_D
I0608 11:32:23.342005 28577 net.cpp:408] conv1_1_D -> conv1_1_D
I0608 11:32:23.343658 28577 net.cpp:150] Setting up conv1_1_D
I0608 11:32:23.343667 28577 net.cpp:157] Top shape: 5 3 360 480 (2592000)
I0608 11:32:23.343670 28577 net.cpp:165] Memory required for data: 5342976000
I0608 11:32:23.343674 28577 layer_factory.hpp:77] Creating layer conv1_1_D_conv1_1_D_0_split
I0608 11:32:23.343678 28577 net.cpp:100] Creating Layer conv1_1_D_conv1_1_D_0_split
I0608 11:32:23.343681 28577 net.cpp:434] conv1_1_D_conv1_1_D_0_split <- conv1_1_D
I0608 11:32:23.343684 28577 net.cpp:408] conv1_1_D_conv1_1_D_0_split -> conv1_1_D_conv1_1_D_0_split_0
I0608 11:32:23.343688 28577 net.cpp:408] conv1_1_D_conv1_1_D_0_split -> conv1_1_D_conv1_1_D_0_split_1
I0608 11:32:23.343735 28577 net.cpp:150] Setting up conv1_1_D_conv1_1_D_0_split
I0608 11:32:23.343739 28577 net.cpp:157] Top shape: 5 3 360 480 (2592000)
I0608 11:32:23.343742 28577 net.cpp:157] Top shape: 5 3 360 480 (2592000)
I0608 11:32:23.343744 28577 net.cpp:165] Memory required for data: 5363712000
I0608 11:32:23.343746 28577 layer_factory.hpp:77] Creating layer loss
I0608 11:32:23.343751 28577 net.cpp:100] Creating Layer loss
I0608 11:32:23.343755 28577 net.cpp:434] loss <- conv1_1_D_conv1_1_D_0_split_0
I0608 11:32:23.343756 28577 net.cpp:434] loss <- label_dataRGB_1_split_0
I0608 11:32:23.343760 28577 net.cpp:408] loss -> loss
I0608 11:32:23.343767 28577 layer_factory.hpp:77] Creating layer loss
I0608 11:32:23.347277 28577 net.cpp:150] Setting up loss
I0608 11:32:23.347295 28577 net.cpp:157] Top shape: (1)
I0608 11:32:23.347297 28577 net.cpp:160]     with loss weight 1
I0608 11:32:23.347317 28577 net.cpp:165] Memory required for data: 5363712004
I0608 11:32:23.347337 28577 layer_factory.hpp:77] Creating layer accuracy
I0608 11:32:23.347343 28577 net.cpp:100] Creating Layer accuracy
I0608 11:32:23.347347 28577 net.cpp:434] accuracy <- conv1_1_D_conv1_1_D_0_split_1
I0608 11:32:23.347353 28577 net.cpp:434] accuracy <- label_dataRGB_1_split_1
I0608 11:32:23.347357 28577 net.cpp:408] accuracy -> accuracy
I0608 11:32:23.347362 28577 net.cpp:408] accuracy -> per_class_accuracy
I0608 11:32:23.347425 28577 net.cpp:150] Setting up accuracy
I0608 11:32:23.347429 28577 net.cpp:157] Top shape: (1)
I0608 11:32:23.347431 28577 net.cpp:157] Top shape: 3 (3)
I0608 11:32:23.347434 28577 net.cpp:165] Memory required for data: 5363712020
I0608 11:32:23.347435 28577 net.cpp:228] accuracy does not need backward computation.
I0608 11:32:23.347437 28577 net.cpp:226] loss needs backward computation.
I0608 11:32:23.347440 28577 net.cpp:226] conv1_1_D_conv1_1_D_0_split needs backward computation.
I0608 11:32:23.347441 28577 net.cpp:226] conv1_1_D needs backward computation.
…
