…
  dense_image_data_param {
    source: "/home/mpopovic/workspace/weedNet-devel/SegNet-Tutorial/train_and_test_data/rit-18/5m_10m_15m_raw/trainir3.txt"
    batch_size: 5
    shuffle: false
    new_height: 360
    new_width: 480
    is_color: false
  }
}
layer {
  name: "dataRGB"
  type: "DenseImageData"
  top: "dataRGB"
  top: "label"
  dense_image_data_param {
    source: "/home/mpopovic/workspace/weedNet-devel/SegNet-Tutorial/train_and_test_data/rit-18/5m_10m_15m_raw/train.txt"
    batch_size: 5
    shuffle: false
    new_height: 360
    new_width: 480
    is_color: true
  }
}
layer {
  name: "data"
  type: "Concat"
  bottom: "dataIR1"
  bottom: "dataIR2"
  bottom: "dataIR3"
  bottom: "dataRGB"
  top: "data"
  concat_param {
    axis: 1
  }
}
layer {
  name: "multiconv1_1"
  type: "Convolution"
  bottom: "data"
  top: "conv1_1"
  param {
    lr_mult: 1
    decay_mult: 1
  }
  param {
    lr_mult: 2
    decay_mult: 0
  }
  convolution_param {
    num_output: 64
    pad: 1
    kernel_size: 3
    weight_filler {
      type: "msra"
    }
    bias_filler {
      type: "constant"
    }
  }
}
layer {
  name: "conv1_1_bn"
  type: "BN"
  bottom: "conv1_1"
  top: "conv1_1"
  param {
    lr_mult: 1
    decay_mult: 1
  }
  param {
    lr_mult: 1
    decay_mult: 0
  }
  bn_param {
    scale_filler {
      type: "constant"
      value: 1
    }
    shift_filler {
      type: "constant"
      value: 0.001
    }
  }
}
layer {
  name: "relu1_1"
  type: "ReLU"
  bottom: "conv1_1"
  top: "conv1_1"
}
layer {
  name: "conv1_2"
  type: "Convolution"
  bottom: "conv1_1"
  top: "conv1_2"
  param {
    lr_mult: 1
    decay_mult: 1
  }
  param {
    lr_mult: 2
    decay_mult: 0
  }
  convolution_param {
    num_output: 64
    pad: 1
    kernel_size: 3
    weight_filler {
      type: "msra"
    }
    bias_filler {
      type: "constant"
    }
  }
}
layer {
  name: "conv1_2_bn"
  type: "BN"
  bottom: "conv1_2"
  top: "conv1_2"
  param {
    lr_mult: 1
    decay_mult: 1
  }
  param {
    lr_mult: 1
    decay_mult: 0
  }
  bn_param {
    scale_filler {
      type: "constant"
      value: 1
    }
    shift_filler {
      type: "constant"
      value: 0.001
    }
  }
}
layer {
  name: "relu1_2"
  type: "ReLU"
  bottom: "conv1_2"
  top: "conv1_2"
}
layer {
  name: "pool1"
  type: "Pooling"
  bottom: "conv1_2"
  top: "pool1"
  top: "pool1_mask"
  pooling_param {
    pool: MAX
    kernel_size: 2
    stride: 2
  }
}
layer {
  name: "conv2_1"
  type: "Convolution"
  bottom: "pool1"
  top: "conv2_1"
  param {
    lr_mult: 1
    decay_mult: 1
  }
  param {
    lr_mult: 2
    decay_mult: 0
  }
  convolution_param {
    num_output: 128
    pad: 1
    kernel_size: 3
    weight_filler {
      type: "msra"
    }
    bias_filler {
      type: "constant"
    }
  }
}
layer {
  name: "conv2_1_bn"
  type: "BN"
  bottom: "conv2_1"
  top: "conv2_1"
  param {
    lr_mult: 1
    decay_mult: 1
  }
  param {
    lr_mult: 1
    decay_mult: 0
  }
  bn_param {
    scale_filler {
      type: "constant"
      value: 1
    }
    shift_filler {
      type: "constant"
      value: 0.001
    }
  }
}
layer {
  name: "relu2_1"
  type: "ReLU"
  bottom: "conv2_1"
  top: "conv2_1"
}
layer {
  name: "conv2_2"
  type: "Convolution"
  bottom: "conv2_1"
  top: "conv2_2"
  param {
    lr_mult: 1
    decay_mult: 1
  }
  param {
    lr_mult: 2
    decay_mult: 0
  }
  convolution_param {
    num_output: 128
    pad: 1
    kernel_size: 3
    weight_filler {
      type: "msra"
    }
    bias_filler {
      type: "constant"
    }
  }
}
layer {
  name: "conv2_2_bn"
  type: "BN"
  bottom: "conv2_2"
  top: "conv2_2"
  param {
    lr_mult: 1
    decay_mult: 1
  }
  param {
    lr_mult: 1
    decay_mult: 0
  }
  bn_param {
    scale_filler {
      type: "constant"
      value: 1
    }
    shift_filler {
      type: "constant"
      value: 0.001
    }
  }
}
layer {
  name: "relu2_2"
  type: "ReLU"
  bottom: "conv2_2"
  top: "conv2_2"
}
layer {
  name: "pool2"
  type: "Pooling"
  bottom: "conv2_2"
  top: "pool2"
  top: "pool2_mask"
  pooling_param {
    pool: MAX
    kernel_size: 2
    stride: 2
  }
}
layer {
  name: "conv3_1"
  type: "Convolution"
  bottom: "pool2"
  top: "conv3_1"
  param {
    lr_mult: 1
    decay_mult: 1
  }
  param {
    lr_mult: 2
    decay_mult: 0
  }
  convolution_param {
    num_output: 256
    pad: 1
    kernel_size: 3
    weight_filler {
      type: "msra"
    }
    bias_filler {
      type: "constant"
    }
  }
}
layer {
  name: "conv3_1_bn"
  type: "BN"
  bottom: "conv3_1"
  top: "conv3_1"
  param {
    lr_mult: 1
    decay_mult: 1
  }
  param {
    lr_mult: 1
    decay_mult: 0
  }
  bn_param {
    scale_filler {
      type: "constant"
      value: 1
    }
    shift_filler {
      type: "constant"
      value: 0.001
    }
  }
}
layer {
  name: "relu3_1"
  type: "ReLU"
  bottom: "conv3_1"
  top: "conv3_1"
}
layer {
  name: "conv3_2"
  type: "Convolution"
  bottom: "conv3_1"
  top: "conv3_2"
  param {
    lr_mult: 1
    decay_mult: 1
  }
  param {
    lr_mult: 2
    decay_mult: 0
  }
  convolution_param {
    num_output: 256
    pad: 1
    kernel_size: 3
    weight_filler {
      type: "msra"
    }
    bias_filler {
      type: "constant"
    }
  }
}
layer {
  name: "conv3_2_bn"
  type: "BN"
  bottom: "conv3_2"
  top: "conv3_2"
  param {
    lr_mult: 1
    decay_mult: 1
  }
  param {
    lr_mult: 1
    decay_mult: 0
  }
  bn_param {
    scale_filler {
      type: "constant"
      value: 1
    }
    shift_filler {
      type: "constant"
      value: 0.001
    }
  }
}
layer {
  name: "relu3_2"
  type: "ReLU"
  bottom: "conv3_2"
  top: "conv3_2"
}
layer {
  name: "conv3_3"
  type: "Convolution"
  bottom: "conv3_2"
  top: "conv3_3"
  param {
    lr_mult: 1
    decay_mult: 1
  }
  param {
    lr_mult: 2
    decay_mult: 0
  }
  convolution_param {
    num_output: 256
    pad: 1
    kernel_size: 3
    weight_filler {
      type: "msra"
    }
    bias_filler {
      type: "constant"
    }
  }
}
layer {
  name: "conv3_3_bn"
  type: "BN"
  bottom: "conv3_3"
  top: "conv3_3"
  param {
    lr_mult: 1
    decay_mult: 1
  }
  param {
    lr_mult: 1
    decay_mult: 0
  }
  bn_param {
    scale_filler {
      type: "constant"
      value: 1
    }
    shift_filler {
      type: "constant"
      value: 0.001
    }
  }
}
layer {
  name: "relu3_3"
  type: "ReLU"
  bottom: "conv3_3"
  top: "conv3_3"
}
layer {
  name: "pool3"
  type: "Pooling"
  bottom: "conv3_3"
  top: "pool3"
  top: "pool3_mask"
  pooling_param {
    pool: MAX
    kernel_size: 2
    stride: 2
  }
}
layer {
  name: "conv4_1"
  type: "Convolution"
  bottom: "pool3"
  top: "conv4_1"
  param {
    lr_mult: 1
    decay_mult: 1
  }
  param {
    lr_mult: 2
    decay_mult: 0
  }
  convolution_param {
    num_output: 512
    pad: 1
    kernel_size: 3
    weight_filler {
      type: "msra"
    }
    bias_filler {
      type: "constant"
    }
  }
}
layer {
  name: "conv4_1_bn"
  type: "BN"
  bottom: "conv4_1"
  top: "conv4_1"
  param {
    lr_mult: 1
    decay_mult: 1
  }
  param {
    lr_mult: 1
    decay_mult: 0
  }
  bn_param {
    scale_filler {
      type: "constant"
      value: 1
    }
    shift_filler {
      type: "constant"
      value: 0.001
    }
  }
}
layer {
  name: "relu4_1"
  type: "ReLU"
  bottom: "conv4_1"
  top: "conv4_1"
}
layer {
  name: "conv4_2"
  type: "Convolution"
  bottom: "conv4_1"
  top: "conv4_2"
  param {
    lr_mult: 1
    decay_mult: 1
  }
  param {
    lr_mult: 2
    decay_mult: 0
  }
  convolution_param {
    num_output: 512
    pad: 1
    kernel_size: 3
    weight_filler {
      type: "msra"
    }
    bias_filler {
      type: "constant"
    }
  }
}
layer {
  name: "conv4_2_bn"
  type: "BN"
  bottom: "conv4_2"
  top: "conv4_2"
  param {
    lr_mult: 1
    decay_mult: 1
  }
  param {
    lr_mult: 1
    decay_mult: 0
  }
  bn_param {
    scale_filler {
      type: "constant"
      value: 1
    }
    shift_filler {
      type: "constant"
      value: 0.001
    }
  }
}
layer {
  name: "relu4_2"
  type: "ReLU"
  bottom: "conv4_2"
  top: "conv4_2"
}
layer {
  name: "conv4_3"
  type: "Convolution"
  bottom: "conv4_2"
  top: "conv4_3"
  param {
    lr_mult: 1
    decay_mult: 1
  }
  param {
    lr_mult: 2
    decay_mult: 0
  }
  convolution_param {
    num_output: 512
    pad: 1
    kernel_size: 3
    weight_filler {
      type: "msra"
    }
    bias_filler {
      type: "constant"
    }
  }
}
layer {
  name: "conv4_3_bn"
  type: "BN"
  bottom: "conv4_3"
  top: "conv4_3"
  param {
    lr_mult: 1
    decay_mult: 1
  }
  param {
    lr_mult: 1
    decay_mult: 0
  }
  bn_param {
    scale_filler {
      type: "constant"
      value: 1
    }
    shift_filler {
      type: "constant"
      value: 0.001
    }
  }
}
layer {
  name: "relu4_3"
  type: "ReLU"
  bottom: "conv4_3"
  top: "conv4_3"
}
layer {
  name: "pool4"
  type: "Pooling"
  bottom: "conv4_3"
  top: "pool4"
  top: "pool4_mask"
  pooling_param {
    pool: MAX
    kernel_size: 2
    stride: 2
  }
}
layer {
  name: "conv5_1"
  type: "Convolution"
  bottom: "pool4"
  top: "conv5_1"
  param {
    lr_mult: 1
    decay_mult: 1
  }
  param {
    lr_mult: 2
    decay_mult: 0
  }
  convolution_param {
    num_output: 512
    pad: 1
    kernel_size: 3
    weight_filler {
      type: "msra"
    }
    bias_filler {
      type: "constant"
    }
  }
}
layer {
  name: "conv5_1_bn"
  type: "BN"
  bottom: "conv5_1"
  top: "conv5_1"
  param {
    lr_mult: 1
    decay_mult: 1
  }
  param {
    lr_mult: 1
    decay_mult: 0
  }
  bn_param {
    scale_filler {
      type: "constant"
      value: 1
    }
    shift_filler {
      type: "constant"
      value: 0.001
    }
  }
}
layer {
  name: "relu5_1"
  type: "ReLU"
  bottom: "conv5_1"
  top: "conv5_1"
}
layer {
  name: "conv5_2"
  type: "Convolution"
  bottom: "conv5_1"
  top: "conv5_2"
  param {
    lr_mult: 1
    decay_mult: 1
  }
  param {
    lr_mult: 2
    decay_mult: 0
  }
  convolution_param {
    num_output: 512
    pad: 1
    kernel_size: 3
    weight_filler {
      type: "msra"
    }
    bias_filler {
      type: "constant"
    }
  }
}
layer {
  name: "conv5_2_bn"
  type: "BN"
  bottom: "conv5_2"
  top: "conv5_2"
  param {
    lr_mult: 1
    decay_mult: 1
  }
  param {
    lr_mult: 1
    decay_mult: 0
  }
  bn_param {
    scale_filler {
      type: "constant"
      value: 1
    }
    shift_filler {
      type: "constant"
      value: 0.001
    }
  }
}
layer {
  name: "relu5_2"
  type: "ReLU"
  bottom: "conv5_2"
  top: "conv5_2"
}
layer {
  name: "conv5_3"
  type: "Convolution"
  bottom: "conv5_2"
  top: "conv5_3"
  param {
    lr_mult: 1
    decay_mult: 1
  }
  param {
    lr_mult: 2
    decay_mult: 0
  }
  convolution_param {
    num_output: 512
    pad: 1
    kernel_size: 3
    weight_filler {
      type: "msra"
    }
    bias_filler {
      type: "constant"
    }
  }
}
layer {
  name: "conv5_3_bn"
  type: "BN"
  bottom: "conv5_3"
  top: "conv5_3"
  param {
    lr_mult: 1
    decay_mult: 1
  }
  param {
    lr_mult: 1
    decay_mult: 0
  }
  bn_param {
    scale_filler {
      type: "constant"
      value: 1
    }
    shift_filler {
      type: "constant"
      value: 0.001
    }
  }
}
layer {
  name: "relu5_3"
  type: "ReLU"
  bottom: "conv5_3"
  top: "conv5_3"
}
layer {
  name: "pool5"
  type: "Pooling"
  bottom: "conv5_3"
  top: "pool5"
  top: "pool5_mask"
  pooling_param {
    pool: MAX
    kernel_size: 2
    stride: 2
  }
}
layer {
  name: "upsample5"
  type: "Upsample"
  bottom: "pool5"
  bottom: "pool5_mask"
  top: "pool5_D"
  upsample_param {
    scale: 2
    upsample_h: 23
    upsample_w: 30
  }
}
layer {
  name: "conv5_3_D"
  type: "Convolution"
  bottom: "pool5_D"
  top: "conv5_3_D"
  param {
    lr_mult: 1
    decay_mult: 1
  }
  param {
    lr_mult: 2
    decay_mult: 0
  }
  convolution_param {
    num_output: 512
    pad: 1
    kernel_size: 3
    weight_filler {
      type: "msra"
    }
    bias_filler {
      type: "constant"
    }
  }
}
layer {
  name: "conv5_3_D_bn"
  type: "BN"
  bottom: "conv5_3_D"
  top: "conv5_3_D"
  param {
    lr_mult: 1
    decay_mult: 1
  }
  param {
    lr_mult: 1
    decay_mult: 0
  }
  bn_param {
    scale_filler {
      type: "constant"
      value: 1
    }
    shift_filler {
      type: "constant"
      value: 0.001
    }
  }
}
layer {
  name: "relu5_3_D"
  type: "ReLU"
  bottom: "conv5_3_D"
  top: "conv5_3_D"
}
layer {
  name: "conv5_2_D"
  type: "Convolution"
  bottom: "conv5_3_D"
  top: "conv5_2_D"
  param {
    lr_mult: 1
    decay_mult: 1
  }
  param {
    lr_mult: 2
    decay_mult: 0
  }
  convolution_param {
    num_output: 512
    pad: 1
    kernel_size: 3
    weight_filler {
      type: "msra"
    }
    bias_filler {
      type: "constant"
    }
  }
}
layer {
  name: "conv5_2_D_bn"
  type: "BN"
  bottom: "conv5_2_D"
  top: "conv5_2_D"
  param {
    lr_mult: 1
    decay_mult: 1
  }
  param {
    lr_mult: 1
    decay_mult: 0
  }
  bn_param {
    scale_filler {
      type: "constant"
      value: 1
    }
    shift_filler {
      type: "constant"
      value: 0.001
    }
  }
}
layer {
  name: "relu5_2_D"
  type: "ReLU"
  bottom: "conv5_2_D"
  top: "conv5_2_D"
}
layer {
  name: "conv5_1_D"
  type: "Convolution"
  bottom: "conv5_2_D"
  top: "conv5_1_D"
  param {
    lr_mult: 1
    decay_mult: 1
  }
  param {
    lr_mult: 2
    decay_mult: 0
  }
  convolution_param {
    num_output: 512
    pad: 1
    kernel_size: 3
    weight_filler {
      type: "msra"
    }
    bias_filler {
      type: "constant"
    }
  }
}
layer {
  name: "conv5_1_D_bn"
  type: "BN"
  bottom: "conv5_1_D"
  top: "conv5_1_D"
  param {
    lr_mult: 1
    decay_mult: 1
  }
  param {
    lr_mult: 1
    decay_mult: 0
  }
  bn_param {
    scale_filler {
      type: "constant"
      value: 1
    }
    shift_filler {
      type: "constant"
      value: 0.001
    }
  }
}
layer {
  name: "relu5_1_D"
  type: "ReLU"
  bottom: "conv5_1_D"
  top: "conv5_1_D"
}
layer {
  name: "upsample4"
  type: "Upsample"
  bottom: "conv5_1_D"
  bottom: "pool4_mask"
  top: "pool4_D"
  upsample_param {
    scale: 2
    upsample_h: 45
    upsample_w: 60
  }
}
layer {
  name: "conv4_3_D"
  type: "Convolution"
  bottom: "pool4_D"
  top: "conv4_3_D"
  param {
    lr_mult: 1
    decay_mult: 1
  }
  param {
    lr_mult: 2
    decay_mult: 0
  }
  convolution_param {
    num_output: 512
    pad: 1
    kernel_size: 3
    weight_filler {
      type: "msra"
    }
    bias_filler {
      type: "constant"
    }
  }
}
layer {
  name: "conv4_3_D_bn"
  type: "BN"
  bottom: "conv4_3_D"
  top: "conv4_3_D"
  param {
    lr_mult: 1
    decay_mult: 1
  }
  param {
    lr_mult: 1
    decay_mult: 0
  }
  bn_param {
    scale_filler {
      type: "constant"
      value: 1
    }
    shift_filler {
      type: "constant"
      value: 0.001
    }
  }
}
layer {
  name: "relu4_3_D"
  type: "ReLU"
  bottom: "conv4_3_D"
  top: "conv4_3_D"
}
layer {
  name: "conv4_2_D"
  type: "Convolution"
  bottom: "conv4_3_D"
  top: "conv4_2_D"
  param {
    lr_mult: 1
    decay_mult: 1
  }
  param {
    lr_mult: 2
    decay_mult: 0
  }
  convolution_param {
    num_output: 512
    pad: 1
    kernel_size: 3
    weight_filler {
      type: "msra"
    }
    bias_filler {
      type: "constant"
    }
  }
}
layer {
  name: "conv4_2_D_bn"
  type: "BN"
  bottom: "conv4_2_D"
  top: "conv4_2_D"
  param {
    lr_mult: 1
    decay_mult: 1
  }
  param {
    lr_mult: 1
    decay_mult: 0
  }
  bn_param {
    scale_filler {
      type: "constant"
      value: 1
    }
    shift_filler {
      type: "constant"
      value: 0.001
    }
  }
}
layer {
  name: "relu4_2_D"
  type: "ReLU"
  bottom: "conv4_2_D"
  top: "conv4_2_D"
}
layer {
  name: "conv4_1_D"
  type: "Convolution"
  bottom: "conv4_2_D"
  top: "conv4_1_D"
  param {
    lr_mult: 1
    decay_mult: 1
  }
  param {
    lr_mult: 2
    decay_mult: 0
  }
  convolution_param {
    num_output: 256
    pad: 1
    kernel_size: 3
    weight_filler {
      type: "msra"
    }
    bias_filler {
      type: "constant"
    }
  }
}
layer {
  name: "conv4_1_D_bn"
  type: "BN"
  bottom: "conv4_1_D"
  top: "conv4_1_D"
  param {
    lr_mult: 1
    decay_mult: 1
  }
  param {
    lr_mult: 1
    decay_mult: 0
  }
  bn_param {
    scale_filler {
      type: "constant"
      value: 1
    }
    shift_filler {
      type: "constant"
      value: 0.001
    }
  }
}
layer {
  name: "relu4_1_D"
  type: "ReLU"
  bottom: "conv4_1_D"
  top: "conv4_1_D"
}
layer {
  name: "upsample3"
  type: "Upsample"
  bottom: "conv4_1_D"
  bottom: "pool3_mask"
  top: "pool3_D"
  upsample_param {
    scale: 2
  }
}
layer {
  name: "conv3_3_D"
  type: "Convolution"
  bottom: "pool3_D"
  top: "conv3_3_D"
  param {
    lr_mult: 1
    decay_mult: 1
  }
  param {
    lr_mult: 2
    decay_mult: 0
  }
  convolution_param {
    num_output: 256
    pad: 1
    kernel_size: 3
    weight_filler {
      type: "msra"
    }
    bias_filler {
      type: "constant"
    }
  }
}
layer {
  name: "conv3_3_D_bn"
  type: "BN"
  bottom: "conv3_3_D"
  top: "conv3_3_D"
  param {
    lr_mult: 1
    decay_mult: 1
  }
  param {
    lr_mult: 1
    decay_mult: 0
  }
  bn_param {
    scale_filler {
      type: "constant"
      value: 1
    }
    shift_filler {
      type: "constant"
      value: 0.001
    }
  }
}
layer {
  name: "relu3_3_D"
  type: "ReLU"
  bottom: "conv3_3_D"
  top: "conv3_3_D"
}
layer {
  name: "conv3_2_D"
  type: "Convolution"
  bottom: "conv3_3_D"
  top: "conv3_2_D"
  param {
    lr_mult: 1
    decay_mult: 1
  }
  param {
    lr_mult: 2
    decay_mult: 0
  }
  convolution_param {
    num_output: 256
    pad: 1
    kernel_size: 3
    weight_filler {
      type: "msra"
    }
    bias_filler {
      type: "constant"
    }
  }
}
layer {
  name: "conv3_2_D_bn"
  type: "BN"
  bottom: "conv3_2_D"
  top: "conv3_2_D"
  param {
    lr_mult: 1
    decay_mult: 1
  }
  param {
    lr_mult: 1
    decay_mult: 0
  }
  bn_param {
    scale_filler {
      type: "constant"
      value: 1
    }
    shift_filler {
      type: "constant"
      value: 0.001
    }
  }
}
layer {
  name: "relu3_2_D"
  type: "ReLU"
  bottom: "conv3_2_D"
  top: "conv3_2_D"
}
layer {
  name: "conv3_1_D"
  type: "Convolution"
  bottom: "conv3_2_D"
  top: "conv3_1_D"
  param {
    lr_mult: 1
    decay_mult: 1
  }
  param {
    lr_mult: 2
    decay_mult: 0
  }
  convolution_param {
    num_output: 128
    pad: 1
    kernel_size: 3
    weight_filler {
      type: "msra"
    }
    bias_filler {
      type: "constant"
    }
  }
}
layer {
  name: "conv3_1_D_bn"
  type: "BN"
  bottom: "conv3_1_D"
  top: "conv3_1_D"
  param {
    lr_mult: 1
    decay_mult: 1
  }
  param {
    lr_mult: 1
    decay_mult: 0
  }
  bn_param {
    scale_filler {
      type: "constant"
      value: 1
    }
    shift_filler {
      type: "constant"
      value: 0.001
    }
  }
}
layer {
  name: "relu3_1_D"
  type: "ReLU"
  bottom: "conv3_1_D"
  top: "conv3_1_D"
}
layer {
  name: "upsample2"
  type: "Upsample"
  bottom: "conv3_1_D"
  bottom: "pool2_mask"
  top: "pool2_D"
  upsample_param {
    scale: 2
  }
}
layer {
  name: "conv2_2_D"
  type: "Convolution"
  bottom: "pool2_D"
  top: "conv2_2_D"
  param {
    lr_mult: 1
    decay_mult: 1
  }
  param {
    lr_mult: 2
    decay_mult: 0
  }
  convolution_param {
    num_output: 128
    pad: 1
    kernel_size: 3
    weight_filler {
      type: "msra"
    }
    bias_filler {
      type: "constant"
    }
  }
}
layer {
  name: "conv2_2_D_bn"
  type: "BN"
  bottom: "conv2_2_D"
  top: "conv2_2_D"
  param {
    lr_mult: 1
    decay_mult: 1
  }
  param {
    lr_mult: 1
    decay_mult: 0
  }
  bn_param {
    scale_filler {
      type: "constant"
      value: 1
    }
    shift_filler {
      type: "constant"
      value: 0.001
    }
  }
}
layer {
  name: "relu2_2_D"
  type: "ReLU"
  bottom: "conv2_2_D"
  top: "conv2_2_D"
}
layer {
  name: "conv2_1_D"
  type: "Convolution"
  bottom: "conv2_2_D"
  top: "conv2_1_D"
  param {
    lr_mult: 1
    decay_mult: 1
  }
  param {
    lr_mult: 2
    decay_mult: 0
  }
  convolution_param {
    num_output: 64
    pad: 1
    kernel_size: 3
    weight_filler {
      type: "msra"
    }
    bias_filler {
      type: "constant"
    }
  }
}
layer {
  name: "conv2_1_D_bn"
  type: "BN"
  bottom: "conv2_1_D"
  top: "conv2_1_D"
  param {
    lr_mult: 1
    decay_mult: 1
  }
  param {
    lr_mult: 1
    decay_mult: 0
  }
  bn_param {
    scale_filler {
      type: "constant"
      value: 1
    }
    shift_filler {
      type: "constant"
      value: 0.001
    }
  }
}
layer {
  name: "relu2_1_D"
  type: "ReLU"
  bottom: "conv2_1_D"
  top: "conv2_1_D"
}
layer {
  name: "upsample1"
  type: "Upsample"
  bottom: "conv2_1_D"
  bottom: "pool1_mask"
  top: "pool1_D"
  upsample_param {
    scale: 2
  }
}
layer {
  name: "conv1_2_D"
  type: "Convolution"
  bottom: "pool1_D"
  top: "conv1_2_D"
  param {
    lr_mult: 1
    decay_mult: 1
  }
  param {
    lr_mult: 2
    decay_mult: 0
  }
  convolution_param {
    num_output: 64
    pad: 1
    kernel_size: 3
    weight_filler {
      type: "msra"
    }
    bias_filler {
      type: "constant"
    }
  }
}
layer {
  name: "conv1_2_D_bn"
  type: "BN"
  bottom: "conv1_2_D"
  top: "conv1_2_D"
  param {
    lr_mult: 1
    decay_mult: 1
  }
  param {
    lr_mult: 1
    decay_mult: 0
  }
  bn_param {
    scale_filler {
      type: "constant"
      value: 1
    }
    shift_filler {
      type: "constant"
      value: 0.001
    }
  }
}
layer {
  name: "relu1_2_D"
  type: "ReLU"
  bottom: "conv1_2_D"
  top: "conv1_2_D"
}
layer {
  name: "conv1_1_D"
  type: "Convolution"
  bottom: "conv1_2_D"
  top: "conv1_1_D"
  param {
    lr_mult: 1
    decay_mult: 1
  }
  param {
    lr_mult: 2
    decay_mult: 0
  }
  convolution_param {
    num_output: 3
    pad: 1
    kernel_size: 3
    weight_filler {
      type: "msra"
    }
    bias_filler {
      type: "constant"
    }
  }
}
layer {
  name: "loss"
  type: "SoftmaxWithLoss"
  bottom: "conv1_1_D"
  bottom: "label"
  top: "loss"
  loss_param {
    weight_by_label_freqs: true
    class_weighting: 1
    class_weighting: 0.7817
    class_weighting: 1.4893
  }
  softmax_param {
    engine: CAFFE
  }
}
layer {
  name: "accuracy"
  type: "Accuracy"
  bottom: "conv1_1_D"
  bottom: "label"
  top: "accuracy"
  top: "per_class_accuracy"
}
I0613 09:47:22.092180 20477 layer_factory.hpp:77] Creating layer dataIR1
I0613 09:47:22.092196 20477 net.cpp:100] Creating Layer dataIR1
I0613 09:47:22.092201 20477 net.cpp:408] dataIR1 -> dataIR1
I0613 09:47:22.092222 20477 dense_image_only_data_layer.cpp:49] Opening file /home/mpopovic/workspace/weedNet-devel/SegNet-Tutorial/train_and_test_data/rit-18/5m_10m_15m_raw/trainir1.txt
I0613 09:47:22.092509 20477 dense_image_only_data_layer.cpp:65] A total of 818 examples.
I0613 09:47:22.116986 20477 dense_image_only_data_layer.cpp:118] output data size: 5,1,360,480
I0613 09:47:22.117803 20477 net.cpp:150] Setting up dataIR1
I0613 09:47:22.117823 20477 net.cpp:157] Top shape: 5 1 360 480 (864000)
I0613 09:47:22.117827 20477 net.cpp:165] Memory required for data: 3456000
I0613 09:47:22.117846 20477 layer_factory.hpp:77] Creating layer dataIR2
I0613 09:47:22.117858 20477 net.cpp:100] Creating Layer dataIR2
I0613 09:47:22.117862 20477 net.cpp:408] dataIR2 -> dataIR2
I0613 09:47:22.117875 20477 dense_image_only_data_layer.cpp:49] Opening file /home/mpopovic/workspace/weedNet-devel/SegNet-Tutorial/train_and_test_data/rit-18/5m_10m_15m_raw/trainir2.txt
I0613 09:47:22.118067 20477 dense_image_only_data_layer.cpp:65] A total of 818 examples.
I0613 09:47:22.123139 20477 dense_image_only_data_layer.cpp:118] output data size: 5,1,360,480
I0613 09:47:22.125880 20477 net.cpp:150] Setting up dataIR2
I0613 09:47:22.125907 20477 net.cpp:157] Top shape: 5 1 360 480 (864000)
I0613 09:47:22.125910 20477 net.cpp:165] Memory required for data: 6912000
I0613 09:47:22.125916 20477 layer_factory.hpp:77] Creating layer dataIR3
I0613 09:47:22.125926 20477 net.cpp:100] Creating Layer dataIR3
I0613 09:47:22.125934 20477 net.cpp:408] dataIR3 -> dataIR3
I0613 09:47:22.125946 20477 dense_image_only_data_layer.cpp:49] Opening file /home/mpopovic/workspace/weedNet-devel/SegNet-Tutorial/train_and_test_data/rit-18/5m_10m_15m_raw/trainir3.txt
I0613 09:47:22.126147 20477 dense_image_only_data_layer.cpp:65] A total of 818 examples.
I0613 09:47:22.132513 20477 dense_image_only_data_layer.cpp:118] output data size: 5,1,360,480
I0613 09:47:22.133473 20477 net.cpp:150] Setting up dataIR3
I0613 09:47:22.133484 20477 net.cpp:157] Top shape: 5 1 360 480 (864000)
I0613 09:47:22.133486 20477 net.cpp:165] Memory required for data: 10368000
I0613 09:47:22.133491 20477 layer_factory.hpp:77] Creating layer dataRGB
I0613 09:47:22.133497 20477 net.cpp:100] Creating Layer dataRGB
I0613 09:47:22.133502 20477 net.cpp:408] dataRGB -> dataRGB
I0613 09:47:22.133507 20477 net.cpp:408] dataRGB -> label
I0613 09:47:22.133517 20477 dense_image_data_layer.cpp:49] Opening file /home/mpopovic/workspace/weedNet-devel/SegNet-Tutorial/train_and_test_data/rit-18/5m_10m_15m_raw/train.txt
I0613 09:47:22.134580 20477 dense_image_data_layer.cpp:64] A total of 818 examples.
I0613 09:47:22.148771 20477 dense_image_data_layer.cpp:117] output data size: 5,3,360,480
I0613 09:47:22.154886 20477 net.cpp:150] Setting up dataRGB
I0613 09:47:22.154907 20477 net.cpp:157] Top shape: 5 3 360 480 (2592000)
I0613 09:47:22.154911 20477 net.cpp:157] Top shape: 5 1 360 480 (864000)
I0613 09:47:22.154913 20477 net.cpp:165] Memory required for data: 24192000
I0613 09:47:22.154918 20477 layer_factory.hpp:77] Creating layer label_dataRGB_1_split
I0613 09:47:22.154930 20477 net.cpp:100] Creating Layer label_dataRGB_1_split
I0613 09:47:22.154938 20477 net.cpp:434] label_dataRGB_1_split <- label
I0613 09:47:22.154950 20477 net.cpp:408] label_dataRGB_1_split -> label_dataRGB_1_split_0
I0613 09:47:22.154956 20477 net.cpp:408] label_dataRGB_1_split -> label_dataRGB_1_split_1
I0613 09:47:22.155004 20477 net.cpp:150] Setting up label_dataRGB_1_split
I0613 09:47:22.155009 20477 net.cpp:157] Top shape: 5 1 360 480 (864000)
I0613 09:47:22.155014 20477 net.cpp:157] Top shape: 5 1 360 480 (864000)
I0613 09:47:22.155015 20477 net.cpp:165] Memory required for data: 31104000
I0613 09:47:22.155019 20477 layer_factory.hpp:77] Creating layer data
I0613 09:47:22.155026 20477 net.cpp:100] Creating Layer data
I0613 09:47:22.155037 20477 net.cpp:434] data <- dataIR1
I0613 09:47:22.155043 20477 net.cpp:434] data <- dataIR2
I0613 09:47:22.155047 20477 net.cpp:434] data <- dataIR3
I0613 09:47:22.155050 20477 net.cpp:434] data <- dataRGB
I0613 09:47:22.155055 20477 net.cpp:408] data -> data
I0613 09:47:22.155072 20477 net.cpp:150] Setting up data
I0613 09:47:22.155077 20477 net.cpp:157] Top shape: 5 6 360 480 (5184000)
I0613 09:47:22.155081 20477 net.cpp:165] Memory required for data: 51840000
I0613 09:47:22.155084 20477 layer_factory.hpp:77] Creating layer multiconv1_1
I0613 09:47:22.155094 20477 net.cpp:100] Creating Layer multiconv1_1
I0613 09:47:22.155097 20477 net.cpp:434] multiconv1_1 <- data
I0613 09:47:22.155102 20477 net.cpp:408] multiconv1_1 -> conv1_1
I0613 09:47:23.149214 20477 net.cpp:150] Setting up multiconv1_1
I0613 09:47:23.149245 20477 net.cpp:157] Top shape: 5 64 360 480 (55296000)
I0613 09:47:23.149247 20477 net.cpp:165] Memory required for data: 273024000
I0613 09:47:23.149261 20477 layer_factory.hpp:77] Creating layer conv1_1_bn
I0613 09:47:23.149272 20477 net.cpp:100] Creating Layer conv1_1_bn
I0613 09:47:23.149276 20477 net.cpp:434] conv1_1_bn <- conv1_1
I0613 09:47:23.149282 20477 net.cpp:395] conv1_1_bn -> conv1_1 (in-place)
I0613 09:47:23.149565 20477 net.cpp:150] Setting up conv1_1_bn
I0613 09:47:23.149572 20477 net.cpp:157] Top shape: 5 64 360 480 (55296000)
I0613 09:47:23.149575 20477 net.cpp:165] Memory required for data: 494208000
I0613 09:47:23.149582 20477 layer_factory.hpp:77] Creating layer relu1_1
I0613 09:47:23.149588 20477 net.cpp:100] Creating Layer relu1_1
I0613 09:47:23.149592 20477 net.cpp:434] relu1_1 <- conv1_1
I0613 09:47:23.149596 20477 net.cpp:395] relu1_1 -> conv1_1 (in-place)
I0613 09:47:23.149732 20477 net.cpp:150] Setting up relu1_1
I0613 09:47:23.149765 20477 net.cpp:157] Top shape: 5 64 360 480 (55296000)
I0613 09:47:23.149780 20477 net.cpp:165] Memory required for data: 715392000
I0613 09:47:23.149783 20477 layer_factory.hpp:77] Creating layer conv1_2
I0613 09:47:23.149792 20477 net.cpp:100] Creating Layer conv1_2
I0613 09:47:23.149796 20477 net.cpp:434] conv1_2 <- conv1_1
I0613 09:47:23.149801 20477 net.cpp:408] conv1_2 -> conv1_2
I0613 09:47:23.152506 20477 net.cpp:150] Setting up conv1_2
I0613 09:47:23.152518 20477 net.cpp:157] Top shape: 5 64 360 480 (55296000)
I0613 09:47:23.152521 20477 net.cpp:165] Memory required for data: 936576000
I0613 09:47:23.152531 20477 layer_factory.hpp:77] Creating layer conv1_2_bn
I0613 09:47:23.152540 20477 net.cpp:100] Creating Layer conv1_2_bn
I0613 09:47:23.152544 20477 net.cpp:434] conv1_2_bn <- conv1_2
I0613 09:47:23.152549 20477 net.cpp:395] conv1_2_bn -> conv1_2 (in-place)
I0613 09:47:23.152832 20477 net.cpp:150] Setting up conv1_2_bn
I0613 09:47:23.152838 20477 net.cpp:157] Top shape: 5 64 360 480 (55296000)
I0613 09:47:23.152842 20477 net.cpp:165] Memory required for data: 1157760000
I0613 09:47:23.152846 20477 layer_factory.hpp:77] Creating layer relu1_2
I0613 09:47:23.152853 20477 net.cpp:100] Creating Layer relu1_2
I0613 09:47:23.152856 20477 net.cpp:434] relu1_2 <- conv1_2
I0613 09:47:23.152860 20477 net.cpp:395] relu1_2 -> conv1_2 (in-place)
I0613 09:47:23.152981 20477 net.cpp:150] Setting up relu1_2
I0613 09:47:23.152987 20477 net.cpp:157] Top shape: 5 64 360 480 (55296000)
I0613 09:47:23.152989 20477 net.cpp:165] Memory required for data: 1378944000
I0613 09:47:23.152992 20477 layer_factory.hpp:77] Creating layer pool1
I0613 09:47:23.152997 20477 layer_factory.cpp:91] cuDNN does not support multiple tops. Using Caffe's own pooling layer.
I0613 09:47:23.153002 20477 net.cpp:100] Creating Layer pool1
I0613 09:47:23.153005 20477 net.cpp:434] pool1 <- conv1_2
I0613 09:47:23.153010 20477 net.cpp:408] pool1 -> pool1
I0613 09:47:23.153017 20477 net.cpp:408] pool1 -> pool1_mask
I0613 09:47:23.153060 20477 net.cpp:150] Setting up pool1
I0613 09:47:23.153066 20477 net.cpp:157] Top shape: 5 64 180 240 (13824000)
I0613 09:47:23.153069 20477 net.cpp:157] Top shape: 5 64 180 240 (13824000)
I0613 09:47:23.153074 20477 net.cpp:165] Memory required for data: 1489536000
I0613 09:47:23.153075 20477 layer_factory.hpp:77] Creating layer conv2_1
I0613 09:47:23.153081 20477 net.cpp:100] Creating Layer conv2_1
I0613 09:47:23.153084 20477 net.cpp:434] conv2_1 <- pool1
I0613 09:47:23.153090 20477 net.cpp:408] conv2_1 -> conv2_1
I0613 09:47:23.155962 20477 net.cpp:150] Setting up conv2_1
I0613 09:47:23.155972 20477 net.cpp:157] Top shape: 5 128 180 240 (27648000)
I0613 09:47:23.155975 20477 net.cpp:165] Memory required for data: 1600128000
I0613 09:47:23.155983 20477 layer_factory.hpp:77] Creating layer conv2_1_bn
I0613 09:47:23.155990 20477 net.cpp:100] Creating Layer conv2_1_bn
I0613 09:47:23.155994 20477 net.cpp:434] conv2_1_bn <- conv2_1
I0613 09:47:23.155999 20477 net.cpp:395] conv2_1_bn -> conv2_1 (in-place)
I0613 09:47:23.156244 20477 net.cpp:150] Setting up conv2_1_bn
I0613 09:47:23.156257 20477 net.cpp:157] Top shape: 5 128 180 240 (27648000)
I0613 09:47:23.156260 20477 net.cpp:165] Memory required for data: 1710720000
I0613 09:47:23.156267 20477 layer_factory.hpp:77] Creating layer relu2_1
I0613 09:47:23.156272 20477 net.cpp:100] Creating Layer relu2_1
I0613 09:47:23.156275 20477 net.cpp:434] relu2_1 <- conv2_1
I0613 09:47:23.156280 20477 net.cpp:395] relu2_1 -> conv2_1 (in-place)
I0613 09:47:23.156623 20477 net.cpp:150] Setting up relu2_1
I0613 09:47:23.156631 20477 net.cpp:157] Top shape: 5 128 180 240 (27648000)
I0613 09:47:23.156635 20477 net.cpp:165] Memory required for data: 1821312000
I0613 09:47:23.156637 20477 layer_factory.hpp:77] Creating layer conv2_2
I0613 09:47:23.156646 20477 net.cpp:100] Creating Layer conv2_2
I0613 09:47:23.156649 20477 net.cpp:434] conv2_2 <- conv2_1
I0613 09:47:23.156654 20477 net.cpp:408] conv2_2 -> conv2_2
I0613 09:47:23.160086 20477 net.cpp:150] Setting up conv2_2
I0613 09:47:23.160094 20477 net.cpp:157] Top shape: 5 128 180 240 (27648000)
I0613 09:47:23.160097 20477 net.cpp:165] Memory required for data: 1931904000
I0613 09:47:23.160104 20477 layer_factory.hpp:77] Creating layer conv2_2_bn
I0613 09:47:23.160111 20477 net.cpp:100] Creating Layer conv2_2_bn
I0613 09:47:23.160115 20477 net.cpp:434] conv2_2_bn <- conv2_2
I0613 09:47:23.160120 20477 net.cpp:395] conv2_2_bn -> conv2_2 (in-place)
I0613 09:47:23.160382 20477 net.cpp:150] Setting up conv2_2_bn
I0613 09:47:23.160387 20477 net.cpp:157] Top shape: 5 128 180 240 (27648000)
I0613 09:47:23.160389 20477 net.cpp:165] Memory required for data: 2042496000
I0613 09:47:23.160394 20477 layer_factory.hpp:77] Creating layer relu2_2
I0613 09:47:23.160399 20477 net.cpp:100] Creating Layer relu2_2
I0613 09:47:23.160403 20477 net.cpp:434] relu2_2 <- conv2_2
I0613 09:47:23.160408 20477 net.cpp:395] relu2_2 -> conv2_2 (in-place)
I0613 09:47:23.160529 20477 net.cpp:150] Setting up relu2_2
I0613 09:47:23.160534 20477 net.cpp:157] Top shape: 5 128 180 240 (27648000)
I0613 09:47:23.160537 20477 net.cpp:165] Memory required for data: 2153088000
I0613 09:47:23.160540 20477 layer_factory.hpp:77] Creating layer pool2
I0613 09:47:23.160543 20477 layer_factory.cpp:91] cuDNN does not support multiple tops. Using Caffe's own pooling layer.
I0613 09:47:23.160547 20477 net.cpp:100] Creating Layer pool2
I0613 09:47:23.160552 20477 net.cpp:434] pool2 <- conv2_2
I0613 09:47:23.160557 20477 net.cpp:408] pool2 -> pool2
I0613 09:47:23.160562 20477 net.cpp:408] pool2 -> pool2_mask
I0613 09:47:23.160603 20477 net.cpp:150] Setting up pool2
I0613 09:47:23.160606 20477 net.cpp:157] Top shape: 5 128 90 120 (6912000)
I0613 09:47:23.160610 20477 net.cpp:157] Top shape: 5 128 90 120 (6912000)
I0613 09:47:23.160614 20477 net.cpp:165] Memory required for data: 2208384000
I0613 09:47:23.160616 20477 layer_factory.hpp:77] Creating layer conv3_1
I0613 09:47:23.160624 20477 net.cpp:100] Creating Layer conv3_1
I0613 09:47:23.160626 20477 net.cpp:434] conv3_1 <- pool2
I0613 09:47:23.160632 20477 net.cpp:408] conv3_1 -> conv3_1
I0613 09:47:23.167068 20477 net.cpp:150] Setting up conv3_1
I0613 09:47:23.167078 20477 net.cpp:157] Top shape: 5 256 90 120 (13824000)
I0613 09:47:23.167080 20477 net.cpp:165] Memory required for data: 2263680000
I0613 09:47:23.167089 20477 layer_factory.hpp:77] Creating layer conv3_1_bn
I0613 09:47:23.167096 20477 net.cpp:100] Creating Layer conv3_1_bn
I0613 09:47:23.167100 20477 net.cpp:434] conv3_1_bn <- conv3_1
I0613 09:47:23.167105 20477 net.cpp:395] conv3_1_bn -> conv3_1 (in-place)
I0613 09:47:23.167330 20477 net.cpp:150] Setting up conv3_1_bn
I0613 09:47:23.167335 20477 net.cpp:157] Top shape: 5 256 90 120 (13824000)
I0613 09:47:23.167338 20477 net.cpp:165] Memory required for data: 2318976000
I0613 09:47:23.167343 20477 layer_factory.hpp:77] Creating layer relu3_1
I0613 09:47:23.167349 20477 net.cpp:100] Creating Layer relu3_1
I0613 09:47:23.167352 20477 net.cpp:434] relu3_1 <- conv3_1
I0613 09:47:23.167356 20477 net.cpp:395] relu3_1 -> conv3_1 (in-place)
I0613 09:47:23.167492 20477 net.cpp:150] Setting up relu3_1
I0613 09:47:23.167498 20477 net.cpp:157] Top shape: 5 256 90 120 (13824000)
I0613 09:47:23.167501 20477 net.cpp:165] Memory required for data: 2374272000
I0613 09:47:23.167505 20477 layer_factory.hpp:77] Creating layer conv3_2
I0613 09:47:23.167511 20477 net.cpp:100] Creating Layer conv3_2
I0613 09:47:23.167515 20477 net.cpp:434] conv3_2 <- conv3_1
I0613 09:47:23.167520 20477 net.cpp:408] conv3_2 -> conv3_2
I0613 09:47:23.178755 20477 net.cpp:150] Setting up conv3_2
I0613 09:47:23.178763 20477 net.cpp:157] Top shape: 5 256 90 120 (13824000)
I0613 09:47:23.178767 20477 net.cpp:165] Memory required for data: 2429568000
I0613 09:47:23.178773 20477 layer_factory.hpp:77] Creating layer conv3_2_bn
I0613 09:47:23.178781 20477 net.cpp:100] Creating Layer conv3_2_bn
I0613 09:47:23.178784 20477 net.cpp:434] conv3_2_bn <- conv3_2
I0613 09:47:23.178789 20477 net.cpp:395] conv3_2_bn -> conv3_2 (in-place)
I0613 09:47:23.179019 20477 net.cpp:150] Setting up conv3_2_bn
I0613 09:47:23.179025 20477 net.cpp:157] Top shape: 5 256 90 120 (13824000)
I0613 09:47:23.179028 20477 net.cpp:165] Memory required for data: 2484864000
I0613 09:47:23.179033 20477 layer_factory.hpp:77] Creating layer relu3_2
I0613 09:47:23.179038 20477 net.cpp:100] Creating Layer relu3_2
I0613 09:47:23.179041 20477 net.cpp:434] relu3_2 <- conv3_2
I0613 09:47:23.179045 20477 net.cpp:395] relu3_2 -> conv3_2 (in-place)
I0613 09:47:23.179399 20477 net.cpp:150] Setting up relu3_2
I0613 09:47:23.179406 20477 net.cpp:157] Top shape: 5 256 90 120 (13824000)
I0613 09:47:23.179410 20477 net.cpp:165] Memory required for data: 2540160000
I0613 09:47:23.179414 20477 layer_factory.hpp:77] Creating layer conv3_3
I0613 09:47:23.179422 20477 net.cpp:100] Creating Layer conv3_3
I0613 09:47:23.179425 20477 net.cpp:434] conv3_3 <- conv3_2
I0613 09:47:23.179430 20477 net.cpp:408] conv3_3 -> conv3_3
I0613 09:47:23.190685 20477 net.cpp:150] Setting up conv3_3
I0613 09:47:23.190695 20477 net.cpp:157] Top shape: 5 256 90 120 (13824000)
I0613 09:47:23.190697 20477 net.cpp:165] Memory required for data: 2595456000
I0613 09:47:23.190703 20477 layer_factory.hpp:77] Creating layer conv3_3_bn
I0613 09:47:23.190712 20477 net.cpp:100] Creating Layer conv3_3_bn
I0613 09:47:23.190716 20477 net.cpp:434] conv3_3_bn <- conv3_3
I0613 09:47:23.190721 20477 net.cpp:395] conv3_3_bn -> conv3_3 (in-place)
I0613 09:47:23.190953 20477 net.cpp:150] Setting up conv3_3_bn
I0613 09:47:23.190958 20477 net.cpp:157] Top shape: 5 256 90 120 (13824000)
I0613 09:47:23.190961 20477 net.cpp:165] Memory required for data: 2650752000
I0613 09:47:23.190966 20477 layer_factory.hpp:77] Creating layer relu3_3
I0613 09:47:23.190971 20477 net.cpp:100] Creating Layer relu3_3
I0613 09:47:23.190975 20477 net.cpp:434] relu3_3 <- conv3_3
I0613 09:47:23.190979 20477 net.cpp:395] relu3_3 -> conv3_3 (in-place)
I0613 09:47:23.191107 20477 net.cpp:150] Setting up relu3_3
I0613 09:47:23.191113 20477 net.cpp:157] Top shape: 5 256 90 120 (13824000)
I0613 09:47:23.191117 20477 net.cpp:165] Memory required for data: 2706048000
I0613 09:47:23.191119 20477 layer_factory.hpp:77] Creating layer pool3
I0613 09:47:23.191123 20477 layer_factory.cpp:91] cuDNN does not support multiple tops. Using Caffe's own pooling layer.
I0613 09:47:23.191126 20477 net.cpp:100] Creating Layer pool3
I0613 09:47:23.191130 20477 net.cpp:434] pool3 <- conv3_3
I0613 09:47:23.191135 20477 net.cpp:408] pool3 -> pool3
I0613 09:47:23.191141 20477 net.cpp:408] pool3 -> pool3_mask
I0613 09:47:23.191184 20477 net.cpp:150] Setting up pool3
I0613 09:47:23.191190 20477 net.cpp:157] Top shape: 5 256 45 60 (3456000)
I0613 09:47:23.191192 20477 net.cpp:157] Top shape: 5 256 45 60 (3456000)
I0613 09:47:23.191195 20477 net.cpp:165] Memory required for data: 2733696000
I0613 09:47:23.191198 20477 layer_factory.hpp:77] Creating layer conv4_1
I0613 09:47:23.191206 20477 net.cpp:100] Creating Layer conv4_1
I0613 09:47:23.191210 20477 net.cpp:434] conv4_1 <- pool3
I0613 09:47:23.191215 20477 net.cpp:408] conv4_1 -> conv4_1
I0613 09:47:23.213132 20477 net.cpp:150] Setting up conv4_1
I0613 09:47:23.213158 20477 net.cpp:157] Top shape: 5 512 45 60 (6912000)
I0613 09:47:23.213161 20477 net.cpp:165] Memory required for data: 2761344000
I0613 09:47:23.213168 20477 layer_factory.hpp:77] Creating layer conv4_1_bn
I0613 09:47:23.213179 20477 net.cpp:100] Creating Layer conv4_1_bn
I0613 09:47:23.213183 20477 net.cpp:434] conv4_1_bn <- conv4_1
I0613 09:47:23.213191 20477 net.cpp:395] conv4_1_bn -> conv4_1 (in-place)
I0613 09:47:23.213430 20477 net.cpp:150] Setting up conv4_1_bn
I0613 09:47:23.213436 20477 net.cpp:157] Top shape: 5 512 45 60 (6912000)
I0613 09:47:23.213439 20477 net.cpp:165] Memory required for data: 2788992000
I0613 09:47:23.213444 20477 layer_factory.hpp:77] Creating layer relu4_1
I0613 09:47:23.213454 20477 net.cpp:100] Creating Layer relu4_1
I0613 09:47:23.213456 20477 net.cpp:434] relu4_1 <- conv4_1
I0613 09:47:23.213461 20477 net.cpp:395] relu4_1 -> conv4_1 (in-place)
I0613 09:47:23.213590 20477 net.cpp:150] Setting up relu4_1
I0613 09:47:23.213595 20477 net.cpp:157] Top shape: 5 512 45 60 (6912000)
I0613 09:47:23.213598 20477 net.cpp:165] Memory required for data: 2816640000
I0613 09:47:23.213601 20477 layer_factory.hpp:77] Creating layer conv4_2
I0613 09:47:23.213609 20477 net.cpp:100] Creating Layer conv4_2
I0613 09:47:23.213613 20477 net.cpp:434] conv4_2 <- conv4_1
I0613 09:47:23.213618 20477 net.cpp:408] conv4_2 -> conv4_2
I0613 09:47:23.254518 20477 net.cpp:150] Setting up conv4_2
I0613 09:47:23.254534 20477 net.cpp:157] Top shape: 5 512 45 60 (6912000)
I0613 09:47:23.254536 20477 net.cpp:165] Memory required for data: 2844288000
I0613 09:47:23.254552 20477 layer_factory.hpp:77] Creating layer conv4_2_bn
I0613 09:47:23.254562 20477 net.cpp:100] Creating Layer conv4_2_bn
I0613 09:47:23.254566 20477 net.cpp:434] conv4_2_bn <- conv4_2
I0613 09:47:23.254575 20477 net.cpp:395] conv4_2_bn -> conv4_2 (in-place)
I0613 09:47:23.254809 20477 net.cpp:150] Setting up conv4_2_bn
I0613 09:47:23.254815 20477 net.cpp:157] Top shape: 5 512 45 60 (6912000)
I0613 09:47:23.254818 20477 net.cpp:165] Memory required for data: 2871936000
I0613 09:47:23.254822 20477 layer_factory.hpp:77] Creating layer relu4_2
I0613 09:47:23.254828 20477 net.cpp:100] Creating Layer relu4_2
I0613 09:47:23.254832 20477 net.cpp:434] relu4_2 <- conv4_2
I0613 09:47:23.254835 20477 net.cpp:395] relu4_2 -> conv4_2 (in-place)
I0613 09:47:23.254964 20477 net.cpp:150] Setting up relu4_2
I0613 09:47:23.254969 20477 net.cpp:157] Top shape: 5 512 45 60 (6912000)
I0613 09:47:23.254972 20477 net.cpp:165] Memory required for data: 2899584000
I0613 09:47:23.254976 20477 layer_factory.hpp:77] Creating layer conv4_3
I0613 09:47:23.254983 20477 net.cpp:100] Creating Layer conv4_3
I0613 09:47:23.254987 20477 net.cpp:434] conv4_3 <- conv4_2
I0613 09:47:23.254992 20477 net.cpp:408] conv4_3 -> conv4_3
I0613 09:47:23.295984 20477 net.cpp:150] Setting up conv4_3
I0613 09:47:23.296001 20477 net.cpp:157] Top shape: 5 512 45 60 (6912000)
I0613 09:47:23.296005 20477 net.cpp:165] Memory required for data: 2927232000
I0613 09:47:23.296012 20477 layer_factory.hpp:77] Creating layer conv4_3_bn
I0613 09:47:23.296020 20477 net.cpp:100] Creating Layer conv4_3_bn
I0613 09:47:23.296025 20477 net.cpp:434] conv4_3_bn <- conv4_3
I0613 09:47:23.296033 20477 net.cpp:395] conv4_3_bn -> conv4_3 (in-place)
I0613 09:47:23.296279 20477 net.cpp:150] Setting up conv4_3_bn
I0613 09:47:23.296285 20477 net.cpp:157] Top shape: 5 512 45 60 (6912000)
I0613 09:47:23.296288 20477 net.cpp:165] Memory required for data: 2954880000
I0613 09:47:23.296293 20477 layer_factory.hpp:77] Creating layer relu4_3
I0613 09:47:23.296298 20477 net.cpp:100] Creating Layer relu4_3
I0613 09:47:23.296301 20477 net.cpp:434] relu4_3 <- conv4_3
I0613 09:47:23.296306 20477 net.cpp:395] relu4_3 -> conv4_3 (in-place)
I0613 09:47:23.296701 20477 net.cpp:150] Setting up relu4_3
I0613 09:47:23.296708 20477 net.cpp:157] Top shape: 5 512 45 60 (6912000)
I0613 09:47:23.296713 20477 net.cpp:165] Memory required for data: 2982528000
I0613 09:47:23.296716 20477 layer_factory.hpp:77] Creating layer pool4
I0613 09:47:23.296728 20477 layer_factory.cpp:91] cuDNN does not support multiple tops. Using Caffe's own pooling layer.
I0613 09:47:23.296733 20477 net.cpp:100] Creating Layer pool4
I0613 09:47:23.296737 20477 net.cpp:434] pool4 <- conv4_3
I0613 09:47:23.296742 20477 net.cpp:408] pool4 -> pool4
I0613 09:47:23.296748 20477 net.cpp:408] pool4 -> pool4_mask
I0613 09:47:23.296794 20477 net.cpp:150] Setting up pool4
I0613 09:47:23.296800 20477 net.cpp:157] Top shape: 5 512 23 30 (1766400)
I0613 09:47:23.296805 20477 net.cpp:157] Top shape: 5 512 23 30 (1766400)
I0613 09:47:23.296808 20477 net.cpp:165] Memory required for data: 2996659200
I0613 09:47:23.296810 20477 layer_factory.hpp:77] Creating layer conv5_1
I0613 09:47:23.296818 20477 net.cpp:100] Creating Layer conv5_1
I0613 09:47:23.296821 20477 net.cpp:434] conv5_1 <- pool4
I0613 09:47:23.296826 20477 net.cpp:408] conv5_1 -> conv5_1
I0613 09:47:23.337718 20477 net.cpp:150] Setting up conv5_1
I0613 09:47:23.337734 20477 net.cpp:157] Top shape: 5 512 23 30 (1766400)
I0613 09:47:23.337738 20477 net.cpp:165] Memory required for data: 3003724800
I0613 09:47:23.337745 20477 layer_factory.hpp:77] Creating layer conv5_1_bn
I0613 09:47:23.337756 20477 net.cpp:100] Creating Layer conv5_1_bn
I0613 09:47:23.337761 20477 net.cpp:434] conv5_1_bn <- conv5_1
I0613 09:47:23.337769 20477 net.cpp:395] conv5_1_bn -> conv5_1 (in-place)
I0613 09:47:23.338007 20477 net.cpp:150] Setting up conv5_1_bn
I0613 09:47:23.338013 20477 net.cpp:157] Top shape: 5 512 23 30 (1766400)
I0613 09:47:23.338016 20477 net.cpp:165] Memory required for data: 3010790400
I0613 09:47:23.338021 20477 layer_factory.hpp:77] Creating layer relu5_1
I0613 09:47:23.338027 20477 net.cpp:100] Creating Layer relu5_1
I0613 09:47:23.338029 20477 net.cpp:434] relu5_1 <- conv5_1
I0613 09:47:23.338034 20477 net.cpp:395] relu5_1 -> conv5_1 (in-place)
I0613 09:47:23.338161 20477 net.cpp:150] Setting up relu5_1
I0613 09:47:23.338167 20477 net.cpp:157] Top shape: 5 512 23 30 (1766400)
I0613 09:47:23.338171 20477 net.cpp:165] Memory required for data: 3017856000
I0613 09:47:23.338173 20477 layer_factory.hpp:77] Creating layer conv5_2
I0613 09:47:23.338181 20477 net.cpp:100] Creating Layer conv5_2
I0613 09:47:23.338183 20477 net.cpp:434] conv5_2 <- conv5_1
I0613 09:47:23.338189 20477 net.cpp:408] conv5_2 -> conv5_2
I0613 09:47:23.379678 20477 net.cpp:150] Setting up conv5_2
I0613 09:47:23.379693 20477 net.cpp:157] Top shape: 5 512 23 30 (1766400)
I0613 09:47:23.379696 20477 net.cpp:165] Memory required for data: 3024921600
I0613 09:47:23.379703 20477 layer_factory.hpp:77] Creating layer conv5_2_bn
I0613 09:47:23.379712 20477 net.cpp:100] Creating Layer conv5_2_bn
I0613 09:47:23.379719 20477 net.cpp:434] conv5_2_bn <- conv5_2
I0613 09:47:23.379724 20477 net.cpp:395] conv5_2_bn -> conv5_2 (in-place)
I0613 09:47:23.379959 20477 net.cpp:150] Setting up conv5_2_bn
I0613 09:47:23.379966 20477 net.cpp:157] Top shape: 5 512 23 30 (1766400)
I0613 09:47:23.379968 20477 net.cpp:165] Memory required for data: 3031987200
I0613 09:47:23.379973 20477 layer_factory.hpp:77] Creating layer relu5_2
I0613 09:47:23.379978 20477 net.cpp:100] Creating Layer relu5_2
I0613 09:47:23.379982 20477 net.cpp:434] relu5_2 <- conv5_2
I0613 09:47:23.379987 20477 net.cpp:395] relu5_2 -> conv5_2 (in-place)
I0613 09:47:23.380116 20477 net.cpp:150] Setting up relu5_2
I0613 09:47:23.380122 20477 net.cpp:157] Top shape: 5 512 23 30 (1766400)
I0613 09:47:23.380125 20477 net.cpp:165] Memory required for data: 3039052800
I0613 09:47:23.380127 20477 layer_factory.hpp:77] Creating layer conv5_3
I0613 09:47:23.380136 20477 net.cpp:100] Creating Layer conv5_3
I0613 09:47:23.380138 20477 net.cpp:434] conv5_3 <- conv5_2
I0613 09:47:23.380144 20477 net.cpp:408] conv5_3 -> conv5_3
I0613 09:47:23.421034 20477 net.cpp:150] Setting up conv5_3
I0613 09:47:23.421051 20477 net.cpp:157] Top shape: 5 512 23 30 (1766400)
I0613 09:47:23.421054 20477 net.cpp:165] Memory required for data: 3046118400
I0613 09:47:23.421062 20477 layer_factory.hpp:77] Creating layer conv5_3_bn
I0613 09:47:23.421087 20477 net.cpp:100] Creating Layer conv5_3_bn
I0613 09:47:23.421092 20477 net.cpp:434] conv5_3_bn <- conv5_3
I0613 09:47:23.421098 20477 net.cpp:395] conv5_3_bn -> conv5_3 (in-place)
I0613 09:47:23.421339 20477 net.cpp:150] Setting up conv5_3_bn
I0613 09:47:23.421344 20477 net.cpp:157] Top shape: 5 512 23 30 (1766400)
I0613 09:47:23.421346 20477 net.cpp:165] Memory required for data: 3053184000
I0613 09:47:23.421351 20477 layer_factory.hpp:77] Creating layer relu5_3
I0613 09:47:23.421356 20477 net.cpp:100] Creating Layer relu5_3
I0613 09:47:23.421360 20477 net.cpp:434] relu5_3 <- conv5_3
I0613 09:47:23.421365 20477 net.cpp:395] relu5_3 -> conv5_3 (in-place)
I0613 09:47:23.421761 20477 net.cpp:150] Setting up relu5_3
I0613 09:47:23.421768 20477 net.cpp:157] Top shape: 5 512 23 30 (1766400)
I0613 09:47:23.421772 20477 net.cpp:165] Memory required for data: 3060249600
I0613 09:47:23.421774 20477 layer_factory.hpp:77] Creating layer pool5
I0613 09:47:23.421777 20477 layer_factory.cpp:91] cuDNN does not support multiple tops. Using Caffe's own pooling layer.
I0613 09:47:23.421783 20477 net.cpp:100] Creating Layer pool5
I0613 09:47:23.421787 20477 net.cpp:434] pool5 <- conv5_3
I0613 09:47:23.421792 20477 net.cpp:408] pool5 -> pool5
I0613 09:47:23.421798 20477 net.cpp:408] pool5 -> pool5_mask
I0613 09:47:23.421845 20477 net.cpp:150] Setting up pool5
I0613 09:47:23.421850 20477 net.cpp:157] Top shape: 5 512 12 15 (460800)
I0613 09:47:23.421854 20477 net.cpp:157] Top shape: 5 512 12 15 (460800)
I0613 09:47:23.421857 20477 net.cpp:165] Memory required for data: 3063936000
I0613 09:47:23.421859 20477 layer_factory.hpp:77] Creating layer upsample5
I0613 09:47:23.421871 20477 net.cpp:100] Creating Layer upsample5
I0613 09:47:23.421875 20477 net.cpp:434] upsample5 <- pool5
I0613 09:47:23.421878 20477 net.cpp:434] upsample5 <- pool5_mask
I0613 09:47:23.421883 20477 net.cpp:408] upsample5 -> pool5_D
I0613 09:47:23.421910 20477 net.cpp:150] Setting up upsample5
I0613 09:47:23.421914 20477 net.cpp:157] Top shape: 5 512 23 30 (1766400)
I0613 09:47:23.421917 20477 net.cpp:165] Memory required for data: 3071001600
I0613 09:47:23.421921 20477 layer_factory.hpp:77] Creating layer conv5_3_D
I0613 09:47:23.421927 20477 net.cpp:100] Creating Layer conv5_3_D
I0613 09:47:23.421931 20477 net.cpp:434] conv5_3_D <- pool5_D
I0613 09:47:23.421936 20477 net.cpp:408] conv5_3_D -> conv5_3_D
I0613 09:47:23.462813 20477 net.cpp:150] Setting up conv5_3_D
I0613 09:47:23.462831 20477 net.cpp:157] Top shape: 5 512 23 30 (1766400)
I0613 09:47:23.462836 20477 net.cpp:165] Memory required for data: 3078067200
I0613 09:47:23.462842 20477 layer_factory.hpp:77] Creating layer conv5_3_D_bn
I0613 09:47:23.462851 20477 net.cpp:100] Creating Layer conv5_3_D_bn
I0613 09:47:23.462855 20477 net.cpp:434] conv5_3_D_bn <- conv5_3_D
I0613 09:47:23.462862 20477 net.cpp:395] conv5_3_D_bn -> conv5_3_D (in-place)
I0613 09:47:23.463101 20477 net.cpp:150] Setting up conv5_3_D_bn
I0613 09:47:23.463107 20477 net.cpp:157] Top shape: 5 512 23 30 (1766400)
I0613 09:47:23.463110 20477 net.cpp:165] Memory required for data: 3085132800
I0613 09:47:23.463114 20477 layer_factory.hpp:77] Creating layer relu5_3_D
I0613 09:47:23.463120 20477 net.cpp:100] Creating Layer relu5_3_D
I0613 09:47:23.463124 20477 net.cpp:434] relu5_3_D <- conv5_3_D
I0613 09:47:23.463129 20477 net.cpp:395] relu5_3_D -> conv5_3_D (in-place)
I0613 09:47:23.463263 20477 net.cpp:150] Setting up relu5_3_D
I0613 09:47:23.463268 20477 net.cpp:157] Top shape: 5 512 23 30 (1766400)
I0613 09:47:23.463271 20477 net.cpp:165] Memory required for data: 3092198400
I0613 09:47:23.463274 20477 layer_factory.hpp:77] Creating layer conv5_2_D
I0613 09:47:23.463281 20477 net.cpp:100] Creating Layer conv5_2_D
I0613 09:47:23.463284 20477 net.cpp:434] conv5_2_D <- conv5_3_D
I0613 09:47:23.463291 20477 net.cpp:408] conv5_2_D -> conv5_2_D
I0613 09:47:23.504385 20477 net.cpp:150] Setting up conv5_2_D
I0613 09:47:23.504402 20477 net.cpp:157] Top shape: 5 512 23 30 (1766400)
I0613 09:47:23.504405 20477 net.cpp:165] Memory required for data: 3099264000
I0613 09:47:23.504436 20477 layer_factory.hpp:77] Creating layer conv5_2_D_bn
I0613 09:47:23.504444 20477 net.cpp:100] Creating Layer conv5_2_D_bn
I0613 09:47:23.504448 20477 net.cpp:434] conv5_2_D_bn <- conv5_2_D
I0613 09:47:23.504456 20477 net.cpp:395] conv5_2_D_bn -> conv5_2_D (in-place)
I0613 09:47:23.504701 20477 net.cpp:150] Setting up conv5_2_D_bn
I0613 09:47:23.504707 20477 net.cpp:157] Top shape: 5 512 23 30 (1766400)
I0613 09:47:23.504710 20477 net.cpp:165] Memory required for data: 3106329600
I0613 09:47:23.504716 20477 layer_factory.hpp:77] Creating layer relu5_2_D
I0613 09:47:23.504722 20477 net.cpp:100] Creating Layer relu5_2_D
I0613 09:47:23.504725 20477 net.cpp:434] relu5_2_D <- conv5_2_D
I0613 09:47:23.504729 20477 net.cpp:395] relu5_2_D -> conv5_2_D (in-place)
I0613 09:47:23.504865 20477 net.cpp:150] Setting up relu5_2_D
I0613 09:47:23.504871 20477 net.cpp:157] Top shape: 5 512 23 30 (1766400)
I0613 09:47:23.504874 20477 net.cpp:165] Memory required for data: 3113395200
I0613 09:47:23.504878 20477 layer_factory.hpp:77] Creating layer conv5_1_D
I0613 09:47:23.504885 20477 net.cpp:100] Creating Layer conv5_1_D
I0613 09:47:23.504889 20477 net.cpp:434] conv5_1_D <- conv5_2_D
I0613 09:47:23.504895 20477 net.cpp:408] conv5_1_D -> conv5_1_D
I0613 09:47:23.546386 20477 net.cpp:150] Setting up conv5_1_D
I0613 09:47:23.546402 20477 net.cpp:157] Top shape: 5 512 23 30 (1766400)
I0613 09:47:23.546406 20477 net.cpp:165] Memory required for data: 3120460800
I0613 09:47:23.546412 20477 layer_factory.hpp:77] Creating layer conv5_1_D_bn
I0613 09:47:23.546422 20477 net.cpp:100] Creating Layer conv5_1_D_bn
I0613 09:47:23.546427 20477 net.cpp:434] conv5_1_D_bn <- conv5_1_D
I0613 09:47:23.546434 20477 net.cpp:395] conv5_1_D_bn -> conv5_1_D (in-place)
I0613 09:47:23.546676 20477 net.cpp:150] Setting up conv5_1_D_bn
I0613 09:47:23.546682 20477 net.cpp:157] Top shape: 5 512 23 30 (1766400)
I0613 09:47:23.546685 20477 net.cpp:165] Memory required for data: 3127526400
I0613 09:47:23.546690 20477 layer_factory.hpp:77] Creating layer relu5_1_D
I0613 09:47:23.546696 20477 net.cpp:100] Creating Layer relu5_1_D
I0613 09:47:23.546700 20477 net.cpp:434] relu5_1_D <- conv5_1_D
I0613 09:47:23.546703 20477 net.cpp:395] relu5_1_D -> conv5_1_D (in-place)
I0613 09:47:23.547093 20477 net.cpp:150] Setting up relu5_1_D
I0613 09:47:23.547101 20477 net.cpp:157] Top shape: 5 512 23 30 (1766400)
I0613 09:47:23.547106 20477 net.cpp:165] Memory required for data: 3134592000
I0613 09:47:23.547108 20477 layer_factory.hpp:77] Creating layer upsample4
I0613 09:47:23.547114 20477 net.cpp:100] Creating Layer upsample4
I0613 09:47:23.547117 20477 net.cpp:434] upsample4 <- conv5_1_D
I0613 09:47:23.547122 20477 net.cpp:434] upsample4 <- pool4_mask
I0613 09:47:23.547127 20477 net.cpp:408] upsample4 -> pool4_D
I0613 09:47:23.547158 20477 net.cpp:150] Setting up upsample4
I0613 09:47:23.547163 20477 net.cpp:157] Top shape: 5 512 45 60 (6912000)
I0613 09:47:23.547166 20477 net.cpp:165] Memory required for data: 3162240000
I0613 09:47:23.547169 20477 layer_factory.hpp:77] Creating layer conv4_3_D
I0613 09:47:23.547178 20477 net.cpp:100] Creating Layer conv4_3_D
I0613 09:47:23.547180 20477 net.cpp:434] conv4_3_D <- pool4_D
I0613 09:47:23.547186 20477 net.cpp:408] conv4_3_D -> conv4_3_D
I0613 09:47:23.587862 20477 net.cpp:150] Setting up conv4_3_D
I0613 09:47:23.587878 20477 net.cpp:157] Top shape: 5 512 45 60 (6912000)
I0613 09:47:23.587882 20477 net.cpp:165] Memory required for data: 3189888000
I0613 09:47:23.587903 20477 layer_factory.hpp:77] Creating layer conv4_3_D_bn
I0613 09:47:23.587914 20477 net.cpp:100] Creating Layer conv4_3_D_bn
I0613 09:47:23.587919 20477 net.cpp:434] conv4_3_D_bn <- conv4_3_D
I0613 09:47:23.587926 20477 net.cpp:395] conv4_3_D_bn -> conv4_3_D (in-place)
I0613 09:47:23.588181 20477 net.cpp:150] Setting up conv4_3_D_bn
I0613 09:47:23.588187 20477 net.cpp:157] Top shape: 5 512 45 60 (6912000)
I0613 09:47:23.588191 20477 net.cpp:165] Memory required for data: 3217536000
I0613 09:47:23.588196 20477 layer_factory.hpp:77] Creating layer relu4_3_D
I0613 09:47:23.588208 20477 net.cpp:100] Creating Layer relu4_3_D
I0613 09:47:23.588212 20477 net.cpp:434] relu4_3_D <- conv4_3_D
I0613 09:47:23.588217 20477 net.cpp:395] relu4_3_D -> conv4_3_D (in-place)
I0613 09:47:23.588351 20477 net.cpp:150] Setting up relu4_3_D
I0613 09:47:23.588357 20477 net.cpp:157] Top shape: 5 512 45 60 (6912000)
I0613 09:47:23.588361 20477 net.cpp:165] Memory required for data: 3245184000
I0613 09:47:23.588363 20477 layer_factory.hpp:77] Creating layer conv4_2_D
I0613 09:47:23.588376 20477 net.cpp:100] Creating Layer conv4_2_D
I0613 09:47:23.588378 20477 net.cpp:434] conv4_2_D <- conv4_3_D
I0613 09:47:23.588384 20477 net.cpp:408] conv4_2_D -> conv4_2_D
I0613 09:47:23.629362 20477 net.cpp:150] Setting up conv4_2_D
I0613 09:47:23.629379 20477 net.cpp:157] Top shape: 5 512 45 60 (6912000)
I0613 09:47:23.629381 20477 net.cpp:165] Memory required for data: 3272832000
I0613 09:47:23.629390 20477 layer_factory.hpp:77] Creating layer conv4_2_D_bn
I0613 09:47:23.629400 20477 net.cpp:100] Creating Layer conv4_2_D_bn
I0613 09:47:23.629406 20477 net.cpp:434] conv4_2_D_bn <- conv4_2_D
I0613 09:47:23.629413 20477 net.cpp:395] conv4_2_D_bn -> conv4_2_D (in-place)
I0613 09:47:23.629674 20477 net.cpp:150] Setting up conv4_2_D_bn
I0613 09:47:23.629680 20477 net.cpp:157] Top shape: 5 512 45 60 (6912000)
I0613 09:47:23.629683 20477 net.cpp:165] Memory required for data: 3300480000
I0613 09:47:23.629688 20477 layer_factory.hpp:77] Creating layer relu4_2_D
I0613 09:47:23.629693 20477 net.cpp:100] Creating Layer relu4_2_D
I0613 09:47:23.629698 20477 net.cpp:434] relu4_2_D <- conv4_2_D
I0613 09:47:23.629703 20477 net.cpp:395] relu4_2_D -> conv4_2_D (in-place)
I0613 09:47:23.629832 20477 net.cpp:150] Setting up relu4_2_D
I0613 09:47:23.629837 20477 net.cpp:157] Top shape: 5 512 45 60 (6912000)
I0613 09:47:23.629840 20477 net.cpp:165] Memory required for data: 3328128000
I0613 09:47:23.629842 20477 layer_factory.hpp:77] Creating layer conv4_1_D
I0613 09:47:23.629850 20477 net.cpp:100] Creating Layer conv4_1_D
I0613 09:47:23.629853 20477 net.cpp:434] conv4_1_D <- conv4_2_D
I0613 09:47:23.629859 20477 net.cpp:408] conv4_1_D -> conv4_1_D
I0613 09:47:23.651059 20477 net.cpp:150] Setting up conv4_1_D
I0613 09:47:23.651074 20477 net.cpp:157] Top shape: 5 256 45 60 (3456000)
I0613 09:47:23.651077 20477 net.cpp:165] Memory required for data: 3341952000
I0613 09:47:23.651084 20477 layer_factory.hpp:77] Creating layer conv4_1_D_bn
I0613 09:47:23.651091 20477 net.cpp:100] Creating Layer conv4_1_D_bn
I0613 09:47:23.651096 20477 net.cpp:434] conv4_1_D_bn <- conv4_1_D
I0613 09:47:23.651104 20477 net.cpp:395] conv4_1_D_bn -> conv4_1_D (in-place)
I0613 09:47:23.651365 20477 net.cpp:150] Setting up conv4_1_D_bn
I0613 09:47:23.651371 20477 net.cpp:157] Top shape: 5 256 45 60 (3456000)
I0613 09:47:23.651374 20477 net.cpp:165] Memory required for data: 3355776000
I0613 09:47:23.651378 20477 layer_factory.hpp:77] Creating layer relu4_1_D
I0613 09:47:23.651383 20477 net.cpp:100] Creating Layer relu4_1_D
I0613 09:47:23.651387 20477 net.cpp:434] relu4_1_D <- conv4_1_D
I0613 09:47:23.651393 20477 net.cpp:395] relu4_1_D -> conv4_1_D (in-place)
I0613 09:47:23.651520 20477 net.cpp:150] Setting up relu4_1_D
I0613 09:47:23.651526 20477 net.cpp:157] Top shape: 5 256 45 60 (3456000)
I0613 09:47:23.651530 20477 net.cpp:165] Memory required for data: 3369600000
I0613 09:47:23.651532 20477 layer_factory.hpp:77] Creating layer upsample3
I0613 09:47:23.651537 20477 net.cpp:100] Creating Layer upsample3
I0613 09:47:23.651540 20477 net.cpp:434] upsample3 <- conv4_1_D
I0613 09:47:23.651548 20477 net.cpp:434] upsample3 <- pool3_mask
I0613 09:47:23.651554 20477 net.cpp:408] upsample3 -> pool3_D
I0613 09:47:23.651559 20477 upsample_layer.cpp:27] Params 'pad_out_{}_' are deprecated. Please declare upsample height and width useing the upsample_h, upsample_w parameters.
I0613 09:47:23.651590 20477 net.cpp:150] Setting up upsample3
I0613 09:47:23.651595 20477 net.cpp:157] Top shape: 5 256 90 120 (13824000)
I0613 09:47:23.651598 20477 net.cpp:165] Memory required for data: 3424896000
I0613 09:47:23.651612 20477 layer_factory.hpp:77] Creating layer conv3_3_D
I0613 09:47:23.651619 20477 net.cpp:100] Creating Layer conv3_3_D
I0613 09:47:23.651623 20477 net.cpp:434] conv3_3_D <- pool3_D
I0613 09:47:23.651628 20477 net.cpp:408] conv3_3_D -> conv3_3_D
I0613 09:47:23.662950 20477 net.cpp:150] Setting up conv3_3_D
I0613 09:47:23.662961 20477 net.cpp:157] Top shape: 5 256 90 120 (13824000)
I0613 09:47:23.662963 20477 net.cpp:165] Memory required for data: 3480192000
I0613 09:47:23.662969 20477 layer_factory.hpp:77] Creating layer conv3_3_D_bn
I0613 09:47:23.662977 20477 net.cpp:100] Creating Layer conv3_3_D_bn
I0613 09:47:23.662981 20477 net.cpp:434] conv3_3_D_bn <- conv3_3_D
I0613 09:47:23.662986 20477 net.cpp:395] conv3_3_D_bn -> conv3_3_D (in-place)
I0613 09:47:23.663250 20477 net.cpp:150] Setting up conv3_3_D_bn
I0613 09:47:23.663256 20477 net.cpp:157] Top shape: 5 256 90 120 (13824000)
I0613 09:47:23.663259 20477 net.cpp:165] Memory required for data: 3535488000
I0613 09:47:23.663264 20477 layer_factory.hpp:77] Creating layer relu3_3_D
I0613 09:47:23.663269 20477 net.cpp:100] Creating Layer relu3_3_D
I0613 09:47:23.663272 20477 net.cpp:434] relu3_3_D <- conv3_3_D
I0613 09:47:23.663276 20477 net.cpp:395] relu3_3_D -> conv3_3_D (in-place)
I0613 09:47:23.663661 20477 net.cpp:150] Setting up relu3_3_D
I0613 09:47:23.663669 20477 net.cpp:157] Top shape: 5 256 90 120 (13824000)
I0613 09:47:23.663672 20477 net.cpp:165] Memory required for data: 3590784000
I0613 09:47:23.663676 20477 layer_factory.hpp:77] Creating layer conv3_2_D
I0613 09:47:23.663684 20477 net.cpp:100] Creating Layer conv3_2_D
I0613 09:47:23.663687 20477 net.cpp:434] conv3_2_D <- conv3_3_D
I0613 09:47:23.663693 20477 net.cpp:408] conv3_2_D -> conv3_2_D
I0613 09:47:23.675066 20477 net.cpp:150] Setting up conv3_2_D
I0613 09:47:23.675076 20477 net.cpp:157] Top shape: 5 256 90 120 (13824000)
I0613 09:47:23.675079 20477 net.cpp:165] Memory required for data: 3646080000
I0613 09:47:23.675086 20477 layer_factory.hpp:77] Creating layer conv3_2_D_bn
I0613 09:47:23.675092 20477 net.cpp:100] Creating Layer conv3_2_D_bn
I0613 09:47:23.675096 20477 net.cpp:434] conv3_2_D_bn <- conv3_2_D
I0613 09:47:23.675102 20477 net.cpp:395] conv3_2_D_bn -> conv3_2_D (in-place)
I0613 09:47:23.675369 20477 net.cpp:150] Setting up conv3_2_D_bn
I0613 09:47:23.675375 20477 net.cpp:157] Top shape: 5 256 90 120 (13824000)
I0613 09:47:23.675379 20477 net.cpp:165] Memory required for data: 3701376000
I0613 09:47:23.675384 20477 layer_factory.hpp:77] Creating layer relu3_2_D
I0613 09:47:23.675388 20477 net.cpp:100] Creating Layer relu3_2_D
I0613 09:47:23.675392 20477 net.cpp:434] relu3_2_D <- conv3_2_D
I0613 09:47:23.675395 20477 net.cpp:395] relu3_2_D -> conv3_2_D (in-place)
I0613 09:47:23.675531 20477 net.cpp:150] Setting up relu3_2_D
I0613 09:47:23.675537 20477 net.cpp:157] Top shape: 5 256 90 120 (13824000)
I0613 09:47:23.675540 20477 net.cpp:165] Memory required for data: 3756672000
I0613 09:47:23.675546 20477 layer_factory.hpp:77] Creating layer conv3_1_D
I0613 09:47:23.675554 20477 net.cpp:100] Creating Layer conv3_1_D
I0613 09:47:23.675557 20477 net.cpp:434] conv3_1_D <- conv3_2_D
I0613 09:47:23.675563 20477 net.cpp:408] conv3_1_D -> conv3_1_D
I0613 09:47:23.682130 20477 net.cpp:150] Setting up conv3_1_D
I0613 09:47:23.682140 20477 net.cpp:157] Top shape: 5 128 90 120 (6912000)
I0613 09:47:23.682143 20477 net.cpp:165] Memory required for data: 3784320000
I0613 09:47:23.682149 20477 layer_factory.hpp:77] Creating layer conv3_1_D_bn
I0613 09:47:23.682157 20477 net.cpp:100] Creating Layer conv3_1_D_bn
I0613 09:47:23.682160 20477 net.cpp:434] conv3_1_D_bn <- conv3_1_D
I0613 09:47:23.682166 20477 net.cpp:395] conv3_1_D_bn -> conv3_1_D (in-place)
I0613 09:47:23.682433 20477 net.cpp:150] Setting up conv3_1_D_bn
I0613 09:47:23.682440 20477 net.cpp:157] Top shape: 5 128 90 120 (6912000)
I0613 09:47:23.682441 20477 net.cpp:165] Memory required for data: 3811968000
I0613 09:47:23.682446 20477 layer_factory.hpp:77] Creating layer relu3_1_D
I0613 09:47:23.682459 20477 net.cpp:100] Creating Layer relu3_1_D
I0613 09:47:23.682462 20477 net.cpp:434] relu3_1_D <- conv3_1_D
I0613 09:47:23.682467 20477 net.cpp:395] relu3_1_D -> conv3_1_D (in-place)
I0613 09:47:23.682600 20477 net.cpp:150] Setting up relu3_1_D
I0613 09:47:23.682605 20477 net.cpp:157] Top shape: 5 128 90 120 (6912000)
I0613 09:47:23.682608 20477 net.cpp:165] Memory required for data: 3839616000
I0613 09:47:23.682611 20477 layer_factory.hpp:77] Creating layer upsample2
I0613 09:47:23.682616 20477 net.cpp:100] Creating Layer upsample2
I0613 09:47:23.682620 20477 net.cpp:434] upsample2 <- conv3_1_D
I0613 09:47:23.682624 20477 net.cpp:434] upsample2 <- pool2_mask
I0613 09:47:23.682631 20477 net.cpp:408] upsample2 -> pool2_D
I0613 09:47:23.682636 20477 upsample_layer.cpp:27] Params 'pad_out_{}_' are deprecated. Please declare upsample height and width useing the upsample_h, upsample_w parameters.
I0613 09:47:23.682665 20477 net.cpp:150] Setting up upsample2
I0613 09:47:23.682669 20477 net.cpp:157] Top shape: 5 128 180 240 (27648000)
I0613 09:47:23.682672 20477 net.cpp:165] Memory required for data: 3950208000
I0613 09:47:23.682675 20477 layer_factory.hpp:77] Creating layer conv2_2_D
I0613 09:47:23.682682 20477 net.cpp:100] Creating Layer conv2_2_D
I0613 09:47:23.682687 20477 net.cpp:434] conv2_2_D <- pool2_D
I0613 09:47:23.682693 20477 net.cpp:408] conv2_2_D -> conv2_2_D
I0613 09:47:23.686256 20477 net.cpp:150] Setting up conv2_2_D
I0613 09:47:23.686266 20477 net.cpp:157] Top shape: 5 128 180 240 (27648000)
I0613 09:47:23.686270 20477 net.cpp:165] Memory required for data: 4060800000
I0613 09:47:23.686275 20477 layer_factory.hpp:77] Creating layer conv2_2_D_bn
I0613 09:47:23.686280 20477 net.cpp:100] Creating Layer conv2_2_D_bn
I0613 09:47:23.686283 20477 net.cpp:434] conv2_2_D_bn <- conv2_2_D
I0613 09:47:23.686290 20477 net.cpp:395] conv2_2_D_bn -> conv2_2_D (in-place)
I0613 09:47:23.686588 20477 net.cpp:150] Setting up conv2_2_D_bn
I0613 09:47:23.686594 20477 net.cpp:157] Top shape: 5 128 180 240 (27648000)
I0613 09:47:23.686596 20477 net.cpp:165] Memory required for data: 4171392000
I0613 09:47:23.686601 20477 layer_factory.hpp:77] Creating layer relu2_2_D
I0613 09:47:23.686605 20477 net.cpp:100] Creating Layer relu2_2_D
I0613 09:47:23.686609 20477 net.cpp:434] relu2_2_D <- conv2_2_D
I0613 09:47:23.686614 20477 net.cpp:395] relu2_2_D -> conv2_2_D (in-place)
I0613 09:47:23.686995 20477 net.cpp:150] Setting up relu2_2_D
I0613 09:47:23.687001 20477 net.cpp:157] Top shape: 5 128 180 240 (27648000)
I0613 09:47:23.687005 20477 net.cpp:165] Memory required for data: 4281984000
I0613 09:47:23.687007 20477 layer_factory.hpp:77] Creating layer conv2_1_D
I0613 09:47:23.687016 20477 net.cpp:100] Creating Layer conv2_1_D
I0613 09:47:23.687018 20477 net.cpp:434] conv2_1_D <- conv2_2_D
I0613 09:47:23.687026 20477 net.cpp:408] conv2_1_D -> conv2_1_D
I0613 09:47:23.689411 20477 net.cpp:150] Setting up conv2_1_D
I0613 09:47:23.689419 20477 net.cpp:157] Top shape: 5 64 180 240 (13824000)
I0613 09:47:23.689422 20477 net.cpp:165] Memory required for data: 4337280000
I0613 09:47:23.689429 20477 layer_factory.hpp:77] Creating layer conv2_1_D_bn
I0613 09:47:23.689435 20477 net.cpp:100] Creating Layer conv2_1_D_bn
I0613 09:47:23.689440 20477 net.cpp:434] conv2_1_D_bn <- conv2_1_D
I0613 09:47:23.689445 20477 net.cpp:395] conv2_1_D_bn -> conv2_1_D (in-place)
I0613 09:47:23.690408 20477 net.cpp:150] Setting up conv2_1_D_bn
I0613 09:47:23.690416 20477 net.cpp:157] Top shape: 5 64 180 240 (13824000)
I0613 09:47:23.690419 20477 net.cpp:165] Memory required for data: 4392576000
I0613 09:47:23.690426 20477 layer_factory.hpp:77] Creating layer relu2_1_D
I0613 09:47:23.690431 20477 net.cpp:100] Creating Layer relu2_1_D
I0613 09:47:23.690435 20477 net.cpp:434] relu2_1_D <- conv2_1_D
I0613 09:47:23.690439 20477 net.cpp:395] relu2_1_D -> conv2_1_D (in-place)
I0613 09:47:23.690575 20477 net.cpp:150] Setting up relu2_1_D
I0613 09:47:23.690582 20477 net.cpp:157] Top shape: 5 64 180 240 (13824000)
I0613 09:47:23.690585 20477 net.cpp:165] Memory required for data: 4447872000
I0613 09:47:23.690594 20477 layer_factory.hpp:77] Creating layer upsample1
I0613 09:47:23.690599 20477 net.cpp:100] Creating Layer upsample1
I0613 09:47:23.690603 20477 net.cpp:434] upsample1 <- conv2_1_D
I0613 09:47:23.690608 20477 net.cpp:434] upsample1 <- pool1_mask
I0613 09:47:23.690613 20477 net.cpp:408] upsample1 -> pool1_D
I0613 09:47:23.690618 20477 upsample_layer.cpp:27] Params 'pad_out_{}_' are deprecated. Please declare upsample height and width useing the upsample_h, upsample_w parameters.
I0613 09:47:23.690649 20477 net.cpp:150] Setting up upsample1
I0613 09:47:23.690654 20477 net.cpp:157] Top shape: 5 64 360 480 (55296000)
I0613 09:47:23.690655 20477 net.cpp:165] Memory required for data: 4669056000
I0613 09:47:23.690659 20477 layer_factory.hpp:77] Creating layer conv1_2_D
I0613 09:47:23.690665 20477 net.cpp:100] Creating Layer conv1_2_D
I0613 09:47:23.690668 20477 net.cpp:434] conv1_2_D <- pool1_D
I0613 09:47:23.690675 20477 net.cpp:408] conv1_2_D -> conv1_2_D
I0613 09:47:23.692924 20477 net.cpp:150] Setting up conv1_2_D
I0613 09:47:23.692932 20477 net.cpp:157] Top shape: 5 64 360 480 (55296000)
I0613 09:47:23.692935 20477 net.cpp:165] Memory required for data: 4890240000
I0613 09:47:23.692941 20477 layer_factory.hpp:77] Creating layer conv1_2_D_bn
I0613 09:47:23.692948 20477 net.cpp:100] Creating Layer conv1_2_D_bn
I0613 09:47:23.692952 20477 net.cpp:434] conv1_2_D_bn <- conv1_2_D
I0613 09:47:23.692957 20477 net.cpp:395] conv1_2_D_bn -> conv1_2_D (in-place)
I0613 09:47:23.693291 20477 net.cpp:150] Setting up conv1_2_D_bn
I0613 09:47:23.693297 20477 net.cpp:157] Top shape: 5 64 360 480 (55296000)
I0613 09:47:23.693300 20477 net.cpp:165] Memory required for data: 5111424000
I0613 09:47:23.693305 20477 layer_factory.hpp:77] Creating layer relu1_2_D
I0613 09:47:23.693311 20477 net.cpp:100] Creating Layer relu1_2_D
I0613 09:47:23.693315 20477 net.cpp:434] relu1_2_D <- conv1_2_D
I0613 09:47:23.693318 20477 net.cpp:395] relu1_2_D -> conv1_2_D (in-place)
I0613 09:47:23.693451 20477 net.cpp:150] Setting up relu1_2_D
I0613 09:47:23.693457 20477 net.cpp:157] Top shape: 5 64 360 480 (55296000)
I0613 09:47:23.693460 20477 net.cpp:165] Memory required for data: 5332608000
I0613 09:47:23.693464 20477 layer_factory.hpp:77] Creating layer conv1_1_D
I0613 09:47:23.693470 20477 net.cpp:100] Creating Layer conv1_1_D
I0613 09:47:23.693475 20477 net.cpp:434] conv1_1_D <- conv1_2_D
I0613 09:47:23.693478 20477 net.cpp:408] conv1_1_D -> conv1_1_D
I0613 09:47:23.695160 20477 net.cpp:150] Setting up conv1_1_D
I0613 09:47:23.695169 20477 net.cpp:157] Top shape: 5 3 360 480 (2592000)
I0613 09:47:23.695173 20477 net.cpp:165] Memory required for data: 5342976000
I0613 09:47:23.695178 20477 layer_factory.hpp:77] Creating layer conv1_1_D_conv1_1_D_0_split
I0613 09:47:23.695183 20477 net.cpp:100] Creating Layer conv1_1_D_conv1_1_D_0_split
I0613 09:47:23.695188 20477 net.cpp:434] conv1_1_D_conv1_1_D_0_split <- conv1_1_D
I0613 09:47:23.695194 20477 net.cpp:408] conv1_1_D_conv1_1_D_0_split -> conv1_1_D_conv1_1_D_0_split_0
I0613 09:47:23.695199 20477 net.cpp:408] conv1_1_D_conv1_1_D_0_split -> conv1_1_D_conv1_1_D_0_split_1
I0613 09:47:23.695253 20477 net.cpp:150] Setting up conv1_1_D_conv1_1_D_0_split
I0613 09:47:23.695258 20477 net.cpp:157] Top shape: 5 3 360 480 (2592000)
I0613 09:47:23.695262 20477 net.cpp:157] Top shape: 5 3 360 480 (2592000)
I0613 09:47:23.695266 20477 net.cpp:165] Memory required for data: 5363712000
I0613 09:47:23.695268 20477 layer_factory.hpp:77] Creating layer loss
I0613 09:47:23.695276 20477 net.cpp:100] Creating Layer loss
I0613 09:47:23.695279 20477 net.cpp:434] loss <- conv1_1_D_conv1_1_D_0_split_0
I0613 09:47:23.695283 20477 net.cpp:434] loss <- label_dataRGB_1_split_0
I0613 09:47:23.695289 20477 net.cpp:408] loss -> loss
I0613 09:47:23.695298 20477 layer_factory.hpp:77] Creating layer loss
I0613 09:47:23.698546 20477 net.cpp:150] Setting up loss
I0613 09:47:23.698566 20477 net.cpp:157] Top shape: (1)
I0613 09:47:23.698570 20477 net.cpp:160]     with loss weight 1
I0613 09:47:23.698607 20477 net.cpp:165] Memory required for data: 5363712004
I0613 09:47:23.698613 20477 layer_factory.hpp:77] Creating layer accuracy
I0613 09:47:23.698621 20477 net.cpp:100] Creating Layer accuracy
I0613 09:47:23.698626 20477 net.cpp:434] accuracy <- conv1_1_D_conv1_1_D_0_split_1
I0613 09:47:23.698632 20477 net.cpp:434] accuracy <- label_dataRGB_1_split_1
I0613 09:47:23.698637 20477 net.cpp:408] accuracy -> accuracy
I0613 09:47:23.698644 20477 net.cpp:408] accuracy -> per_class_accuracy
I0613 09:47:23.698716 20477 net.cpp:150] Setting up accuracy
I0613 09:47:23.698721 20477 net.cpp:157] Top shape: (1)
I0613 09:47:23.698725 20477 net.cpp:157] Top shape: 3 (3)
I0613 09:47:23.698729 20477 net.cpp:165] Memory required for data: 5363712020
I0613 09:47:23.698731 20477 net.cpp:228] accuracy does not need backward computation.
I0613 09:47:23.698734 20477 net.cpp:226] loss needs backward computation.
I0613 09:47:23.698738 20477 net.cpp:226] conv1_1_D_conv1_1_D_0_split needs backward computation.
I0613 09:47:23.698741 20477 net.cpp:226] conv1_1_D needs backward computation.
…
