…
  dense_image_data_param {
    source: "/home/mpopovic/workspace/weedNet-devel/SegNet-Tutorial/train_and_test_data/rit-18/5m_10m_15m/trainir3.txt"
    batch_size: 5
    shuffle: false
    new_height: 360
    new_width: 480
    is_color: false
  }
}
layer {
  name: "dataRGB"
  type: "DenseImageData"
  top: "dataRGB"
  top: "label"
  dense_image_data_param {
    source: "/home/mpopovic/workspace/weedNet-devel/SegNet-Tutorial/train_and_test_data/rit-18/5m_10m_15m/train.txt"
    batch_size: 5
    shuffle: false
    new_height: 360
    new_width: 480
    is_color: true
  }
}
layer {
  name: "data"
  type: "Concat"
  bottom: "dataIR1"
  bottom: "dataIR2"
  bottom: "dataIR3"
  bottom: "dataRGB"
  top: "data"
  concat_param {
    axis: 1
  }
}
layer {
  name: "multiconv1_1"
  type: "Convolution"
  bottom: "data"
  top: "conv1_1"
  param {
    lr_mult: 1
    decay_mult: 1
  }
  param {
    lr_mult: 2
    decay_mult: 0
  }
  convolution_param {
    num_output: 64
    pad: 1
    kernel_size: 3
    weight_filler {
      type: "msra"
    }
    bias_filler {
      type: "constant"
    }
  }
}
layer {
  name: "conv1_1_bn"
  type: "BN"
  bottom: "conv1_1"
  top: "conv1_1"
  param {
    lr_mult: 1
    decay_mult: 1
  }
  param {
    lr_mult: 1
    decay_mult: 0
  }
  bn_param {
    scale_filler {
      type: "constant"
      value: 1
    }
    shift_filler {
      type: "constant"
      value: 0.001
    }
  }
}
layer {
  name: "relu1_1"
  type: "ReLU"
  bottom: "conv1_1"
  top: "conv1_1"
}
layer {
  name: "conv1_2"
  type: "Convolution"
  bottom: "conv1_1"
  top: "conv1_2"
  param {
    lr_mult: 1
    decay_mult: 1
  }
  param {
    lr_mult: 2
    decay_mult: 0
  }
  convolution_param {
    num_output: 64
    pad: 1
    kernel_size: 3
    weight_filler {
      type: "msra"
    }
    bias_filler {
      type: "constant"
    }
  }
}
layer {
  name: "conv1_2_bn"
  type: "BN"
  bottom: "conv1_2"
  top: "conv1_2"
  param {
    lr_mult: 1
    decay_mult: 1
  }
  param {
    lr_mult: 1
    decay_mult: 0
  }
  bn_param {
    scale_filler {
      type: "constant"
      value: 1
    }
    shift_filler {
      type: "constant"
      value: 0.001
    }
  }
}
layer {
  name: "relu1_2"
  type: "ReLU"
  bottom: "conv1_2"
  top: "conv1_2"
}
layer {
  name: "pool1"
  type: "Pooling"
  bottom: "conv1_2"
  top: "pool1"
  top: "pool1_mask"
  pooling_param {
    pool: MAX
    kernel_size: 2
    stride: 2
  }
}
layer {
  name: "conv2_1"
  type: "Convolution"
  bottom: "pool1"
  top: "conv2_1"
  param {
    lr_mult: 1
    decay_mult: 1
  }
  param {
    lr_mult: 2
    decay_mult: 0
  }
  convolution_param {
    num_output: 128
    pad: 1
    kernel_size: 3
    weight_filler {
      type: "msra"
    }
    bias_filler {
      type: "constant"
    }
  }
}
layer {
  name: "conv2_1_bn"
  type: "BN"
  bottom: "conv2_1"
  top: "conv2_1"
  param {
    lr_mult: 1
    decay_mult: 1
  }
  param {
    lr_mult: 1
    decay_mult: 0
  }
  bn_param {
    scale_filler {
      type: "constant"
      value: 1
    }
    shift_filler {
      type: "constant"
      value: 0.001
    }
  }
}
layer {
  name: "relu2_1"
  type: "ReLU"
  bottom: "conv2_1"
  top: "conv2_1"
}
layer {
  name: "conv2_2"
  type: "Convolution"
  bottom: "conv2_1"
  top: "conv2_2"
  param {
    lr_mult: 1
    decay_mult: 1
  }
  param {
    lr_mult: 2
    decay_mult: 0
  }
  convolution_param {
    num_output: 128
    pad: 1
    kernel_size: 3
    weight_filler {
      type: "msra"
    }
    bias_filler {
      type: "constant"
    }
  }
}
layer {
  name: "conv2_2_bn"
  type: "BN"
  bottom: "conv2_2"
  top: "conv2_2"
  param {
    lr_mult: 1
    decay_mult: 1
  }
  param {
    lr_mult: 1
    decay_mult: 0
  }
  bn_param {
    scale_filler {
      type: "constant"
      value: 1
    }
    shift_filler {
      type: "constant"
      value: 0.001
    }
  }
}
layer {
  name: "relu2_2"
  type: "ReLU"
  bottom: "conv2_2"
  top: "conv2_2"
}
layer {
  name: "pool2"
  type: "Pooling"
  bottom: "conv2_2"
  top: "pool2"
  top: "pool2_mask"
  pooling_param {
    pool: MAX
    kernel_size: 2
    stride: 2
  }
}
layer {
  name: "conv3_1"
  type: "Convolution"
  bottom: "pool2"
  top: "conv3_1"
  param {
    lr_mult: 1
    decay_mult: 1
  }
  param {
    lr_mult: 2
    decay_mult: 0
  }
  convolution_param {
    num_output: 256
    pad: 1
    kernel_size: 3
    weight_filler {
      type: "msra"
    }
    bias_filler {
      type: "constant"
    }
  }
}
layer {
  name: "conv3_1_bn"
  type: "BN"
  bottom: "conv3_1"
  top: "conv3_1"
  param {
    lr_mult: 1
    decay_mult: 1
  }
  param {
    lr_mult: 1
    decay_mult: 0
  }
  bn_param {
    scale_filler {
      type: "constant"
      value: 1
    }
    shift_filler {
      type: "constant"
      value: 0.001
    }
  }
}
layer {
  name: "relu3_1"
  type: "ReLU"
  bottom: "conv3_1"
  top: "conv3_1"
}
layer {
  name: "conv3_2"
  type: "Convolution"
  bottom: "conv3_1"
  top: "conv3_2"
  param {
    lr_mult: 1
    decay_mult: 1
  }
  param {
    lr_mult: 2
    decay_mult: 0
  }
  convolution_param {
    num_output: 256
    pad: 1
    kernel_size: 3
    weight_filler {
      type: "msra"
    }
    bias_filler {
      type: "constant"
    }
  }
}
layer {
  name: "conv3_2_bn"
  type: "BN"
  bottom: "conv3_2"
  top: "conv3_2"
  param {
    lr_mult: 1
    decay_mult: 1
  }
  param {
    lr_mult: 1
    decay_mult: 0
  }
  bn_param {
    scale_filler {
      type: "constant"
      value: 1
    }
    shift_filler {
      type: "constant"
      value: 0.001
    }
  }
}
layer {
  name: "relu3_2"
  type: "ReLU"
  bottom: "conv3_2"
  top: "conv3_2"
}
layer {
  name: "conv3_3"
  type: "Convolution"
  bottom: "conv3_2"
  top: "conv3_3"
  param {
    lr_mult: 1
    decay_mult: 1
  }
  param {
    lr_mult: 2
    decay_mult: 0
  }
  convolution_param {
    num_output: 256
    pad: 1
    kernel_size: 3
    weight_filler {
      type: "msra"
    }
    bias_filler {
      type: "constant"
    }
  }
}
layer {
  name: "conv3_3_bn"
  type: "BN"
  bottom: "conv3_3"
  top: "conv3_3"
  param {
    lr_mult: 1
    decay_mult: 1
  }
  param {
    lr_mult: 1
    decay_mult: 0
  }
  bn_param {
    scale_filler {
      type: "constant"
      value: 1
    }
    shift_filler {
      type: "constant"
      value: 0.001
    }
  }
}
layer {
  name: "relu3_3"
  type: "ReLU"
  bottom: "conv3_3"
  top: "conv3_3"
}
layer {
  name: "pool3"
  type: "Pooling"
  bottom: "conv3_3"
  top: "pool3"
  top: "pool3_mask"
  pooling_param {
    pool: MAX
    kernel_size: 2
    stride: 2
  }
}
layer {
  name: "conv4_1"
  type: "Convolution"
  bottom: "pool3"
  top: "conv4_1"
  param {
    lr_mult: 1
    decay_mult: 1
  }
  param {
    lr_mult: 2
    decay_mult: 0
  }
  convolution_param {
    num_output: 512
    pad: 1
    kernel_size: 3
    weight_filler {
      type: "msra"
    }
    bias_filler {
      type: "constant"
    }
  }
}
layer {
  name: "conv4_1_bn"
  type: "BN"
  bottom: "conv4_1"
  top: "conv4_1"
  param {
    lr_mult: 1
    decay_mult: 1
  }
  param {
    lr_mult: 1
    decay_mult: 0
  }
  bn_param {
    scale_filler {
      type: "constant"
      value: 1
    }
    shift_filler {
      type: "constant"
      value: 0.001
    }
  }
}
layer {
  name: "relu4_1"
  type: "ReLU"
  bottom: "conv4_1"
  top: "conv4_1"
}
layer {
  name: "conv4_2"
  type: "Convolution"
  bottom: "conv4_1"
  top: "conv4_2"
  param {
    lr_mult: 1
    decay_mult: 1
  }
  param {
    lr_mult: 2
    decay_mult: 0
  }
  convolution_param {
    num_output: 512
    pad: 1
    kernel_size: 3
    weight_filler {
      type: "msra"
    }
    bias_filler {
      type: "constant"
    }
  }
}
layer {
  name: "conv4_2_bn"
  type: "BN"
  bottom: "conv4_2"
  top: "conv4_2"
  param {
    lr_mult: 1
    decay_mult: 1
  }
  param {
    lr_mult: 1
    decay_mult: 0
  }
  bn_param {
    scale_filler {
      type: "constant"
      value: 1
    }
    shift_filler {
      type: "constant"
      value: 0.001
    }
  }
}
layer {
  name: "relu4_2"
  type: "ReLU"
  bottom: "conv4_2"
  top: "conv4_2"
}
layer {
  name: "conv4_3"
  type: "Convolution"
  bottom: "conv4_2"
  top: "conv4_3"
  param {
    lr_mult: 1
    decay_mult: 1
  }
  param {
    lr_mult: 2
    decay_mult: 0
  }
  convolution_param {
    num_output: 512
    pad: 1
    kernel_size: 3
    weight_filler {
      type: "msra"
    }
    bias_filler {
      type: "constant"
    }
  }
}
layer {
  name: "conv4_3_bn"
  type: "BN"
  bottom: "conv4_3"
  top: "conv4_3"
  param {
    lr_mult: 1
    decay_mult: 1
  }
  param {
    lr_mult: 1
    decay_mult: 0
  }
  bn_param {
    scale_filler {
      type: "constant"
      value: 1
    }
    shift_filler {
      type: "constant"
      value: 0.001
    }
  }
}
layer {
  name: "relu4_3"
  type: "ReLU"
  bottom: "conv4_3"
  top: "conv4_3"
}
layer {
  name: "pool4"
  type: "Pooling"
  bottom: "conv4_3"
  top: "pool4"
  top: "pool4_mask"
  pooling_param {
    pool: MAX
    kernel_size: 2
    stride: 2
  }
}
layer {
  name: "conv5_1"
  type: "Convolution"
  bottom: "pool4"
  top: "conv5_1"
  param {
    lr_mult: 1
    decay_mult: 1
  }
  param {
    lr_mult: 2
    decay_mult: 0
  }
  convolution_param {
    num_output: 512
    pad: 1
    kernel_size: 3
    weight_filler {
      type: "msra"
    }
    bias_filler {
      type: "constant"
    }
  }
}
layer {
  name: "conv5_1_bn"
  type: "BN"
  bottom: "conv5_1"
  top: "conv5_1"
  param {
    lr_mult: 1
    decay_mult: 1
  }
  param {
    lr_mult: 1
    decay_mult: 0
  }
  bn_param {
    scale_filler {
      type: "constant"
      value: 1
    }
    shift_filler {
      type: "constant"
      value: 0.001
    }
  }
}
layer {
  name: "relu5_1"
  type: "ReLU"
  bottom: "conv5_1"
  top: "conv5_1"
}
layer {
  name: "conv5_2"
  type: "Convolution"
  bottom: "conv5_1"
  top: "conv5_2"
  param {
    lr_mult: 1
    decay_mult: 1
  }
  param {
    lr_mult: 2
    decay_mult: 0
  }
  convolution_param {
    num_output: 512
    pad: 1
    kernel_size: 3
    weight_filler {
      type: "msra"
    }
    bias_filler {
      type: "constant"
    }
  }
}
layer {
  name: "conv5_2_bn"
  type: "BN"
  bottom: "conv5_2"
  top: "conv5_2"
  param {
    lr_mult: 1
    decay_mult: 1
  }
  param {
    lr_mult: 1
    decay_mult: 0
  }
  bn_param {
    scale_filler {
      type: "constant"
      value: 1
    }
    shift_filler {
      type: "constant"
      value: 0.001
    }
  }
}
layer {
  name: "relu5_2"
  type: "ReLU"
  bottom: "conv5_2"
  top: "conv5_2"
}
layer {
  name: "conv5_3"
  type: "Convolution"
  bottom: "conv5_2"
  top: "conv5_3"
  param {
    lr_mult: 1
    decay_mult: 1
  }
  param {
    lr_mult: 2
    decay_mult: 0
  }
  convolution_param {
    num_output: 512
    pad: 1
    kernel_size: 3
    weight_filler {
      type: "msra"
    }
    bias_filler {
      type: "constant"
    }
  }
}
layer {
  name: "conv5_3_bn"
  type: "BN"
  bottom: "conv5_3"
  top: "conv5_3"
  param {
    lr_mult: 1
    decay_mult: 1
  }
  param {
    lr_mult: 1
    decay_mult: 0
  }
  bn_param {
    scale_filler {
      type: "constant"
      value: 1
    }
    shift_filler {
      type: "constant"
      value: 0.001
    }
  }
}
layer {
  name: "relu5_3"
  type: "ReLU"
  bottom: "conv5_3"
  top: "conv5_3"
}
layer {
  name: "pool5"
  type: "Pooling"
  bottom: "conv5_3"
  top: "pool5"
  top: "pool5_mask"
  pooling_param {
    pool: MAX
    kernel_size: 2
    stride: 2
  }
}
layer {
  name: "upsample5"
  type: "Upsample"
  bottom: "pool5"
  bottom: "pool5_mask"
  top: "pool5_D"
  upsample_param {
    scale: 2
    upsample_h: 23
    upsample_w: 30
  }
}
layer {
  name: "conv5_3_D"
  type: "Convolution"
  bottom: "pool5_D"
  top: "conv5_3_D"
  param {
    lr_mult: 1
    decay_mult: 1
  }
  param {
    lr_mult: 2
    decay_mult: 0
  }
  convolution_param {
    num_output: 512
    pad: 1
    kernel_size: 3
    weight_filler {
      type: "msra"
    }
    bias_filler {
      type: "constant"
    }
  }
}
layer {
  name: "conv5_3_D_bn"
  type: "BN"
  bottom: "conv5_3_D"
  top: "conv5_3_D"
  param {
    lr_mult: 1
    decay_mult: 1
  }
  param {
    lr_mult: 1
    decay_mult: 0
  }
  bn_param {
    scale_filler {
      type: "constant"
      value: 1
    }
    shift_filler {
      type: "constant"
      value: 0.001
    }
  }
}
layer {
  name: "relu5_3_D"
  type: "ReLU"
  bottom: "conv5_3_D"
  top: "conv5_3_D"
}
layer {
  name: "conv5_2_D"
  type: "Convolution"
  bottom: "conv5_3_D"
  top: "conv5_2_D"
  param {
    lr_mult: 1
    decay_mult: 1
  }
  param {
    lr_mult: 2
    decay_mult: 0
  }
  convolution_param {
    num_output: 512
    pad: 1
    kernel_size: 3
    weight_filler {
      type: "msra"
    }
    bias_filler {
      type: "constant"
    }
  }
}
layer {
  name: "conv5_2_D_bn"
  type: "BN"
  bottom: "conv5_2_D"
  top: "conv5_2_D"
  param {
    lr_mult: 1
    decay_mult: 1
  }
  param {
    lr_mult: 1
    decay_mult: 0
  }
  bn_param {
    scale_filler {
      type: "constant"
      value: 1
    }
    shift_filler {
      type: "constant"
      value: 0.001
    }
  }
}
layer {
  name: "relu5_2_D"
  type: "ReLU"
  bottom: "conv5_2_D"
  top: "conv5_2_D"
}
layer {
  name: "conv5_1_D"
  type: "Convolution"
  bottom: "conv5_2_D"
  top: "conv5_1_D"
  param {
    lr_mult: 1
    decay_mult: 1
  }
  param {
    lr_mult: 2
    decay_mult: 0
  }
  convolution_param {
    num_output: 512
    pad: 1
    kernel_size: 3
    weight_filler {
      type: "msra"
    }
    bias_filler {
      type: "constant"
    }
  }
}
layer {
  name: "conv5_1_D_bn"
  type: "BN"
  bottom: "conv5_1_D"
  top: "conv5_1_D"
  param {
    lr_mult: 1
    decay_mult: 1
  }
  param {
    lr_mult: 1
    decay_mult: 0
  }
  bn_param {
    scale_filler {
      type: "constant"
      value: 1
    }
    shift_filler {
      type: "constant"
      value: 0.001
    }
  }
}
layer {
  name: "relu5_1_D"
  type: "ReLU"
  bottom: "conv5_1_D"
  top: "conv5_1_D"
}
layer {
  name: "upsample4"
  type: "Upsample"
  bottom: "conv5_1_D"
  bottom: "pool4_mask"
  top: "pool4_D"
  upsample_param {
    scale: 2
    upsample_h: 45
    upsample_w: 60
  }
}
layer {
  name: "conv4_3_D"
  type: "Convolution"
  bottom: "pool4_D"
  top: "conv4_3_D"
  param {
    lr_mult: 1
    decay_mult: 1
  }
  param {
    lr_mult: 2
    decay_mult: 0
  }
  convolution_param {
    num_output: 512
    pad: 1
    kernel_size: 3
    weight_filler {
      type: "msra"
    }
    bias_filler {
      type: "constant"
    }
  }
}
layer {
  name: "conv4_3_D_bn"
  type: "BN"
  bottom: "conv4_3_D"
  top: "conv4_3_D"
  param {
    lr_mult: 1
    decay_mult: 1
  }
  param {
    lr_mult: 1
    decay_mult: 0
  }
  bn_param {
    scale_filler {
      type: "constant"
      value: 1
    }
    shift_filler {
      type: "constant"
      value: 0.001
    }
  }
}
layer {
  name: "relu4_3_D"
  type: "ReLU"
  bottom: "conv4_3_D"
  top: "conv4_3_D"
}
layer {
  name: "conv4_2_D"
  type: "Convolution"
  bottom: "conv4_3_D"
  top: "conv4_2_D"
  param {
    lr_mult: 1
    decay_mult: 1
  }
  param {
    lr_mult: 2
    decay_mult: 0
  }
  convolution_param {
    num_output: 512
    pad: 1
    kernel_size: 3
    weight_filler {
      type: "msra"
    }
    bias_filler {
      type: "constant"
    }
  }
}
layer {
  name: "conv4_2_D_bn"
  type: "BN"
  bottom: "conv4_2_D"
  top: "conv4_2_D"
  param {
    lr_mult: 1
    decay_mult: 1
  }
  param {
    lr_mult: 1
    decay_mult: 0
  }
  bn_param {
    scale_filler {
      type: "constant"
      value: 1
    }
    shift_filler {
      type: "constant"
      value: 0.001
    }
  }
}
layer {
  name: "relu4_2_D"
  type: "ReLU"
  bottom: "conv4_2_D"
  top: "conv4_2_D"
}
layer {
  name: "conv4_1_D"
  type: "Convolution"
  bottom: "conv4_2_D"
  top: "conv4_1_D"
  param {
    lr_mult: 1
    decay_mult: 1
  }
  param {
    lr_mult: 2
    decay_mult: 0
  }
  convolution_param {
    num_output: 256
    pad: 1
    kernel_size: 3
    weight_filler {
      type: "msra"
    }
    bias_filler {
      type: "constant"
    }
  }
}
layer {
  name: "conv4_1_D_bn"
  type: "BN"
  bottom: "conv4_1_D"
  top: "conv4_1_D"
  param {
    lr_mult: 1
    decay_mult: 1
  }
  param {
    lr_mult: 1
    decay_mult: 0
  }
  bn_param {
    scale_filler {
      type: "constant"
      value: 1
    }
    shift_filler {
      type: "constant"
      value: 0.001
    }
  }
}
layer {
  name: "relu4_1_D"
  type: "ReLU"
  bottom: "conv4_1_D"
  top: "conv4_1_D"
}
layer {
  name: "upsample3"
  type: "Upsample"
  bottom: "conv4_1_D"
  bottom: "pool3_mask"
  top: "pool3_D"
  upsample_param {
    scale: 2
  }
}
layer {
  name: "conv3_3_D"
  type: "Convolution"
  bottom: "pool3_D"
  top: "conv3_3_D"
  param {
    lr_mult: 1
    decay_mult: 1
  }
  param {
    lr_mult: 2
    decay_mult: 0
  }
  convolution_param {
    num_output: 256
    pad: 1
    kernel_size: 3
    weight_filler {
      type: "msra"
    }
    bias_filler {
      type: "constant"
    }
  }
}
layer {
  name: "conv3_3_D_bn"
  type: "BN"
  bottom: "conv3_3_D"
  top: "conv3_3_D"
  param {
    lr_mult: 1
    decay_mult: 1
  }
  param {
    lr_mult: 1
    decay_mult: 0
  }
  bn_param {
    scale_filler {
      type: "constant"
      value: 1
    }
    shift_filler {
      type: "constant"
      value: 0.001
    }
  }
}
layer {
  name: "relu3_3_D"
  type: "ReLU"
  bottom: "conv3_3_D"
  top: "conv3_3_D"
}
layer {
  name: "conv3_2_D"
  type: "Convolution"
  bottom: "conv3_3_D"
  top: "conv3_2_D"
  param {
    lr_mult: 1
    decay_mult: 1
  }
  param {
    lr_mult: 2
    decay_mult: 0
  }
  convolution_param {
    num_output: 256
    pad: 1
    kernel_size: 3
    weight_filler {
      type: "msra"
    }
    bias_filler {
      type: "constant"
    }
  }
}
layer {
  name: "conv3_2_D_bn"
  type: "BN"
  bottom: "conv3_2_D"
  top: "conv3_2_D"
  param {
    lr_mult: 1
    decay_mult: 1
  }
  param {
    lr_mult: 1
    decay_mult: 0
  }
  bn_param {
    scale_filler {
      type: "constant"
      value: 1
    }
    shift_filler {
      type: "constant"
      value: 0.001
    }
  }
}
layer {
  name: "relu3_2_D"
  type: "ReLU"
  bottom: "conv3_2_D"
  top: "conv3_2_D"
}
layer {
  name: "conv3_1_D"
  type: "Convolution"
  bottom: "conv3_2_D"
  top: "conv3_1_D"
  param {
    lr_mult: 1
    decay_mult: 1
  }
  param {
    lr_mult: 2
    decay_mult: 0
  }
  convolution_param {
    num_output: 128
    pad: 1
    kernel_size: 3
    weight_filler {
      type: "msra"
    }
    bias_filler {
      type: "constant"
    }
  }
}
layer {
  name: "conv3_1_D_bn"
  type: "BN"
  bottom: "conv3_1_D"
  top: "conv3_1_D"
  param {
    lr_mult: 1
    decay_mult: 1
  }
  param {
    lr_mult: 1
    decay_mult: 0
  }
  bn_param {
    scale_filler {
      type: "constant"
      value: 1
    }
    shift_filler {
      type: "constant"
      value: 0.001
    }
  }
}
layer {
  name: "relu3_1_D"
  type: "ReLU"
  bottom: "conv3_1_D"
  top: "conv3_1_D"
}
layer {
  name: "upsample2"
  type: "Upsample"
  bottom: "conv3_1_D"
  bottom: "pool2_mask"
  top: "pool2_D"
  upsample_param {
    scale: 2
  }
}
layer {
  name: "conv2_2_D"
  type: "Convolution"
  bottom: "pool2_D"
  top: "conv2_2_D"
  param {
    lr_mult: 1
    decay_mult: 1
  }
  param {
    lr_mult: 2
    decay_mult: 0
  }
  convolution_param {
    num_output: 128
    pad: 1
    kernel_size: 3
    weight_filler {
      type: "msra"
    }
    bias_filler {
      type: "constant"
    }
  }
}
layer {
  name: "conv2_2_D_bn"
  type: "BN"
  bottom: "conv2_2_D"
  top: "conv2_2_D"
  param {
    lr_mult: 1
    decay_mult: 1
  }
  param {
    lr_mult: 1
    decay_mult: 0
  }
  bn_param {
    scale_filler {
      type: "constant"
      value: 1
    }
    shift_filler {
      type: "constant"
      value: 0.001
    }
  }
}
layer {
  name: "relu2_2_D"
  type: "ReLU"
  bottom: "conv2_2_D"
  top: "conv2_2_D"
}
layer {
  name: "conv2_1_D"
  type: "Convolution"
  bottom: "conv2_2_D"
  top: "conv2_1_D"
  param {
    lr_mult: 1
    decay_mult: 1
  }
  param {
    lr_mult: 2
    decay_mult: 0
  }
  convolution_param {
    num_output: 64
    pad: 1
    kernel_size: 3
    weight_filler {
      type: "msra"
    }
    bias_filler {
      type: "constant"
    }
  }
}
layer {
  name: "conv2_1_D_bn"
  type: "BN"
  bottom: "conv2_1_D"
  top: "conv2_1_D"
  param {
    lr_mult: 1
    decay_mult: 1
  }
  param {
    lr_mult: 1
    decay_mult: 0
  }
  bn_param {
    scale_filler {
      type: "constant"
      value: 1
    }
    shift_filler {
      type: "constant"
      value: 0.001
    }
  }
}
layer {
  name: "relu2_1_D"
  type: "ReLU"
  bottom: "conv2_1_D"
  top: "conv2_1_D"
}
layer {
  name: "upsample1"
  type: "Upsample"
  bottom: "conv2_1_D"
  bottom: "pool1_mask"
  top: "pool1_D"
  upsample_param {
    scale: 2
  }
}
layer {
  name: "conv1_2_D"
  type: "Convolution"
  bottom: "pool1_D"
  top: "conv1_2_D"
  param {
    lr_mult: 1
    decay_mult: 1
  }
  param {
    lr_mult: 2
    decay_mult: 0
  }
  convolution_param {
    num_output: 64
    pad: 1
    kernel_size: 3
    weight_filler {
      type: "msra"
    }
    bias_filler {
      type: "constant"
    }
  }
}
layer {
  name: "conv1_2_D_bn"
  type: "BN"
  bottom: "conv1_2_D"
  top: "conv1_2_D"
  param {
    lr_mult: 1
    decay_mult: 1
  }
  param {
    lr_mult: 1
    decay_mult: 0
  }
  bn_param {
    scale_filler {
      type: "constant"
      value: 1
    }
    shift_filler {
      type: "constant"
      value: 0.001
    }
  }
}
layer {
  name: "relu1_2_D"
  type: "ReLU"
  bottom: "conv1_2_D"
  top: "conv1_2_D"
}
layer {
  name: "conv1_1_D"
  type: "Convolution"
  bottom: "conv1_2_D"
  top: "conv1_1_D"
  param {
    lr_mult: 1
    decay_mult: 1
  }
  param {
    lr_mult: 2
    decay_mult: 0
  }
  convolution_param {
    num_output: 3
    pad: 1
    kernel_size: 3
    weight_filler {
      type: "msra"
    }
    bias_filler {
      type: "constant"
    }
  }
}
layer {
  name: "loss"
  type: "SoftmaxWithLoss"
  bottom: "conv1_1_D"
  bottom: "label"
  top: "loss"
  loss_param {
    weight_by_label_freqs: true
    class_weighting: 1
    class_weighting: 0.7713
    class_weighting: 1.7102
  }
  softmax_param {
    engine: CAFFE
  }
}
layer {
  name: "accuracy"
  type: "Accuracy"
  bottom: "conv1_1_D"
  bottom: "label"
  top: "accuracy"
  top: "per_class_accuracy"
}
I0612 10:38:52.962466 14693 layer_factory.hpp:77] Creating layer dataIR1
I0612 10:38:52.962479 14693 net.cpp:100] Creating Layer dataIR1
I0612 10:38:52.962483 14693 net.cpp:408] dataIR1 -> dataIR1
I0612 10:38:52.962502 14693 dense_image_only_data_layer.cpp:49] Opening file /home/mpopovic/workspace/weedNet-devel/SegNet-Tutorial/train_and_test_data/rit-18/5m_10m_15m/trainir1.txt
I0612 10:38:52.962704 14693 dense_image_only_data_layer.cpp:65] A total of 810 examples.
I0612 10:38:52.978354 14693 dense_image_only_data_layer.cpp:118] output data size: 5,1,360,480
I0612 10:38:52.979348 14693 net.cpp:150] Setting up dataIR1
I0612 10:38:52.979372 14693 net.cpp:157] Top shape: 5 1 360 480 (864000)
I0612 10:38:52.979374 14693 net.cpp:165] Memory required for data: 3456000
I0612 10:38:52.979394 14693 layer_factory.hpp:77] Creating layer dataIR2
I0612 10:38:52.979404 14693 net.cpp:100] Creating Layer dataIR2
I0612 10:38:52.979408 14693 net.cpp:408] dataIR2 -> dataIR2
I0612 10:38:52.979416 14693 dense_image_only_data_layer.cpp:49] Opening file /home/mpopovic/workspace/weedNet-devel/SegNet-Tutorial/train_and_test_data/rit-18/5m_10m_15m/trainir2.txt
I0612 10:38:52.979668 14693 dense_image_only_data_layer.cpp:65] A total of 810 examples.
I0612 10:38:52.981130 14693 dense_image_only_data_layer.cpp:118] output data size: 5,1,360,480
I0612 10:38:52.982097 14693 net.cpp:150] Setting up dataIR2
I0612 10:38:52.982117 14693 net.cpp:157] Top shape: 5 1 360 480 (864000)
I0612 10:38:52.982122 14693 net.cpp:165] Memory required for data: 6912000
I0612 10:38:52.982127 14693 layer_factory.hpp:77] Creating layer dataIR3
I0612 10:38:52.982138 14693 net.cpp:100] Creating Layer dataIR3
I0612 10:38:52.982143 14693 net.cpp:408] dataIR3 -> dataIR3
I0612 10:38:52.982154 14693 dense_image_only_data_layer.cpp:49] Opening file /home/mpopovic/workspace/weedNet-devel/SegNet-Tutorial/train_and_test_data/rit-18/5m_10m_15m/trainir3.txt
I0612 10:38:52.982939 14693 dense_image_only_data_layer.cpp:65] A total of 810 examples.
I0612 10:38:52.987673 14693 dense_image_only_data_layer.cpp:118] output data size: 5,1,360,480
I0612 10:38:52.990123 14693 net.cpp:150] Setting up dataIR3
I0612 10:38:52.990141 14693 net.cpp:157] Top shape: 5 1 360 480 (864000)
I0612 10:38:52.990144 14693 net.cpp:165] Memory required for data: 10368000
I0612 10:38:52.990147 14693 layer_factory.hpp:77] Creating layer dataRGB
I0612 10:38:52.990154 14693 net.cpp:100] Creating Layer dataRGB
I0612 10:38:52.990157 14693 net.cpp:408] dataRGB -> dataRGB
I0612 10:38:52.990164 14693 net.cpp:408] dataRGB -> label
I0612 10:38:52.990173 14693 dense_image_data_layer.cpp:49] Opening file /home/mpopovic/workspace/weedNet-devel/SegNet-Tutorial/train_and_test_data/rit-18/5m_10m_15m/train.txt
I0612 10:38:52.990564 14693 dense_image_data_layer.cpp:64] A total of 810 examples.
I0612 10:38:52.997704 14693 dense_image_data_layer.cpp:117] output data size: 5,3,360,480
I0612 10:38:53.004894 14693 net.cpp:150] Setting up dataRGB
I0612 10:38:53.004925 14693 net.cpp:157] Top shape: 5 3 360 480 (2592000)
I0612 10:38:53.004930 14693 net.cpp:157] Top shape: 5 1 360 480 (864000)
I0612 10:38:53.004932 14693 net.cpp:165] Memory required for data: 24192000
I0612 10:38:53.004940 14693 layer_factory.hpp:77] Creating layer label_dataRGB_1_split
I0612 10:38:53.004957 14693 net.cpp:100] Creating Layer label_dataRGB_1_split
I0612 10:38:53.004966 14693 net.cpp:434] label_dataRGB_1_split <- label
I0612 10:38:53.004979 14693 net.cpp:408] label_dataRGB_1_split -> label_dataRGB_1_split_0
I0612 10:38:53.004987 14693 net.cpp:408] label_dataRGB_1_split -> label_dataRGB_1_split_1
I0612 10:38:53.005033 14693 net.cpp:150] Setting up label_dataRGB_1_split
I0612 10:38:53.005038 14693 net.cpp:157] Top shape: 5 1 360 480 (864000)
I0612 10:38:53.005041 14693 net.cpp:157] Top shape: 5 1 360 480 (864000)
I0612 10:38:53.005043 14693 net.cpp:165] Memory required for data: 31104000
I0612 10:38:53.005045 14693 layer_factory.hpp:77] Creating layer data
I0612 10:38:53.005050 14693 net.cpp:100] Creating Layer data
I0612 10:38:53.005053 14693 net.cpp:434] data <- dataIR1
I0612 10:38:53.005055 14693 net.cpp:434] data <- dataIR2
I0612 10:38:53.005057 14693 net.cpp:434] data <- dataIR3
I0612 10:38:53.005060 14693 net.cpp:434] data <- dataRGB
I0612 10:38:53.005064 14693 net.cpp:408] data -> data
I0612 10:38:53.005082 14693 net.cpp:150] Setting up data
I0612 10:38:53.005085 14693 net.cpp:157] Top shape: 5 6 360 480 (5184000)
I0612 10:38:53.005087 14693 net.cpp:165] Memory required for data: 51840000
I0612 10:38:53.005089 14693 layer_factory.hpp:77] Creating layer multiconv1_1
I0612 10:38:53.005098 14693 net.cpp:100] Creating Layer multiconv1_1
I0612 10:38:53.005101 14693 net.cpp:434] multiconv1_1 <- data
I0612 10:38:53.005105 14693 net.cpp:408] multiconv1_1 -> conv1_1
I0612 10:38:54.006805 14693 net.cpp:150] Setting up multiconv1_1
I0612 10:38:54.006837 14693 net.cpp:157] Top shape: 5 64 360 480 (55296000)
I0612 10:38:54.006840 14693 net.cpp:165] Memory required for data: 273024000
I0612 10:38:54.006856 14693 layer_factory.hpp:77] Creating layer conv1_1_bn
I0612 10:38:54.006868 14693 net.cpp:100] Creating Layer conv1_1_bn
I0612 10:38:54.006871 14693 net.cpp:434] conv1_1_bn <- conv1_1
I0612 10:38:54.006877 14693 net.cpp:395] conv1_1_bn -> conv1_1 (in-place)
I0612 10:38:54.007153 14693 net.cpp:150] Setting up conv1_1_bn
I0612 10:38:54.007158 14693 net.cpp:157] Top shape: 5 64 360 480 (55296000)
I0612 10:38:54.007160 14693 net.cpp:165] Memory required for data: 494208000
I0612 10:38:54.007164 14693 layer_factory.hpp:77] Creating layer relu1_1
I0612 10:38:54.007170 14693 net.cpp:100] Creating Layer relu1_1
I0612 10:38:54.007172 14693 net.cpp:434] relu1_1 <- conv1_1
I0612 10:38:54.007175 14693 net.cpp:395] relu1_1 -> conv1_1 (in-place)
I0612 10:38:54.007302 14693 net.cpp:150] Setting up relu1_1
I0612 10:38:54.007308 14693 net.cpp:157] Top shape: 5 64 360 480 (55296000)
I0612 10:38:54.007309 14693 net.cpp:165] Memory required for data: 715392000
I0612 10:38:54.007311 14693 layer_factory.hpp:77] Creating layer conv1_2
I0612 10:38:54.007316 14693 net.cpp:100] Creating Layer conv1_2
I0612 10:38:54.007318 14693 net.cpp:434] conv1_2 <- conv1_1
I0612 10:38:54.007321 14693 net.cpp:408] conv1_2 -> conv1_2
I0612 10:38:54.009970 14693 net.cpp:150] Setting up conv1_2
I0612 10:38:54.009980 14693 net.cpp:157] Top shape: 5 64 360 480 (55296000)
I0612 10:38:54.009982 14693 net.cpp:165] Memory required for data: 936576000
I0612 10:38:54.009989 14693 layer_factory.hpp:77] Creating layer conv1_2_bn
I0612 10:38:54.009994 14693 net.cpp:100] Creating Layer conv1_2_bn
I0612 10:38:54.009996 14693 net.cpp:434] conv1_2_bn <- conv1_2
I0612 10:38:54.009999 14693 net.cpp:395] conv1_2_bn -> conv1_2 (in-place)
I0612 10:38:54.010263 14693 net.cpp:150] Setting up conv1_2_bn
I0612 10:38:54.010267 14693 net.cpp:157] Top shape: 5 64 360 480 (55296000)
I0612 10:38:54.010269 14693 net.cpp:165] Memory required for data: 1157760000
I0612 10:38:54.010272 14693 layer_factory.hpp:77] Creating layer relu1_2
I0612 10:38:54.010277 14693 net.cpp:100] Creating Layer relu1_2
I0612 10:38:54.010279 14693 net.cpp:434] relu1_2 <- conv1_2
I0612 10:38:54.010282 14693 net.cpp:395] relu1_2 -> conv1_2 (in-place)
I0612 10:38:54.010391 14693 net.cpp:150] Setting up relu1_2
I0612 10:38:54.010397 14693 net.cpp:157] Top shape: 5 64 360 480 (55296000)
I0612 10:38:54.010399 14693 net.cpp:165] Memory required for data: 1378944000
I0612 10:38:54.010401 14693 layer_factory.hpp:77] Creating layer pool1
I0612 10:38:54.010403 14693 layer_factory.cpp:91] cuDNN does not support multiple tops. Using Caffe's own pooling layer.
I0612 10:38:54.010407 14693 net.cpp:100] Creating Layer pool1
I0612 10:38:54.010409 14693 net.cpp:434] pool1 <- conv1_2
I0612 10:38:54.010412 14693 net.cpp:408] pool1 -> pool1
I0612 10:38:54.010417 14693 net.cpp:408] pool1 -> pool1_mask
I0612 10:38:54.010457 14693 net.cpp:150] Setting up pool1
I0612 10:38:54.010460 14693 net.cpp:157] Top shape: 5 64 180 240 (13824000)
I0612 10:38:54.010463 14693 net.cpp:157] Top shape: 5 64 180 240 (13824000)
I0612 10:38:54.010464 14693 net.cpp:165] Memory required for data: 1489536000
I0612 10:38:54.010466 14693 layer_factory.hpp:77] Creating layer conv2_1
I0612 10:38:54.010470 14693 net.cpp:100] Creating Layer conv2_1
I0612 10:38:54.010473 14693 net.cpp:434] conv2_1 <- pool1
I0612 10:38:54.010475 14693 net.cpp:408] conv2_1 -> conv2_1
I0612 10:38:54.013294 14693 net.cpp:150] Setting up conv2_1
I0612 10:38:54.013303 14693 net.cpp:157] Top shape: 5 128 180 240 (27648000)
I0612 10:38:54.013304 14693 net.cpp:165] Memory required for data: 1600128000
I0612 10:38:54.013310 14693 layer_factory.hpp:77] Creating layer conv2_1_bn
I0612 10:38:54.013315 14693 net.cpp:100] Creating Layer conv2_1_bn
I0612 10:38:54.013319 14693 net.cpp:434] conv2_1_bn <- conv2_1
I0612 10:38:54.013320 14693 net.cpp:395] conv2_1_bn -> conv2_1 (in-place)
I0612 10:38:54.013558 14693 net.cpp:150] Setting up conv2_1_bn
I0612 10:38:54.013571 14693 net.cpp:157] Top shape: 5 128 180 240 (27648000)
I0612 10:38:54.013572 14693 net.cpp:165] Memory required for data: 1710720000
I0612 10:38:54.013576 14693 layer_factory.hpp:77] Creating layer relu2_1
I0612 10:38:54.013579 14693 net.cpp:100] Creating Layer relu2_1
I0612 10:38:54.013581 14693 net.cpp:434] relu2_1 <- conv2_1
I0612 10:38:54.013584 14693 net.cpp:395] relu2_1 -> conv2_1 (in-place)
I0612 10:38:54.013921 14693 net.cpp:150] Setting up relu2_1
I0612 10:38:54.013927 14693 net.cpp:157] Top shape: 5 128 180 240 (27648000)
I0612 10:38:54.013931 14693 net.cpp:165] Memory required for data: 1821312000
I0612 10:38:54.013932 14693 layer_factory.hpp:77] Creating layer conv2_2
I0612 10:38:54.013938 14693 net.cpp:100] Creating Layer conv2_2
I0612 10:38:54.013942 14693 net.cpp:434] conv2_2 <- conv2_1
I0612 10:38:54.013944 14693 net.cpp:408] conv2_2 -> conv2_2
I0612 10:38:54.017329 14693 net.cpp:150] Setting up conv2_2
I0612 10:38:54.017338 14693 net.cpp:157] Top shape: 5 128 180 240 (27648000)
I0612 10:38:54.017339 14693 net.cpp:165] Memory required for data: 1931904000
I0612 10:38:54.017343 14693 layer_factory.hpp:77] Creating layer conv2_2_bn
I0612 10:38:54.017349 14693 net.cpp:100] Creating Layer conv2_2_bn
I0612 10:38:54.017351 14693 net.cpp:434] conv2_2_bn <- conv2_2
I0612 10:38:54.017354 14693 net.cpp:395] conv2_2_bn -> conv2_2 (in-place)
I0612 10:38:54.017594 14693 net.cpp:150] Setting up conv2_2_bn
I0612 10:38:54.017598 14693 net.cpp:157] Top shape: 5 128 180 240 (27648000)
I0612 10:38:54.017601 14693 net.cpp:165] Memory required for data: 2042496000
I0612 10:38:54.017603 14693 layer_factory.hpp:77] Creating layer relu2_2
I0612 10:38:54.017606 14693 net.cpp:100] Creating Layer relu2_2
I0612 10:38:54.017609 14693 net.cpp:434] relu2_2 <- conv2_2
I0612 10:38:54.017612 14693 net.cpp:395] relu2_2 -> conv2_2 (in-place)
I0612 10:38:54.017722 14693 net.cpp:150] Setting up relu2_2
I0612 10:38:54.017726 14693 net.cpp:157] Top shape: 5 128 180 240 (27648000)
I0612 10:38:54.017729 14693 net.cpp:165] Memory required for data: 2153088000
I0612 10:38:54.017730 14693 layer_factory.hpp:77] Creating layer pool2
I0612 10:38:54.017733 14693 layer_factory.cpp:91] cuDNN does not support multiple tops. Using Caffe's own pooling layer.
I0612 10:38:54.017736 14693 net.cpp:100] Creating Layer pool2
I0612 10:38:54.017740 14693 net.cpp:434] pool2 <- conv2_2
I0612 10:38:54.017742 14693 net.cpp:408] pool2 -> pool2
I0612 10:38:54.017746 14693 net.cpp:408] pool2 -> pool2_mask
I0612 10:38:54.017781 14693 net.cpp:150] Setting up pool2
I0612 10:38:54.017784 14693 net.cpp:157] Top shape: 5 128 90 120 (6912000)
I0612 10:38:54.017786 14693 net.cpp:157] Top shape: 5 128 90 120 (6912000)
I0612 10:38:54.017788 14693 net.cpp:165] Memory required for data: 2208384000
I0612 10:38:54.017791 14693 layer_factory.hpp:77] Creating layer conv3_1
I0612 10:38:54.017796 14693 net.cpp:100] Creating Layer conv3_1
I0612 10:38:54.017797 14693 net.cpp:434] conv3_1 <- pool2
I0612 10:38:54.017801 14693 net.cpp:408] conv3_1 -> conv3_1
I0612 10:38:54.024375 14693 net.cpp:150] Setting up conv3_1
I0612 10:38:54.024384 14693 net.cpp:157] Top shape: 5 256 90 120 (13824000)
I0612 10:38:54.024386 14693 net.cpp:165] Memory required for data: 2263680000
I0612 10:38:54.024395 14693 layer_factory.hpp:77] Creating layer conv3_1_bn
I0612 10:38:54.024402 14693 net.cpp:100] Creating Layer conv3_1_bn
I0612 10:38:54.024406 14693 net.cpp:434] conv3_1_bn <- conv3_1
I0612 10:38:54.024412 14693 net.cpp:395] conv3_1_bn -> conv3_1 (in-place)
I0612 10:38:54.024682 14693 net.cpp:150] Setting up conv3_1_bn
I0612 10:38:54.024688 14693 net.cpp:157] Top shape: 5 256 90 120 (13824000)
I0612 10:38:54.024690 14693 net.cpp:165] Memory required for data: 2318976000
I0612 10:38:54.024695 14693 layer_factory.hpp:77] Creating layer relu3_1
I0612 10:38:54.024701 14693 net.cpp:100] Creating Layer relu3_1
I0612 10:38:54.024704 14693 net.cpp:434] relu3_1 <- conv3_1
I0612 10:38:54.024709 14693 net.cpp:395] relu3_1 -> conv3_1 (in-place)
I0612 10:38:54.024873 14693 net.cpp:150] Setting up relu3_1
I0612 10:38:54.024888 14693 net.cpp:157] Top shape: 5 256 90 120 (13824000)
I0612 10:38:54.024890 14693 net.cpp:165] Memory required for data: 2374272000
I0612 10:38:54.024894 14693 layer_factory.hpp:77] Creating layer conv3_2
I0612 10:38:54.024901 14693 net.cpp:100] Creating Layer conv3_2
I0612 10:38:54.024905 14693 net.cpp:434] conv3_2 <- conv3_1
I0612 10:38:54.024911 14693 net.cpp:408] conv3_2 -> conv3_2
I0612 10:38:54.036167 14693 net.cpp:150] Setting up conv3_2
I0612 10:38:54.036175 14693 net.cpp:157] Top shape: 5 256 90 120 (13824000)
I0612 10:38:54.036178 14693 net.cpp:165] Memory required for data: 2429568000
I0612 10:38:54.036183 14693 layer_factory.hpp:77] Creating layer conv3_2_bn
I0612 10:38:54.036190 14693 net.cpp:100] Creating Layer conv3_2_bn
I0612 10:38:54.036195 14693 net.cpp:434] conv3_2_bn <- conv3_2
I0612 10:38:54.036201 14693 net.cpp:395] conv3_2_bn -> conv3_2 (in-place)
I0612 10:38:54.036471 14693 net.cpp:150] Setting up conv3_2_bn
I0612 10:38:54.036478 14693 net.cpp:157] Top shape: 5 256 90 120 (13824000)
I0612 10:38:54.036480 14693 net.cpp:165] Memory required for data: 2484864000
I0612 10:38:54.036485 14693 layer_factory.hpp:77] Creating layer relu3_2
I0612 10:38:54.036491 14693 net.cpp:100] Creating Layer relu3_2
I0612 10:38:54.036495 14693 net.cpp:434] relu3_2 <- conv3_2
I0612 10:38:54.036499 14693 net.cpp:395] relu3_2 -> conv3_2 (in-place)
I0612 10:38:54.036895 14693 net.cpp:150] Setting up relu3_2
I0612 10:38:54.036902 14693 net.cpp:157] Top shape: 5 256 90 120 (13824000)
I0612 10:38:54.036906 14693 net.cpp:165] Memory required for data: 2540160000
I0612 10:38:54.036909 14693 layer_factory.hpp:77] Creating layer conv3_3
I0612 10:38:54.036916 14693 net.cpp:100] Creating Layer conv3_3
I0612 10:38:54.036921 14693 net.cpp:434] conv3_3 <- conv3_2
I0612 10:38:54.036926 14693 net.cpp:408] conv3_3 -> conv3_3
I0612 10:38:54.048208 14693 net.cpp:150] Setting up conv3_3
I0612 10:38:54.048218 14693 net.cpp:157] Top shape: 5 256 90 120 (13824000)
I0612 10:38:54.048220 14693 net.cpp:165] Memory required for data: 2595456000
I0612 10:38:54.048226 14693 layer_factory.hpp:77] Creating layer conv3_3_bn
I0612 10:38:54.048233 14693 net.cpp:100] Creating Layer conv3_3_bn
I0612 10:38:54.048236 14693 net.cpp:434] conv3_3_bn <- conv3_3
I0612 10:38:54.048243 14693 net.cpp:395] conv3_3_bn -> conv3_3 (in-place)
I0612 10:38:54.048516 14693 net.cpp:150] Setting up conv3_3_bn
I0612 10:38:54.048522 14693 net.cpp:157] Top shape: 5 256 90 120 (13824000)
I0612 10:38:54.048526 14693 net.cpp:165] Memory required for data: 2650752000
I0612 10:38:54.048530 14693 layer_factory.hpp:77] Creating layer relu3_3
I0612 10:38:54.048537 14693 net.cpp:100] Creating Layer relu3_3
I0612 10:38:54.048540 14693 net.cpp:434] relu3_3 <- conv3_3
I0612 10:38:54.048545 14693 net.cpp:395] relu3_3 -> conv3_3 (in-place)
I0612 10:38:54.048705 14693 net.cpp:150] Setting up relu3_3
I0612 10:38:54.048712 14693 net.cpp:157] Top shape: 5 256 90 120 (13824000)
I0612 10:38:54.048717 14693 net.cpp:165] Memory required for data: 2706048000
I0612 10:38:54.048719 14693 layer_factory.hpp:77] Creating layer pool3
I0612 10:38:54.048723 14693 layer_factory.cpp:91] cuDNN does not support multiple tops. Using Caffe's own pooling layer.
I0612 10:38:54.048728 14693 net.cpp:100] Creating Layer pool3
I0612 10:38:54.048732 14693 net.cpp:434] pool3 <- conv3_3
I0612 10:38:54.048738 14693 net.cpp:408] pool3 -> pool3
I0612 10:38:54.048743 14693 net.cpp:408] pool3 -> pool3_mask
I0612 10:38:54.048794 14693 net.cpp:150] Setting up pool3
I0612 10:38:54.048800 14693 net.cpp:157] Top shape: 5 256 45 60 (3456000)
I0612 10:38:54.048805 14693 net.cpp:157] Top shape: 5 256 45 60 (3456000)
I0612 10:38:54.048808 14693 net.cpp:165] Memory required for data: 2733696000
I0612 10:38:54.048812 14693 layer_factory.hpp:77] Creating layer conv4_1
I0612 10:38:54.048820 14693 net.cpp:100] Creating Layer conv4_1
I0612 10:38:54.048823 14693 net.cpp:434] conv4_1 <- pool3
I0612 10:38:54.048828 14693 net.cpp:408] conv4_1 -> conv4_1
I0612 10:38:54.070799 14693 net.cpp:150] Setting up conv4_1
I0612 10:38:54.070825 14693 net.cpp:157] Top shape: 5 512 45 60 (6912000)
I0612 10:38:54.070828 14693 net.cpp:165] Memory required for data: 2761344000
I0612 10:38:54.070837 14693 layer_factory.hpp:77] Creating layer conv4_1_bn
I0612 10:38:54.070845 14693 net.cpp:100] Creating Layer conv4_1_bn
I0612 10:38:54.070849 14693 net.cpp:434] conv4_1_bn <- conv4_1
I0612 10:38:54.070857 14693 net.cpp:395] conv4_1_bn -> conv4_1 (in-place)
I0612 10:38:54.071142 14693 net.cpp:150] Setting up conv4_1_bn
I0612 10:38:54.071149 14693 net.cpp:157] Top shape: 5 512 45 60 (6912000)
I0612 10:38:54.071152 14693 net.cpp:165] Memory required for data: 2788992000
I0612 10:38:54.071157 14693 layer_factory.hpp:77] Creating layer relu4_1
I0612 10:38:54.071166 14693 net.cpp:100] Creating Layer relu4_1
I0612 10:38:54.071171 14693 net.cpp:434] relu4_1 <- conv4_1
I0612 10:38:54.071175 14693 net.cpp:395] relu4_1 -> conv4_1 (in-place)
I0612 10:38:54.071341 14693 net.cpp:150] Setting up relu4_1
I0612 10:38:54.071346 14693 net.cpp:157] Top shape: 5 512 45 60 (6912000)
I0612 10:38:54.071349 14693 net.cpp:165] Memory required for data: 2816640000
I0612 10:38:54.071352 14693 layer_factory.hpp:77] Creating layer conv4_2
I0612 10:38:54.071360 14693 net.cpp:100] Creating Layer conv4_2
I0612 10:38:54.071364 14693 net.cpp:434] conv4_2 <- conv4_1
I0612 10:38:54.071370 14693 net.cpp:408] conv4_2 -> conv4_2
I0612 10:38:54.112318 14693 net.cpp:150] Setting up conv4_2
I0612 10:38:54.112334 14693 net.cpp:157] Top shape: 5 512 45 60 (6912000)
I0612 10:38:54.112336 14693 net.cpp:165] Memory required for data: 2844288000
I0612 10:38:54.112354 14693 layer_factory.hpp:77] Creating layer conv4_2_bn
I0612 10:38:54.112361 14693 net.cpp:100] Creating Layer conv4_2_bn
I0612 10:38:54.112366 14693 net.cpp:434] conv4_2_bn <- conv4_2
I0612 10:38:54.112372 14693 net.cpp:395] conv4_2_bn -> conv4_2 (in-place)
I0612 10:38:54.112651 14693 net.cpp:150] Setting up conv4_2_bn
I0612 10:38:54.112658 14693 net.cpp:157] Top shape: 5 512 45 60 (6912000)
I0612 10:38:54.112659 14693 net.cpp:165] Memory required for data: 2871936000
I0612 10:38:54.112665 14693 layer_factory.hpp:77] Creating layer relu4_2
I0612 10:38:54.112671 14693 net.cpp:100] Creating Layer relu4_2
I0612 10:38:54.112675 14693 net.cpp:434] relu4_2 <- conv4_2
I0612 10:38:54.112680 14693 net.cpp:395] relu4_2 -> conv4_2 (in-place)
I0612 10:38:54.112843 14693 net.cpp:150] Setting up relu4_2
I0612 10:38:54.112850 14693 net.cpp:157] Top shape: 5 512 45 60 (6912000)
I0612 10:38:54.112852 14693 net.cpp:165] Memory required for data: 2899584000
I0612 10:38:54.112856 14693 layer_factory.hpp:77] Creating layer conv4_3
I0612 10:38:54.112864 14693 net.cpp:100] Creating Layer conv4_3
I0612 10:38:54.112869 14693 net.cpp:434] conv4_3 <- conv4_2
I0612 10:38:54.112874 14693 net.cpp:408] conv4_3 -> conv4_3
I0612 10:38:54.153870 14693 net.cpp:150] Setting up conv4_3
I0612 10:38:54.153887 14693 net.cpp:157] Top shape: 5 512 45 60 (6912000)
I0612 10:38:54.153889 14693 net.cpp:165] Memory required for data: 2927232000
I0612 10:38:54.153897 14693 layer_factory.hpp:77] Creating layer conv4_3_bn
I0612 10:38:54.153906 14693 net.cpp:100] Creating Layer conv4_3_bn
I0612 10:38:54.153911 14693 net.cpp:434] conv4_3_bn <- conv4_3
I0612 10:38:54.153918 14693 net.cpp:395] conv4_3_bn -> conv4_3 (in-place)
I0612 10:38:54.154202 14693 net.cpp:150] Setting up conv4_3_bn
I0612 10:38:54.154209 14693 net.cpp:157] Top shape: 5 512 45 60 (6912000)
I0612 10:38:54.154212 14693 net.cpp:165] Memory required for data: 2954880000
I0612 10:38:54.154217 14693 layer_factory.hpp:77] Creating layer relu4_3
I0612 10:38:54.154223 14693 net.cpp:100] Creating Layer relu4_3
I0612 10:38:54.154227 14693 net.cpp:434] relu4_3 <- conv4_3
I0612 10:38:54.154232 14693 net.cpp:395] relu4_3 -> conv4_3 (in-place)
I0612 10:38:54.154667 14693 net.cpp:150] Setting up relu4_3
I0612 10:38:54.154675 14693 net.cpp:157] Top shape: 5 512 45 60 (6912000)
I0612 10:38:54.154678 14693 net.cpp:165] Memory required for data: 2982528000
I0612 10:38:54.154681 14693 layer_factory.hpp:77] Creating layer pool4
I0612 10:38:54.154697 14693 layer_factory.cpp:91] cuDNN does not support multiple tops. Using Caffe's own pooling layer.
I0612 10:38:54.154701 14693 net.cpp:100] Creating Layer pool4
I0612 10:38:54.154706 14693 net.cpp:434] pool4 <- conv4_3
I0612 10:38:54.154711 14693 net.cpp:408] pool4 -> pool4
I0612 10:38:54.154718 14693 net.cpp:408] pool4 -> pool4_mask
I0612 10:38:54.154774 14693 net.cpp:150] Setting up pool4
I0612 10:38:54.154780 14693 net.cpp:157] Top shape: 5 512 23 30 (1766400)
I0612 10:38:54.154785 14693 net.cpp:157] Top shape: 5 512 23 30 (1766400)
I0612 10:38:54.154788 14693 net.cpp:165] Memory required for data: 2996659200
I0612 10:38:54.154791 14693 layer_factory.hpp:77] Creating layer conv5_1
I0612 10:38:54.154798 14693 net.cpp:100] Creating Layer conv5_1
I0612 10:38:54.154803 14693 net.cpp:434] conv5_1 <- pool4
I0612 10:38:54.154808 14693 net.cpp:408] conv5_1 -> conv5_1
I0612 10:38:54.195818 14693 net.cpp:150] Setting up conv5_1
I0612 10:38:54.195835 14693 net.cpp:157] Top shape: 5 512 23 30 (1766400)
I0612 10:38:54.195837 14693 net.cpp:165] Memory required for data: 3003724800
I0612 10:38:54.195845 14693 layer_factory.hpp:77] Creating layer conv5_1_bn
I0612 10:38:54.195854 14693 net.cpp:100] Creating Layer conv5_1_bn
I0612 10:38:54.195859 14693 net.cpp:434] conv5_1_bn <- conv5_1
I0612 10:38:54.195864 14693 net.cpp:395] conv5_1_bn -> conv5_1 (in-place)
I0612 10:38:54.196149 14693 net.cpp:150] Setting up conv5_1_bn
I0612 10:38:54.196156 14693 net.cpp:157] Top shape: 5 512 23 30 (1766400)
I0612 10:38:54.196158 14693 net.cpp:165] Memory required for data: 3010790400
I0612 10:38:54.196166 14693 layer_factory.hpp:77] Creating layer relu5_1
I0612 10:38:54.196171 14693 net.cpp:100] Creating Layer relu5_1
I0612 10:38:54.196174 14693 net.cpp:434] relu5_1 <- conv5_1
I0612 10:38:54.196179 14693 net.cpp:395] relu5_1 -> conv5_1 (in-place)
I0612 10:38:54.196342 14693 net.cpp:150] Setting up relu5_1
I0612 10:38:54.196348 14693 net.cpp:157] Top shape: 5 512 23 30 (1766400)
I0612 10:38:54.196352 14693 net.cpp:165] Memory required for data: 3017856000
I0612 10:38:54.196355 14693 layer_factory.hpp:77] Creating layer conv5_2
I0612 10:38:54.196362 14693 net.cpp:100] Creating Layer conv5_2
I0612 10:38:54.196367 14693 net.cpp:434] conv5_2 <- conv5_1
I0612 10:38:54.196372 14693 net.cpp:408] conv5_2 -> conv5_2
I0612 10:38:54.237321 14693 net.cpp:150] Setting up conv5_2
I0612 10:38:54.237339 14693 net.cpp:157] Top shape: 5 512 23 30 (1766400)
I0612 10:38:54.237340 14693 net.cpp:165] Memory required for data: 3024921600
I0612 10:38:54.237350 14693 layer_factory.hpp:77] Creating layer conv5_2_bn
I0612 10:38:54.237360 14693 net.cpp:100] Creating Layer conv5_2_bn
I0612 10:38:54.237365 14693 net.cpp:434] conv5_2_bn <- conv5_2
I0612 10:38:54.237371 14693 net.cpp:395] conv5_2_bn -> conv5_2 (in-place)
I0612 10:38:54.237654 14693 net.cpp:150] Setting up conv5_2_bn
I0612 10:38:54.237660 14693 net.cpp:157] Top shape: 5 512 23 30 (1766400)
I0612 10:38:54.237663 14693 net.cpp:165] Memory required for data: 3031987200
I0612 10:38:54.237668 14693 layer_factory.hpp:77] Creating layer relu5_2
I0612 10:38:54.237674 14693 net.cpp:100] Creating Layer relu5_2
I0612 10:38:54.237679 14693 net.cpp:434] relu5_2 <- conv5_2
I0612 10:38:54.237684 14693 net.cpp:395] relu5_2 -> conv5_2 (in-place)
I0612 10:38:54.237846 14693 net.cpp:150] Setting up relu5_2
I0612 10:38:54.237854 14693 net.cpp:157] Top shape: 5 512 23 30 (1766400)
I0612 10:38:54.237855 14693 net.cpp:165] Memory required for data: 3039052800
I0612 10:38:54.237859 14693 layer_factory.hpp:77] Creating layer conv5_3
I0612 10:38:54.237866 14693 net.cpp:100] Creating Layer conv5_3
I0612 10:38:54.237870 14693 net.cpp:434] conv5_3 <- conv5_2
I0612 10:38:54.237876 14693 net.cpp:408] conv5_3 -> conv5_3
I0612 10:38:54.278836 14693 net.cpp:150] Setting up conv5_3
I0612 10:38:54.278852 14693 net.cpp:157] Top shape: 5 512 23 30 (1766400)
I0612 10:38:54.278856 14693 net.cpp:165] Memory required for data: 3046118400
I0612 10:38:54.278863 14693 layer_factory.hpp:77] Creating layer conv5_3_bn
I0612 10:38:54.278872 14693 net.cpp:100] Creating Layer conv5_3_bn
I0612 10:38:54.278890 14693 net.cpp:434] conv5_3_bn <- conv5_3
I0612 10:38:54.278898 14693 net.cpp:395] conv5_3_bn -> conv5_3 (in-place)
I0612 10:38:54.279189 14693 net.cpp:150] Setting up conv5_3_bn
I0612 10:38:54.279196 14693 net.cpp:157] Top shape: 5 512 23 30 (1766400)
I0612 10:38:54.279198 14693 net.cpp:165] Memory required for data: 3053184000
I0612 10:38:54.279203 14693 layer_factory.hpp:77] Creating layer relu5_3
I0612 10:38:54.279209 14693 net.cpp:100] Creating Layer relu5_3
I0612 10:38:54.279213 14693 net.cpp:434] relu5_3 <- conv5_3
I0612 10:38:54.279218 14693 net.cpp:395] relu5_3 -> conv5_3 (in-place)
I0612 10:38:54.279665 14693 net.cpp:150] Setting up relu5_3
I0612 10:38:54.279673 14693 net.cpp:157] Top shape: 5 512 23 30 (1766400)
I0612 10:38:54.279676 14693 net.cpp:165] Memory required for data: 3060249600
I0612 10:38:54.279680 14693 layer_factory.hpp:77] Creating layer pool5
I0612 10:38:54.279685 14693 layer_factory.cpp:91] cuDNN does not support multiple tops. Using Caffe's own pooling layer.
I0612 10:38:54.279690 14693 net.cpp:100] Creating Layer pool5
I0612 10:38:54.279693 14693 net.cpp:434] pool5 <- conv5_3
I0612 10:38:54.279698 14693 net.cpp:408] pool5 -> pool5
I0612 10:38:54.279706 14693 net.cpp:408] pool5 -> pool5_mask
I0612 10:38:54.279763 14693 net.cpp:150] Setting up pool5
I0612 10:38:54.279770 14693 net.cpp:157] Top shape: 5 512 12 15 (460800)
I0612 10:38:54.279774 14693 net.cpp:157] Top shape: 5 512 12 15 (460800)
I0612 10:38:54.279778 14693 net.cpp:165] Memory required for data: 3063936000
I0612 10:38:54.279781 14693 layer_factory.hpp:77] Creating layer upsample5
I0612 10:38:54.279793 14693 net.cpp:100] Creating Layer upsample5
I0612 10:38:54.279796 14693 net.cpp:434] upsample5 <- pool5
I0612 10:38:54.279801 14693 net.cpp:434] upsample5 <- pool5_mask
I0612 10:38:54.279805 14693 net.cpp:408] upsample5 -> pool5_D
I0612 10:38:54.279837 14693 net.cpp:150] Setting up upsample5
I0612 10:38:54.279842 14693 net.cpp:157] Top shape: 5 512 23 30 (1766400)
I0612 10:38:54.279846 14693 net.cpp:165] Memory required for data: 3071001600
I0612 10:38:54.279850 14693 layer_factory.hpp:77] Creating layer conv5_3_D
I0612 10:38:54.279856 14693 net.cpp:100] Creating Layer conv5_3_D
I0612 10:38:54.279860 14693 net.cpp:434] conv5_3_D <- pool5_D
I0612 10:38:54.279865 14693 net.cpp:408] conv5_3_D -> conv5_3_D
I0612 10:38:54.320999 14693 net.cpp:150] Setting up conv5_3_D
I0612 10:38:54.321015 14693 net.cpp:157] Top shape: 5 512 23 30 (1766400)
I0612 10:38:54.321018 14693 net.cpp:165] Memory required for data: 3078067200
I0612 10:38:54.321025 14693 layer_factory.hpp:77] Creating layer conv5_3_D_bn
I0612 10:38:54.321035 14693 net.cpp:100] Creating Layer conv5_3_D_bn
I0612 10:38:54.321040 14693 net.cpp:434] conv5_3_D_bn <- conv5_3_D
I0612 10:38:54.321046 14693 net.cpp:395] conv5_3_D_bn -> conv5_3_D (in-place)
I0612 10:38:54.321338 14693 net.cpp:150] Setting up conv5_3_D_bn
I0612 10:38:54.321344 14693 net.cpp:157] Top shape: 5 512 23 30 (1766400)
I0612 10:38:54.321346 14693 net.cpp:165] Memory required for data: 3085132800
I0612 10:38:54.321352 14693 layer_factory.hpp:77] Creating layer relu5_3_D
I0612 10:38:54.321359 14693 net.cpp:100] Creating Layer relu5_3_D
I0612 10:38:54.321362 14693 net.cpp:434] relu5_3_D <- conv5_3_D
I0612 10:38:54.321367 14693 net.cpp:395] relu5_3_D -> conv5_3_D (in-place)
I0612 10:38:54.321545 14693 net.cpp:150] Setting up relu5_3_D
I0612 10:38:54.321552 14693 net.cpp:157] Top shape: 5 512 23 30 (1766400)
I0612 10:38:54.321555 14693 net.cpp:165] Memory required for data: 3092198400
I0612 10:38:54.321559 14693 layer_factory.hpp:77] Creating layer conv5_2_D
I0612 10:38:54.321568 14693 net.cpp:100] Creating Layer conv5_2_D
I0612 10:38:54.321571 14693 net.cpp:434] conv5_2_D <- conv5_3_D
I0612 10:38:54.321578 14693 net.cpp:408] conv5_2_D -> conv5_2_D
I0612 10:38:54.362843 14693 net.cpp:150] Setting up conv5_2_D
I0612 10:38:54.362861 14693 net.cpp:157] Top shape: 5 512 23 30 (1766400)
I0612 10:38:54.362864 14693 net.cpp:165] Memory required for data: 3099264000
I0612 10:38:54.362891 14693 layer_factory.hpp:77] Creating layer conv5_2_D_bn
I0612 10:38:54.362901 14693 net.cpp:100] Creating Layer conv5_2_D_bn
I0612 10:38:54.362906 14693 net.cpp:434] conv5_2_D_bn <- conv5_2_D
I0612 10:38:54.362915 14693 net.cpp:395] conv5_2_D_bn -> conv5_2_D (in-place)
I0612 10:38:54.363217 14693 net.cpp:150] Setting up conv5_2_D_bn
I0612 10:38:54.363222 14693 net.cpp:157] Top shape: 5 512 23 30 (1766400)
I0612 10:38:54.363224 14693 net.cpp:165] Memory required for data: 3106329600
I0612 10:38:54.363230 14693 layer_factory.hpp:77] Creating layer relu5_2_D
I0612 10:38:54.363236 14693 net.cpp:100] Creating Layer relu5_2_D
I0612 10:38:54.363240 14693 net.cpp:434] relu5_2_D <- conv5_2_D
I0612 10:38:54.363245 14693 net.cpp:395] relu5_2_D -> conv5_2_D (in-place)
I0612 10:38:54.363426 14693 net.cpp:150] Setting up relu5_2_D
I0612 10:38:54.363431 14693 net.cpp:157] Top shape: 5 512 23 30 (1766400)
I0612 10:38:54.363433 14693 net.cpp:165] Memory required for data: 3113395200
I0612 10:38:54.363437 14693 layer_factory.hpp:77] Creating layer conv5_1_D
I0612 10:38:54.363445 14693 net.cpp:100] Creating Layer conv5_1_D
I0612 10:38:54.363449 14693 net.cpp:434] conv5_1_D <- conv5_2_D
I0612 10:38:54.363457 14693 net.cpp:408] conv5_1_D -> conv5_1_D
I0612 10:38:54.404495 14693 net.cpp:150] Setting up conv5_1_D
I0612 10:38:54.404512 14693 net.cpp:157] Top shape: 5 512 23 30 (1766400)
I0612 10:38:54.404515 14693 net.cpp:165] Memory required for data: 3120460800
I0612 10:38:54.404521 14693 layer_factory.hpp:77] Creating layer conv5_1_D_bn
I0612 10:38:54.404531 14693 net.cpp:100] Creating Layer conv5_1_D_bn
I0612 10:38:54.404536 14693 net.cpp:434] conv5_1_D_bn <- conv5_1_D
I0612 10:38:54.404542 14693 net.cpp:395] conv5_1_D_bn -> conv5_1_D (in-place)
I0612 10:38:54.404845 14693 net.cpp:150] Setting up conv5_1_D_bn
I0612 10:38:54.404851 14693 net.cpp:157] Top shape: 5 512 23 30 (1766400)
I0612 10:38:54.404853 14693 net.cpp:165] Memory required for data: 3127526400
I0612 10:38:54.404860 14693 layer_factory.hpp:77] Creating layer relu5_1_D
I0612 10:38:54.404866 14693 net.cpp:100] Creating Layer relu5_1_D
I0612 10:38:54.404870 14693 net.cpp:434] relu5_1_D <- conv5_1_D
I0612 10:38:54.404875 14693 net.cpp:395] relu5_1_D -> conv5_1_D (in-place)
I0612 10:38:54.405311 14693 net.cpp:150] Setting up relu5_1_D
I0612 10:38:54.405318 14693 net.cpp:157] Top shape: 5 512 23 30 (1766400)
I0612 10:38:54.405321 14693 net.cpp:165] Memory required for data: 3134592000
I0612 10:38:54.405324 14693 layer_factory.hpp:77] Creating layer upsample4
I0612 10:38:54.405331 14693 net.cpp:100] Creating Layer upsample4
I0612 10:38:54.405335 14693 net.cpp:434] upsample4 <- conv5_1_D
I0612 10:38:54.405340 14693 net.cpp:434] upsample4 <- pool4_mask
I0612 10:38:54.405345 14693 net.cpp:408] upsample4 -> pool4_D
I0612 10:38:54.405383 14693 net.cpp:150] Setting up upsample4
I0612 10:38:54.405390 14693 net.cpp:157] Top shape: 5 512 45 60 (6912000)
I0612 10:38:54.405393 14693 net.cpp:165] Memory required for data: 3162240000
I0612 10:38:54.405396 14693 layer_factory.hpp:77] Creating layer conv4_3_D
I0612 10:38:54.405403 14693 net.cpp:100] Creating Layer conv4_3_D
I0612 10:38:54.405407 14693 net.cpp:434] conv4_3_D <- pool4_D
I0612 10:38:54.405413 14693 net.cpp:408] conv4_3_D -> conv4_3_D
I0612 10:38:54.446507 14693 net.cpp:150] Setting up conv4_3_D
I0612 10:38:54.446524 14693 net.cpp:157] Top shape: 5 512 45 60 (6912000)
I0612 10:38:54.446527 14693 net.cpp:165] Memory required for data: 3189888000
I0612 10:38:54.446548 14693 layer_factory.hpp:77] Creating layer conv4_3_D_bn
I0612 10:38:54.446558 14693 net.cpp:100] Creating Layer conv4_3_D_bn
I0612 10:38:54.446563 14693 net.cpp:434] conv4_3_D_bn <- conv4_3_D
I0612 10:38:54.446569 14693 net.cpp:395] conv4_3_D_bn -> conv4_3_D (in-place)
I0612 10:38:54.446885 14693 net.cpp:150] Setting up conv4_3_D_bn
I0612 10:38:54.446892 14693 net.cpp:157] Top shape: 5 512 45 60 (6912000)
I0612 10:38:54.446893 14693 net.cpp:165] Memory required for data: 3217536000
I0612 10:38:54.446899 14693 layer_factory.hpp:77] Creating layer relu4_3_D
I0612 10:38:54.446916 14693 net.cpp:100] Creating Layer relu4_3_D
I0612 10:38:54.446920 14693 net.cpp:434] relu4_3_D <- conv4_3_D
I0612 10:38:54.446926 14693 net.cpp:395] relu4_3_D -> conv4_3_D (in-place)
I0612 10:38:54.447101 14693 net.cpp:150] Setting up relu4_3_D
I0612 10:38:54.447108 14693 net.cpp:157] Top shape: 5 512 45 60 (6912000)
I0612 10:38:54.447111 14693 net.cpp:165] Memory required for data: 3245184000
I0612 10:38:54.447114 14693 layer_factory.hpp:77] Creating layer conv4_2_D
I0612 10:38:54.447129 14693 net.cpp:100] Creating Layer conv4_2_D
I0612 10:38:54.447132 14693 net.cpp:434] conv4_2_D <- conv4_3_D
I0612 10:38:54.447139 14693 net.cpp:408] conv4_2_D -> conv4_2_D
I0612 10:38:54.488198 14693 net.cpp:150] Setting up conv4_2_D
I0612 10:38:54.488215 14693 net.cpp:157] Top shape: 5 512 45 60 (6912000)
I0612 10:38:54.488217 14693 net.cpp:165] Memory required for data: 3272832000
I0612 10:38:54.488225 14693 layer_factory.hpp:77] Creating layer conv4_2_D_bn
I0612 10:38:54.488234 14693 net.cpp:100] Creating Layer conv4_2_D_bn
I0612 10:38:54.488240 14693 net.cpp:434] conv4_2_D_bn <- conv4_2_D
I0612 10:38:54.488246 14693 net.cpp:395] conv4_2_D_bn -> conv4_2_D (in-place)
I0612 10:38:54.488567 14693 net.cpp:150] Setting up conv4_2_D_bn
I0612 10:38:54.488574 14693 net.cpp:157] Top shape: 5 512 45 60 (6912000)
I0612 10:38:54.488575 14693 net.cpp:165] Memory required for data: 3300480000
I0612 10:38:54.488580 14693 layer_factory.hpp:77] Creating layer relu4_2_D
I0612 10:38:54.488586 14693 net.cpp:100] Creating Layer relu4_2_D
I0612 10:38:54.488590 14693 net.cpp:434] relu4_2_D <- conv4_2_D
I0612 10:38:54.488596 14693 net.cpp:395] relu4_2_D -> conv4_2_D (in-place)
I0612 10:38:54.488773 14693 net.cpp:150] Setting up relu4_2_D
I0612 10:38:54.488780 14693 net.cpp:157] Top shape: 5 512 45 60 (6912000)
I0612 10:38:54.488782 14693 net.cpp:165] Memory required for data: 3328128000
I0612 10:38:54.488785 14693 layer_factory.hpp:77] Creating layer conv4_1_D
I0612 10:38:54.488793 14693 net.cpp:100] Creating Layer conv4_1_D
I0612 10:38:54.488797 14693 net.cpp:434] conv4_1_D <- conv4_2_D
I0612 10:38:54.488803 14693 net.cpp:408] conv4_1_D -> conv4_1_D
I0612 10:38:54.510191 14693 net.cpp:150] Setting up conv4_1_D
I0612 10:38:54.510205 14693 net.cpp:157] Top shape: 5 256 45 60 (3456000)
I0612 10:38:54.510207 14693 net.cpp:165] Memory required for data: 3341952000
I0612 10:38:54.510213 14693 layer_factory.hpp:77] Creating layer conv4_1_D_bn
I0612 10:38:54.510221 14693 net.cpp:100] Creating Layer conv4_1_D_bn
I0612 10:38:54.510226 14693 net.cpp:434] conv4_1_D_bn <- conv4_1_D
I0612 10:38:54.510231 14693 net.cpp:395] conv4_1_D_bn -> conv4_1_D (in-place)
I0612 10:38:54.510553 14693 net.cpp:150] Setting up conv4_1_D_bn
I0612 10:38:54.510560 14693 net.cpp:157] Top shape: 5 256 45 60 (3456000)
I0612 10:38:54.510561 14693 net.cpp:165] Memory required for data: 3355776000
I0612 10:38:54.510566 14693 layer_factory.hpp:77] Creating layer relu4_1_D
I0612 10:38:54.510572 14693 net.cpp:100] Creating Layer relu4_1_D
I0612 10:38:54.510576 14693 net.cpp:434] relu4_1_D <- conv4_1_D
I0612 10:38:54.510581 14693 net.cpp:395] relu4_1_D -> conv4_1_D (in-place)
I0612 10:38:54.510756 14693 net.cpp:150] Setting up relu4_1_D
I0612 10:38:54.510761 14693 net.cpp:157] Top shape: 5 256 45 60 (3456000)
I0612 10:38:54.510763 14693 net.cpp:165] Memory required for data: 3369600000
I0612 10:38:54.510767 14693 layer_factory.hpp:77] Creating layer upsample3
I0612 10:38:54.510772 14693 net.cpp:100] Creating Layer upsample3
I0612 10:38:54.510776 14693 net.cpp:434] upsample3 <- conv4_1_D
I0612 10:38:54.510781 14693 net.cpp:434] upsample3 <- pool3_mask
I0612 10:38:54.510785 14693 net.cpp:408] upsample3 -> pool3_D
I0612 10:38:54.510792 14693 upsample_layer.cpp:27] Params 'pad_out_{}_' are deprecated. Please declare upsample height and width useing the upsample_h, upsample_w parameters.
I0612 10:38:54.510831 14693 net.cpp:150] Setting up upsample3
I0612 10:38:54.510838 14693 net.cpp:157] Top shape: 5 256 90 120 (13824000)
I0612 10:38:54.510841 14693 net.cpp:165] Memory required for data: 3424896000
I0612 10:38:54.510854 14693 layer_factory.hpp:77] Creating layer conv3_3_D
I0612 10:38:54.510862 14693 net.cpp:100] Creating Layer conv3_3_D
I0612 10:38:54.510866 14693 net.cpp:434] conv3_3_D <- pool3_D
I0612 10:38:54.510874 14693 net.cpp:408] conv3_3_D -> conv3_3_D
I0612 10:38:54.522330 14693 net.cpp:150] Setting up conv3_3_D
I0612 10:38:54.522338 14693 net.cpp:157] Top shape: 5 256 90 120 (13824000)
I0612 10:38:54.522341 14693 net.cpp:165] Memory required for data: 3480192000
I0612 10:38:54.522347 14693 layer_factory.hpp:77] Creating layer conv3_3_D_bn
I0612 10:38:54.522356 14693 net.cpp:100] Creating Layer conv3_3_D_bn
I0612 10:38:54.522359 14693 net.cpp:434] conv3_3_D_bn <- conv3_3_D
I0612 10:38:54.522366 14693 net.cpp:395] conv3_3_D_bn -> conv3_3_D (in-place)
I0612 10:38:54.522678 14693 net.cpp:150] Setting up conv3_3_D_bn
I0612 10:38:54.522684 14693 net.cpp:157] Top shape: 5 256 90 120 (13824000)
I0612 10:38:54.522687 14693 net.cpp:165] Memory required for data: 3535488000
I0612 10:38:54.522692 14693 layer_factory.hpp:77] Creating layer relu3_3_D
I0612 10:38:54.522697 14693 net.cpp:100] Creating Layer relu3_3_D
I0612 10:38:54.522701 14693 net.cpp:434] relu3_3_D <- conv3_3_D
I0612 10:38:54.522707 14693 net.cpp:395] relu3_3_D -> conv3_3_D (in-place)
I0612 10:38:54.523166 14693 net.cpp:150] Setting up relu3_3_D
I0612 10:38:54.523174 14693 net.cpp:157] Top shape: 5 256 90 120 (13824000)
I0612 10:38:54.523176 14693 net.cpp:165] Memory required for data: 3590784000
I0612 10:38:54.523180 14693 layer_factory.hpp:77] Creating layer conv3_2_D
I0612 10:38:54.523188 14693 net.cpp:100] Creating Layer conv3_2_D
I0612 10:38:54.523192 14693 net.cpp:434] conv3_2_D <- conv3_3_D
I0612 10:38:54.523198 14693 net.cpp:408] conv3_2_D -> conv3_2_D
I0612 10:38:54.534627 14693 net.cpp:150] Setting up conv3_2_D
I0612 10:38:54.534637 14693 net.cpp:157] Top shape: 5 256 90 120 (13824000)
I0612 10:38:54.534639 14693 net.cpp:165] Memory required for data: 3646080000
I0612 10:38:54.534646 14693 layer_factory.hpp:77] Creating layer conv3_2_D_bn
I0612 10:38:54.534654 14693 net.cpp:100] Creating Layer conv3_2_D_bn
I0612 10:38:54.534658 14693 net.cpp:434] conv3_2_D_bn <- conv3_2_D
I0612 10:38:54.534664 14693 net.cpp:395] conv3_2_D_bn -> conv3_2_D (in-place)
I0612 10:38:54.534984 14693 net.cpp:150] Setting up conv3_2_D_bn
I0612 10:38:54.534991 14693 net.cpp:157] Top shape: 5 256 90 120 (13824000)
I0612 10:38:54.534992 14693 net.cpp:165] Memory required for data: 3701376000
I0612 10:38:54.534997 14693 layer_factory.hpp:77] Creating layer relu3_2_D
I0612 10:38:54.535003 14693 net.cpp:100] Creating Layer relu3_2_D
I0612 10:38:54.535007 14693 net.cpp:434] relu3_2_D <- conv3_2_D
I0612 10:38:54.535013 14693 net.cpp:395] relu3_2_D -> conv3_2_D (in-place)
I0612 10:38:54.535190 14693 net.cpp:150] Setting up relu3_2_D
I0612 10:38:54.535197 14693 net.cpp:157] Top shape: 5 256 90 120 (13824000)
I0612 10:38:54.535198 14693 net.cpp:165] Memory required for data: 3756672000
I0612 10:38:54.535202 14693 layer_factory.hpp:77] Creating layer conv3_1_D
I0612 10:38:54.535210 14693 net.cpp:100] Creating Layer conv3_1_D
I0612 10:38:54.535214 14693 net.cpp:434] conv3_1_D <- conv3_2_D
I0612 10:38:54.535221 14693 net.cpp:408] conv3_1_D -> conv3_1_D
I0612 10:38:54.541851 14693 net.cpp:150] Setting up conv3_1_D
I0612 10:38:54.541860 14693 net.cpp:157] Top shape: 5 128 90 120 (6912000)
I0612 10:38:54.541862 14693 net.cpp:165] Memory required for data: 3784320000
I0612 10:38:54.541868 14693 layer_factory.hpp:77] Creating layer conv3_1_D_bn
I0612 10:38:54.541874 14693 net.cpp:100] Creating Layer conv3_1_D_bn
I0612 10:38:54.541879 14693 net.cpp:434] conv3_1_D_bn <- conv3_1_D
I0612 10:38:54.541885 14693 net.cpp:395] conv3_1_D_bn -> conv3_1_D (in-place)
I0612 10:38:54.542206 14693 net.cpp:150] Setting up conv3_1_D_bn
I0612 10:38:54.542212 14693 net.cpp:157] Top shape: 5 128 90 120 (6912000)
I0612 10:38:54.542213 14693 net.cpp:165] Memory required for data: 3811968000
I0612 10:38:54.542218 14693 layer_factory.hpp:77] Creating layer relu3_1_D
I0612 10:38:54.542224 14693 net.cpp:100] Creating Layer relu3_1_D
I0612 10:38:54.542237 14693 net.cpp:434] relu3_1_D <- conv3_1_D
I0612 10:38:54.542243 14693 net.cpp:395] relu3_1_D -> conv3_1_D (in-place)
I0612 10:38:54.542420 14693 net.cpp:150] Setting up relu3_1_D
I0612 10:38:54.542425 14693 net.cpp:157] Top shape: 5 128 90 120 (6912000)
I0612 10:38:54.542428 14693 net.cpp:165] Memory required for data: 3839616000
I0612 10:38:54.542433 14693 layer_factory.hpp:77] Creating layer upsample2
I0612 10:38:54.542438 14693 net.cpp:100] Creating Layer upsample2
I0612 10:38:54.542441 14693 net.cpp:434] upsample2 <- conv3_1_D
I0612 10:38:54.542446 14693 net.cpp:434] upsample2 <- pool2_mask
I0612 10:38:54.542451 14693 net.cpp:408] upsample2 -> pool2_D
I0612 10:38:54.542459 14693 upsample_layer.cpp:27] Params 'pad_out_{}_' are deprecated. Please declare upsample height and width useing the upsample_h, upsample_w parameters.
I0612 10:38:54.542492 14693 net.cpp:150] Setting up upsample2
I0612 10:38:54.542498 14693 net.cpp:157] Top shape: 5 128 180 240 (27648000)
I0612 10:38:54.542502 14693 net.cpp:165] Memory required for data: 3950208000
I0612 10:38:54.542505 14693 layer_factory.hpp:77] Creating layer conv2_2_D
I0612 10:38:54.542513 14693 net.cpp:100] Creating Layer conv2_2_D
I0612 10:38:54.542517 14693 net.cpp:434] conv2_2_D <- pool2_D
I0612 10:38:54.542523 14693 net.cpp:408] conv2_2_D -> conv2_2_D
I0612 10:38:54.546180 14693 net.cpp:150] Setting up conv2_2_D
I0612 10:38:54.546188 14693 net.cpp:157] Top shape: 5 128 180 240 (27648000)
I0612 10:38:54.546191 14693 net.cpp:165] Memory required for data: 4060800000
I0612 10:38:54.546198 14693 layer_factory.hpp:77] Creating layer conv2_2_D_bn
I0612 10:38:54.546205 14693 net.cpp:100] Creating Layer conv2_2_D_bn
I0612 10:38:54.546211 14693 net.cpp:434] conv2_2_D_bn <- conv2_2_D
I0612 10:38:54.546216 14693 net.cpp:395] conv2_2_D_bn -> conv2_2_D (in-place)
I0612 10:38:54.546564 14693 net.cpp:150] Setting up conv2_2_D_bn
I0612 10:38:54.546571 14693 net.cpp:157] Top shape: 5 128 180 240 (27648000)
I0612 10:38:54.546574 14693 net.cpp:165] Memory required for data: 4171392000
I0612 10:38:54.546578 14693 layer_factory.hpp:77] Creating layer relu2_2_D
I0612 10:38:54.546584 14693 net.cpp:100] Creating Layer relu2_2_D
I0612 10:38:54.546587 14693 net.cpp:434] relu2_2_D <- conv2_2_D
I0612 10:38:54.546592 14693 net.cpp:395] relu2_2_D -> conv2_2_D (in-place)
I0612 10:38:54.547037 14693 net.cpp:150] Setting up relu2_2_D
I0612 10:38:54.547044 14693 net.cpp:157] Top shape: 5 128 180 240 (27648000)
I0612 10:38:54.547047 14693 net.cpp:165] Memory required for data: 4281984000
I0612 10:38:54.547050 14693 layer_factory.hpp:77] Creating layer conv2_1_D
I0612 10:38:54.547060 14693 net.cpp:100] Creating Layer conv2_1_D
I0612 10:38:54.547063 14693 net.cpp:434] conv2_1_D <- conv2_2_D
I0612 10:38:54.547070 14693 net.cpp:408] conv2_1_D -> conv2_1_D
I0612 10:38:54.549509 14693 net.cpp:150] Setting up conv2_1_D
I0612 10:38:54.549516 14693 net.cpp:157] Top shape: 5 64 180 240 (13824000)
I0612 10:38:54.549520 14693 net.cpp:165] Memory required for data: 4337280000
I0612 10:38:54.549526 14693 layer_factory.hpp:77] Creating layer conv2_1_D_bn
I0612 10:38:54.549533 14693 net.cpp:100] Creating Layer conv2_1_D_bn
I0612 10:38:54.549536 14693 net.cpp:434] conv2_1_D_bn <- conv2_1_D
I0612 10:38:54.549543 14693 net.cpp:395] conv2_1_D_bn -> conv2_1_D (in-place)
I0612 10:38:54.550551 14693 net.cpp:150] Setting up conv2_1_D_bn
I0612 10:38:54.550559 14693 net.cpp:157] Top shape: 5 64 180 240 (13824000)
I0612 10:38:54.550560 14693 net.cpp:165] Memory required for data: 4392576000
I0612 10:38:54.550567 14693 layer_factory.hpp:77] Creating layer relu2_1_D
I0612 10:38:54.550572 14693 net.cpp:100] Creating Layer relu2_1_D
I0612 10:38:54.550576 14693 net.cpp:434] relu2_1_D <- conv2_1_D
I0612 10:38:54.550582 14693 net.cpp:395] relu2_1_D -> conv2_1_D (in-place)
I0612 10:38:54.550767 14693 net.cpp:150] Setting up relu2_1_D
I0612 10:38:54.550773 14693 net.cpp:157] Top shape: 5 64 180 240 (13824000)
I0612 10:38:54.550776 14693 net.cpp:165] Memory required for data: 4447872000
I0612 10:38:54.550788 14693 layer_factory.hpp:77] Creating layer upsample1
I0612 10:38:54.550793 14693 net.cpp:100] Creating Layer upsample1
I0612 10:38:54.550796 14693 net.cpp:434] upsample1 <- conv2_1_D
I0612 10:38:54.550801 14693 net.cpp:434] upsample1 <- pool1_mask
I0612 10:38:54.550807 14693 net.cpp:408] upsample1 -> pool1_D
I0612 10:38:54.550814 14693 upsample_layer.cpp:27] Params 'pad_out_{}_' are deprecated. Please declare upsample height and width useing the upsample_h, upsample_w parameters.
I0612 10:38:54.550850 14693 net.cpp:150] Setting up upsample1
I0612 10:38:54.550855 14693 net.cpp:157] Top shape: 5 64 360 480 (55296000)
I0612 10:38:54.550859 14693 net.cpp:165] Memory required for data: 4669056000
I0612 10:38:54.550863 14693 layer_factory.hpp:77] Creating layer conv1_2_D
I0612 10:38:54.550869 14693 net.cpp:100] Creating Layer conv1_2_D
I0612 10:38:54.550873 14693 net.cpp:434] conv1_2_D <- pool1_D
I0612 10:38:54.550880 14693 net.cpp:408] conv1_2_D -> conv1_2_D
I0612 10:38:54.553194 14693 net.cpp:150] Setting up conv1_2_D
I0612 10:38:54.553201 14693 net.cpp:157] Top shape: 5 64 360 480 (55296000)
I0612 10:38:54.553203 14693 net.cpp:165] Memory required for data: 4890240000
I0612 10:38:54.553210 14693 layer_factory.hpp:77] Creating layer conv1_2_D_bn
I0612 10:38:54.553217 14693 net.cpp:100] Creating Layer conv1_2_D_bn
I0612 10:38:54.553221 14693 net.cpp:434] conv1_2_D_bn <- conv1_2_D
I0612 10:38:54.553227 14693 net.cpp:395] conv1_2_D_bn -> conv1_2_D (in-place)
I0612 10:38:54.553589 14693 net.cpp:150] Setting up conv1_2_D_bn
I0612 10:38:54.553596 14693 net.cpp:157] Top shape: 5 64 360 480 (55296000)
I0612 10:38:54.553597 14693 net.cpp:165] Memory required for data: 5111424000
I0612 10:38:54.553603 14693 layer_factory.hpp:77] Creating layer relu1_2_D
I0612 10:38:54.553608 14693 net.cpp:100] Creating Layer relu1_2_D
I0612 10:38:54.553612 14693 net.cpp:434] relu1_2_D <- conv1_2_D
I0612 10:38:54.553617 14693 net.cpp:395] relu1_2_D -> conv1_2_D (in-place)
I0612 10:38:54.553771 14693 net.cpp:150] Setting up relu1_2_D
I0612 10:38:54.553777 14693 net.cpp:157] Top shape: 5 64 360 480 (55296000)
I0612 10:38:54.553781 14693 net.cpp:165] Memory required for data: 5332608000
I0612 10:38:54.553783 14693 layer_factory.hpp:77] Creating layer conv1_1_D
I0612 10:38:54.553791 14693 net.cpp:100] Creating Layer conv1_1_D
I0612 10:38:54.553794 14693 net.cpp:434] conv1_1_D <- conv1_2_D
I0612 10:38:54.553802 14693 net.cpp:408] conv1_1_D -> conv1_1_D
I0612 10:38:54.555487 14693 net.cpp:150] Setting up conv1_1_D
I0612 10:38:54.555495 14693 net.cpp:157] Top shape: 5 3 360 480 (2592000)
I0612 10:38:54.555496 14693 net.cpp:165] Memory required for data: 5342976000
I0612 10:38:54.555501 14693 layer_factory.hpp:77] Creating layer conv1_1_D_conv1_1_D_0_split
I0612 10:38:54.555507 14693 net.cpp:100] Creating Layer conv1_1_D_conv1_1_D_0_split
I0612 10:38:54.555511 14693 net.cpp:434] conv1_1_D_conv1_1_D_0_split <- conv1_1_D
I0612 10:38:54.555517 14693 net.cpp:408] conv1_1_D_conv1_1_D_0_split -> conv1_1_D_conv1_1_D_0_split_0
I0612 10:38:54.555523 14693 net.cpp:408] conv1_1_D_conv1_1_D_0_split -> conv1_1_D_conv1_1_D_0_split_1
I0612 10:38:54.555596 14693 net.cpp:150] Setting up conv1_1_D_conv1_1_D_0_split
I0612 10:38:54.555604 14693 net.cpp:157] Top shape: 5 3 360 480 (2592000)
I0612 10:38:54.555608 14693 net.cpp:157] Top shape: 5 3 360 480 (2592000)
I0612 10:38:54.555611 14693 net.cpp:165] Memory required for data: 5363712000
I0612 10:38:54.555614 14693 layer_factory.hpp:77] Creating layer loss
I0612 10:38:54.555624 14693 net.cpp:100] Creating Layer loss
I0612 10:38:54.555626 14693 net.cpp:434] loss <- conv1_1_D_conv1_1_D_0_split_0
I0612 10:38:54.555632 14693 net.cpp:434] loss <- label_dataRGB_1_split_0
I0612 10:38:54.555637 14693 net.cpp:408] loss -> loss
I0612 10:38:54.555647 14693 layer_factory.hpp:77] Creating layer loss
I0612 10:38:54.558929 14693 net.cpp:150] Setting up loss
I0612 10:38:54.558948 14693 net.cpp:157] Top shape: (1)
I0612 10:38:54.558949 14693 net.cpp:160]     with loss weight 1
I0612 10:38:54.558970 14693 net.cpp:165] Memory required for data: 5363712004
I0612 10:38:54.558989 14693 layer_factory.hpp:77] Creating layer accuracy
I0612 10:38:54.558998 14693 net.cpp:100] Creating Layer accuracy
I0612 10:38:54.559003 14693 net.cpp:434] accuracy <- conv1_1_D_conv1_1_D_0_split_1
I0612 10:38:54.559010 14693 net.cpp:434] accuracy <- label_dataRGB_1_split_1
I0612 10:38:54.559015 14693 net.cpp:408] accuracy -> accuracy
I0612 10:38:54.559021 14693 net.cpp:408] accuracy -> per_class_accuracy
I0612 10:38:54.559103 14693 net.cpp:150] Setting up accuracy
I0612 10:38:54.559108 14693 net.cpp:157] Top shape: (1)
I0612 10:38:54.559110 14693 net.cpp:157] Top shape: 3 (3)
I0612 10:38:54.559113 14693 net.cpp:165] Memory required for data: 5363712020
I0612 10:38:54.559113 14693 net.cpp:228] accuracy does not need backward computation.
I0612 10:38:54.559115 14693 net.cpp:226] loss needs backward computation.
I0612 10:38:54.559118 14693 net.cpp:226] conv1_1_D_conv1_1_D_0_split needs backward computation.
I0612 10:38:54.559121 14693 net.cpp:226] conv1_1_D needs backward computation.
…
