…
  dense_image_data_param {
    source: "/home/mpopovic/workspace/weedNet-devel/SegNet-Tutorial/train_and_test_data/rit-18/75m_100m_150m/trainir3.txt"
    batch_size: 5
    shuffle: false
    new_height: 360
    new_width: 480
    is_color: false
  }
}
layer {
  name: "dataRGB"
  type: "DenseImageData"
  top: "dataRGB"
  top: "label"
  dense_image_data_param {
    source: "/home/mpopovic/workspace/weedNet-devel/SegNet-Tutorial/train_and_test_data/rit-18/75m_100m_150m/train.txt"
    batch_size: 5
    shuffle: false
    new_height: 360
    new_width: 480
    is_color: true
  }
}
layer {
  name: "data"
  type: "Concat"
  bottom: "dataIR1"
  bottom: "dataIR2"
  bottom: "dataIR3"
  bottom: "dataRGB"
  top: "data"
  concat_param {
    axis: 1
  }
}
layer {
  name: "multiconv1_1"
  type: "Convolution"
  bottom: "data"
  top: "conv1_1"
  param {
    lr_mult: 1
    decay_mult: 1
  }
  param {
    lr_mult: 2
    decay_mult: 0
  }
  convolution_param {
    num_output: 64
    pad: 1
    kernel_size: 3
    weight_filler {
      type: "msra"
    }
    bias_filler {
      type: "constant"
    }
  }
}
layer {
  name: "conv1_1_bn"
  type: "BN"
  bottom: "conv1_1"
  top: "conv1_1"
  param {
    lr_mult: 1
    decay_mult: 1
  }
  param {
    lr_mult: 1
    decay_mult: 0
  }
  bn_param {
    scale_filler {
      type: "constant"
      value: 1
    }
    shift_filler {
      type: "constant"
      value: 0.001
    }
  }
}
layer {
  name: "relu1_1"
  type: "ReLU"
  bottom: "conv1_1"
  top: "conv1_1"
}
layer {
  name: "conv1_2"
  type: "Convolution"
  bottom: "conv1_1"
  top: "conv1_2"
  param {
    lr_mult: 1
    decay_mult: 1
  }
  param {
    lr_mult: 2
    decay_mult: 0
  }
  convolution_param {
    num_output: 64
    pad: 1
    kernel_size: 3
    weight_filler {
      type: "msra"
    }
    bias_filler {
      type: "constant"
    }
  }
}
layer {
  name: "conv1_2_bn"
  type: "BN"
  bottom: "conv1_2"
  top: "conv1_2"
  param {
    lr_mult: 1
    decay_mult: 1
  }
  param {
    lr_mult: 1
    decay_mult: 0
  }
  bn_param {
    scale_filler {
      type: "constant"
      value: 1
    }
    shift_filler {
      type: "constant"
      value: 0.001
    }
  }
}
layer {
  name: "relu1_2"
  type: "ReLU"
  bottom: "conv1_2"
  top: "conv1_2"
}
layer {
  name: "pool1"
  type: "Pooling"
  bottom: "conv1_2"
  top: "pool1"
  top: "pool1_mask"
  pooling_param {
    pool: MAX
    kernel_size: 2
    stride: 2
  }
}
layer {
  name: "conv2_1"
  type: "Convolution"
  bottom: "pool1"
  top: "conv2_1"
  param {
    lr_mult: 1
    decay_mult: 1
  }
  param {
    lr_mult: 2
    decay_mult: 0
  }
  convolution_param {
    num_output: 128
    pad: 1
    kernel_size: 3
    weight_filler {
      type: "msra"
    }
    bias_filler {
      type: "constant"
    }
  }
}
layer {
  name: "conv2_1_bn"
  type: "BN"
  bottom: "conv2_1"
  top: "conv2_1"
  param {
    lr_mult: 1
    decay_mult: 1
  }
  param {
    lr_mult: 1
    decay_mult: 0
  }
  bn_param {
    scale_filler {
      type: "constant"
      value: 1
    }
    shift_filler {
      type: "constant"
      value: 0.001
    }
  }
}
layer {
  name: "relu2_1"
  type: "ReLU"
  bottom: "conv2_1"
  top: "conv2_1"
}
layer {
  name: "conv2_2"
  type: "Convolution"
  bottom: "conv2_1"
  top: "conv2_2"
  param {
    lr_mult: 1
    decay_mult: 1
  }
  param {
    lr_mult: 2
    decay_mult: 0
  }
  convolution_param {
    num_output: 128
    pad: 1
    kernel_size: 3
    weight_filler {
      type: "msra"
    }
    bias_filler {
      type: "constant"
    }
  }
}
layer {
  name: "conv2_2_bn"
  type: "BN"
  bottom: "conv2_2"
  top: "conv2_2"
  param {
    lr_mult: 1
    decay_mult: 1
  }
  param {
    lr_mult: 1
    decay_mult: 0
  }
  bn_param {
    scale_filler {
      type: "constant"
      value: 1
    }
    shift_filler {
      type: "constant"
      value: 0.001
    }
  }
}
layer {
  name: "relu2_2"
  type: "ReLU"
  bottom: "conv2_2"
  top: "conv2_2"
}
layer {
  name: "pool2"
  type: "Pooling"
  bottom: "conv2_2"
  top: "pool2"
  top: "pool2_mask"
  pooling_param {
    pool: MAX
    kernel_size: 2
    stride: 2
  }
}
layer {
  name: "conv3_1"
  type: "Convolution"
  bottom: "pool2"
  top: "conv3_1"
  param {
    lr_mult: 1
    decay_mult: 1
  }
  param {
    lr_mult: 2
    decay_mult: 0
  }
  convolution_param {
    num_output: 256
    pad: 1
    kernel_size: 3
    weight_filler {
      type: "msra"
    }
    bias_filler {
      type: "constant"
    }
  }
}
layer {
  name: "conv3_1_bn"
  type: "BN"
  bottom: "conv3_1"
  top: "conv3_1"
  param {
    lr_mult: 1
    decay_mult: 1
  }
  param {
    lr_mult: 1
    decay_mult: 0
  }
  bn_param {
    scale_filler {
      type: "constant"
      value: 1
    }
    shift_filler {
      type: "constant"
      value: 0.001
    }
  }
}
layer {
  name: "relu3_1"
  type: "ReLU"
  bottom: "conv3_1"
  top: "conv3_1"
}
layer {
  name: "conv3_2"
  type: "Convolution"
  bottom: "conv3_1"
  top: "conv3_2"
  param {
    lr_mult: 1
    decay_mult: 1
  }
  param {
    lr_mult: 2
    decay_mult: 0
  }
  convolution_param {
    num_output: 256
    pad: 1
    kernel_size: 3
    weight_filler {
      type: "msra"
    }
    bias_filler {
      type: "constant"
    }
  }
}
layer {
  name: "conv3_2_bn"
  type: "BN"
  bottom: "conv3_2"
  top: "conv3_2"
  param {
    lr_mult: 1
    decay_mult: 1
  }
  param {
    lr_mult: 1
    decay_mult: 0
  }
  bn_param {
    scale_filler {
      type: "constant"
      value: 1
    }
    shift_filler {
      type: "constant"
      value: 0.001
    }
  }
}
layer {
  name: "relu3_2"
  type: "ReLU"
  bottom: "conv3_2"
  top: "conv3_2"
}
layer {
  name: "conv3_3"
  type: "Convolution"
  bottom: "conv3_2"
  top: "conv3_3"
  param {
    lr_mult: 1
    decay_mult: 1
  }
  param {
    lr_mult: 2
    decay_mult: 0
  }
  convolution_param {
    num_output: 256
    pad: 1
    kernel_size: 3
    weight_filler {
      type: "msra"
    }
    bias_filler {
      type: "constant"
    }
  }
}
layer {
  name: "conv3_3_bn"
  type: "BN"
  bottom: "conv3_3"
  top: "conv3_3"
  param {
    lr_mult: 1
    decay_mult: 1
  }
  param {
    lr_mult: 1
    decay_mult: 0
  }
  bn_param {
    scale_filler {
      type: "constant"
      value: 1
    }
    shift_filler {
      type: "constant"
      value: 0.001
    }
  }
}
layer {
  name: "relu3_3"
  type: "ReLU"
  bottom: "conv3_3"
  top: "conv3_3"
}
layer {
  name: "pool3"
  type: "Pooling"
  bottom: "conv3_3"
  top: "pool3"
  top: "pool3_mask"
  pooling_param {
    pool: MAX
    kernel_size: 2
    stride: 2
  }
}
layer {
  name: "conv4_1"
  type: "Convolution"
  bottom: "pool3"
  top: "conv4_1"
  param {
    lr_mult: 1
    decay_mult: 1
  }
  param {
    lr_mult: 2
    decay_mult: 0
  }
  convolution_param {
    num_output: 512
    pad: 1
    kernel_size: 3
    weight_filler {
      type: "msra"
    }
    bias_filler {
      type: "constant"
    }
  }
}
layer {
  name: "conv4_1_bn"
  type: "BN"
  bottom: "conv4_1"
  top: "conv4_1"
  param {
    lr_mult: 1
    decay_mult: 1
  }
  param {
    lr_mult: 1
    decay_mult: 0
  }
  bn_param {
    scale_filler {
      type: "constant"
      value: 1
    }
    shift_filler {
      type: "constant"
      value: 0.001
    }
  }
}
layer {
  name: "relu4_1"
  type: "ReLU"
  bottom: "conv4_1"
  top: "conv4_1"
}
layer {
  name: "conv4_2"
  type: "Convolution"
  bottom: "conv4_1"
  top: "conv4_2"
  param {
    lr_mult: 1
    decay_mult: 1
  }
  param {
    lr_mult: 2
    decay_mult: 0
  }
  convolution_param {
    num_output: 512
    pad: 1
    kernel_size: 3
    weight_filler {
      type: "msra"
    }
    bias_filler {
      type: "constant"
    }
  }
}
layer {
  name: "conv4_2_bn"
  type: "BN"
  bottom: "conv4_2"
  top: "conv4_2"
  param {
    lr_mult: 1
    decay_mult: 1
  }
  param {
    lr_mult: 1
    decay_mult: 0
  }
  bn_param {
    scale_filler {
      type: "constant"
      value: 1
    }
    shift_filler {
      type: "constant"
      value: 0.001
    }
  }
}
layer {
  name: "relu4_2"
  type: "ReLU"
  bottom: "conv4_2"
  top: "conv4_2"
}
layer {
  name: "conv4_3"
  type: "Convolution"
  bottom: "conv4_2"
  top: "conv4_3"
  param {
    lr_mult: 1
    decay_mult: 1
  }
  param {
    lr_mult: 2
    decay_mult: 0
  }
  convolution_param {
    num_output: 512
    pad: 1
    kernel_size: 3
    weight_filler {
      type: "msra"
    }
    bias_filler {
      type: "constant"
    }
  }
}
layer {
  name: "conv4_3_bn"
  type: "BN"
  bottom: "conv4_3"
  top: "conv4_3"
  param {
    lr_mult: 1
    decay_mult: 1
  }
  param {
    lr_mult: 1
    decay_mult: 0
  }
  bn_param {
    scale_filler {
      type: "constant"
      value: 1
    }
    shift_filler {
      type: "constant"
      value: 0.001
    }
  }
}
layer {
  name: "relu4_3"
  type: "ReLU"
  bottom: "conv4_3"
  top: "conv4_3"
}
layer {
  name: "pool4"
  type: "Pooling"
  bottom: "conv4_3"
  top: "pool4"
  top: "pool4_mask"
  pooling_param {
    pool: MAX
    kernel_size: 2
    stride: 2
  }
}
layer {
  name: "conv5_1"
  type: "Convolution"
  bottom: "pool4"
  top: "conv5_1"
  param {
    lr_mult: 1
    decay_mult: 1
  }
  param {
    lr_mult: 2
    decay_mult: 0
  }
  convolution_param {
    num_output: 512
    pad: 1
    kernel_size: 3
    weight_filler {
      type: "msra"
    }
    bias_filler {
      type: "constant"
    }
  }
}
layer {
  name: "conv5_1_bn"
  type: "BN"
  bottom: "conv5_1"
  top: "conv5_1"
  param {
    lr_mult: 1
    decay_mult: 1
  }
  param {
    lr_mult: 1
    decay_mult: 0
  }
  bn_param {
    scale_filler {
      type: "constant"
      value: 1
    }
    shift_filler {
      type: "constant"
      value: 0.001
    }
  }
}
layer {
  name: "relu5_1"
  type: "ReLU"
  bottom: "conv5_1"
  top: "conv5_1"
}
layer {
  name: "conv5_2"
  type: "Convolution"
  bottom: "conv5_1"
  top: "conv5_2"
  param {
    lr_mult: 1
    decay_mult: 1
  }
  param {
    lr_mult: 2
    decay_mult: 0
  }
  convolution_param {
    num_output: 512
    pad: 1
    kernel_size: 3
    weight_filler {
      type: "msra"
    }
    bias_filler {
      type: "constant"
    }
  }
}
layer {
  name: "conv5_2_bn"
  type: "BN"
  bottom: "conv5_2"
  top: "conv5_2"
  param {
    lr_mult: 1
    decay_mult: 1
  }
  param {
    lr_mult: 1
    decay_mult: 0
  }
  bn_param {
    scale_filler {
      type: "constant"
      value: 1
    }
    shift_filler {
      type: "constant"
      value: 0.001
    }
  }
}
layer {
  name: "relu5_2"
  type: "ReLU"
  bottom: "conv5_2"
  top: "conv5_2"
}
layer {
  name: "conv5_3"
  type: "Convolution"
  bottom: "conv5_2"
  top: "conv5_3"
  param {
    lr_mult: 1
    decay_mult: 1
  }
  param {
    lr_mult: 2
    decay_mult: 0
  }
  convolution_param {
    num_output: 512
    pad: 1
    kernel_size: 3
    weight_filler {
      type: "msra"
    }
    bias_filler {
      type: "constant"
    }
  }
}
layer {
  name: "conv5_3_bn"
  type: "BN"
  bottom: "conv5_3"
  top: "conv5_3"
  param {
    lr_mult: 1
    decay_mult: 1
  }
  param {
    lr_mult: 1
    decay_mult: 0
  }
  bn_param {
    scale_filler {
      type: "constant"
      value: 1
    }
    shift_filler {
      type: "constant"
      value: 0.001
    }
  }
}
layer {
  name: "relu5_3"
  type: "ReLU"
  bottom: "conv5_3"
  top: "conv5_3"
}
layer {
  name: "pool5"
  type: "Pooling"
  bottom: "conv5_3"
  top: "pool5"
  top: "pool5_mask"
  pooling_param {
    pool: MAX
    kernel_size: 2
    stride: 2
  }
}
layer {
  name: "upsample5"
  type: "Upsample"
  bottom: "pool5"
  bottom: "pool5_mask"
  top: "pool5_D"
  upsample_param {
    scale: 2
    upsample_h: 23
    upsample_w: 30
  }
}
layer {
  name: "conv5_3_D"
  type: "Convolution"
  bottom: "pool5_D"
  top: "conv5_3_D"
  param {
    lr_mult: 1
    decay_mult: 1
  }
  param {
    lr_mult: 2
    decay_mult: 0
  }
  convolution_param {
    num_output: 512
    pad: 1
    kernel_size: 3
    weight_filler {
      type: "msra"
    }
    bias_filler {
      type: "constant"
    }
  }
}
layer {
  name: "conv5_3_D_bn"
  type: "BN"
  bottom: "conv5_3_D"
  top: "conv5_3_D"
  param {
    lr_mult: 1
    decay_mult: 1
  }
  param {
    lr_mult: 1
    decay_mult: 0
  }
  bn_param {
    scale_filler {
      type: "constant"
      value: 1
    }
    shift_filler {
      type: "constant"
      value: 0.001
    }
  }
}
layer {
  name: "relu5_3_D"
  type: "ReLU"
  bottom: "conv5_3_D"
  top: "conv5_3_D"
}
layer {
  name: "conv5_2_D"
  type: "Convolution"
  bottom: "conv5_3_D"
  top: "conv5_2_D"
  param {
    lr_mult: 1
    decay_mult: 1
  }
  param {
    lr_mult: 2
    decay_mult: 0
  }
  convolution_param {
    num_output: 512
    pad: 1
    kernel_size: 3
    weight_filler {
      type: "msra"
    }
    bias_filler {
      type: "constant"
    }
  }
}
layer {
  name: "conv5_2_D_bn"
  type: "BN"
  bottom: "conv5_2_D"
  top: "conv5_2_D"
  param {
    lr_mult: 1
    decay_mult: 1
  }
  param {
    lr_mult: 1
    decay_mult: 0
  }
  bn_param {
    scale_filler {
      type: "constant"
      value: 1
    }
    shift_filler {
      type: "constant"
      value: 0.001
    }
  }
}
layer {
  name: "relu5_2_D"
  type: "ReLU"
  bottom: "conv5_2_D"
  top: "conv5_2_D"
}
layer {
  name: "conv5_1_D"
  type: "Convolution"
  bottom: "conv5_2_D"
  top: "conv5_1_D"
  param {
    lr_mult: 1
    decay_mult: 1
  }
  param {
    lr_mult: 2
    decay_mult: 0
  }
  convolution_param {
    num_output: 512
    pad: 1
    kernel_size: 3
    weight_filler {
      type: "msra"
    }
    bias_filler {
      type: "constant"
    }
  }
}
layer {
  name: "conv5_1_D_bn"
  type: "BN"
  bottom: "conv5_1_D"
  top: "conv5_1_D"
  param {
    lr_mult: 1
    decay_mult: 1
  }
  param {
    lr_mult: 1
    decay_mult: 0
  }
  bn_param {
    scale_filler {
      type: "constant"
      value: 1
    }
    shift_filler {
      type: "constant"
      value: 0.001
    }
  }
}
layer {
  name: "relu5_1_D"
  type: "ReLU"
  bottom: "conv5_1_D"
  top: "conv5_1_D"
}
layer {
  name: "upsample4"
  type: "Upsample"
  bottom: "conv5_1_D"
  bottom: "pool4_mask"
  top: "pool4_D"
  upsample_param {
    scale: 2
    upsample_h: 45
    upsample_w: 60
  }
}
layer {
  name: "conv4_3_D"
  type: "Convolution"
  bottom: "pool4_D"
  top: "conv4_3_D"
  param {
    lr_mult: 1
    decay_mult: 1
  }
  param {
    lr_mult: 2
    decay_mult: 0
  }
  convolution_param {
    num_output: 512
    pad: 1
    kernel_size: 3
    weight_filler {
      type: "msra"
    }
    bias_filler {
      type: "constant"
    }
  }
}
layer {
  name: "conv4_3_D_bn"
  type: "BN"
  bottom: "conv4_3_D"
  top: "conv4_3_D"
  param {
    lr_mult: 1
    decay_mult: 1
  }
  param {
    lr_mult: 1
    decay_mult: 0
  }
  bn_param {
    scale_filler {
      type: "constant"
      value: 1
    }
    shift_filler {
      type: "constant"
      value: 0.001
    }
  }
}
layer {
  name: "relu4_3_D"
  type: "ReLU"
  bottom: "conv4_3_D"
  top: "conv4_3_D"
}
layer {
  name: "conv4_2_D"
  type: "Convolution"
  bottom: "conv4_3_D"
  top: "conv4_2_D"
  param {
    lr_mult: 1
    decay_mult: 1
  }
  param {
    lr_mult: 2
    decay_mult: 0
  }
  convolution_param {
    num_output: 512
    pad: 1
    kernel_size: 3
    weight_filler {
      type: "msra"
    }
    bias_filler {
      type: "constant"
    }
  }
}
layer {
  name: "conv4_2_D_bn"
  type: "BN"
  bottom: "conv4_2_D"
  top: "conv4_2_D"
  param {
    lr_mult: 1
    decay_mult: 1
  }
  param {
    lr_mult: 1
    decay_mult: 0
  }
  bn_param {
    scale_filler {
      type: "constant"
      value: 1
    }
    shift_filler {
      type: "constant"
      value: 0.001
    }
  }
}
layer {
  name: "relu4_2_D"
  type: "ReLU"
  bottom: "conv4_2_D"
  top: "conv4_2_D"
}
layer {
  name: "conv4_1_D"
  type: "Convolution"
  bottom: "conv4_2_D"
  top: "conv4_1_D"
  param {
    lr_mult: 1
    decay_mult: 1
  }
  param {
    lr_mult: 2
    decay_mult: 0
  }
  convolution_param {
    num_output: 256
    pad: 1
    kernel_size: 3
    weight_filler {
      type: "msra"
    }
    bias_filler {
      type: "constant"
    }
  }
}
layer {
  name: "conv4_1_D_bn"
  type: "BN"
  bottom: "conv4_1_D"
  top: "conv4_1_D"
  param {
    lr_mult: 1
    decay_mult: 1
  }
  param {
    lr_mult: 1
    decay_mult: 0
  }
  bn_param {
    scale_filler {
      type: "constant"
      value: 1
    }
    shift_filler {
      type: "constant"
      value: 0.001
    }
  }
}
layer {
  name: "relu4_1_D"
  type: "ReLU"
  bottom: "conv4_1_D"
  top: "conv4_1_D"
}
layer {
  name: "upsample3"
  type: "Upsample"
  bottom: "conv4_1_D"
  bottom: "pool3_mask"
  top: "pool3_D"
  upsample_param {
    scale: 2
  }
}
layer {
  name: "conv3_3_D"
  type: "Convolution"
  bottom: "pool3_D"
  top: "conv3_3_D"
  param {
    lr_mult: 1
    decay_mult: 1
  }
  param {
    lr_mult: 2
    decay_mult: 0
  }
  convolution_param {
    num_output: 256
    pad: 1
    kernel_size: 3
    weight_filler {
      type: "msra"
    }
    bias_filler {
      type: "constant"
    }
  }
}
layer {
  name: "conv3_3_D_bn"
  type: "BN"
  bottom: "conv3_3_D"
  top: "conv3_3_D"
  param {
    lr_mult: 1
    decay_mult: 1
  }
  param {
    lr_mult: 1
    decay_mult: 0
  }
  bn_param {
    scale_filler {
      type: "constant"
      value: 1
    }
    shift_filler {
      type: "constant"
      value: 0.001
    }
  }
}
layer {
  name: "relu3_3_D"
  type: "ReLU"
  bottom: "conv3_3_D"
  top: "conv3_3_D"
}
layer {
  name: "conv3_2_D"
  type: "Convolution"
  bottom: "conv3_3_D"
  top: "conv3_2_D"
  param {
    lr_mult: 1
    decay_mult: 1
  }
  param {
    lr_mult: 2
    decay_mult: 0
  }
  convolution_param {
    num_output: 256
    pad: 1
    kernel_size: 3
    weight_filler {
      type: "msra"
    }
    bias_filler {
      type: "constant"
    }
  }
}
layer {
  name: "conv3_2_D_bn"
  type: "BN"
  bottom: "conv3_2_D"
  top: "conv3_2_D"
  param {
    lr_mult: 1
    decay_mult: 1
  }
  param {
    lr_mult: 1
    decay_mult: 0
  }
  bn_param {
    scale_filler {
      type: "constant"
      value: 1
    }
    shift_filler {
      type: "constant"
      value: 0.001
    }
  }
}
layer {
  name: "relu3_2_D"
  type: "ReLU"
  bottom: "conv3_2_D"
  top: "conv3_2_D"
}
layer {
  name: "conv3_1_D"
  type: "Convolution"
  bottom: "conv3_2_D"
  top: "conv3_1_D"
  param {
    lr_mult: 1
    decay_mult: 1
  }
  param {
    lr_mult: 2
    decay_mult: 0
  }
  convolution_param {
    num_output: 128
    pad: 1
    kernel_size: 3
    weight_filler {
      type: "msra"
    }
    bias_filler {
      type: "constant"
    }
  }
}
layer {
  name: "conv3_1_D_bn"
  type: "BN"
  bottom: "conv3_1_D"
  top: "conv3_1_D"
  param {
    lr_mult: 1
    decay_mult: 1
  }
  param {
    lr_mult: 1
    decay_mult: 0
  }
  bn_param {
    scale_filler {
      type: "constant"
      value: 1
    }
    shift_filler {
      type: "constant"
      value: 0.001
    }
  }
}
layer {
  name: "relu3_1_D"
  type: "ReLU"
  bottom: "conv3_1_D"
  top: "conv3_1_D"
}
layer {
  name: "upsample2"
  type: "Upsample"
  bottom: "conv3_1_D"
  bottom: "pool2_mask"
  top: "pool2_D"
  upsample_param {
    scale: 2
  }
}
layer {
  name: "conv2_2_D"
  type: "Convolution"
  bottom: "pool2_D"
  top: "conv2_2_D"
  param {
    lr_mult: 1
    decay_mult: 1
  }
  param {
    lr_mult: 2
    decay_mult: 0
  }
  convolution_param {
    num_output: 128
    pad: 1
    kernel_size: 3
    weight_filler {
      type: "msra"
    }
    bias_filler {
      type: "constant"
    }
  }
}
layer {
  name: "conv2_2_D_bn"
  type: "BN"
  bottom: "conv2_2_D"
  top: "conv2_2_D"
  param {
    lr_mult: 1
    decay_mult: 1
  }
  param {
    lr_mult: 1
    decay_mult: 0
  }
  bn_param {
    scale_filler {
      type: "constant"
      value: 1
    }
    shift_filler {
      type: "constant"
      value: 0.001
    }
  }
}
layer {
  name: "relu2_2_D"
  type: "ReLU"
  bottom: "conv2_2_D"
  top: "conv2_2_D"
}
layer {
  name: "conv2_1_D"
  type: "Convolution"
  bottom: "conv2_2_D"
  top: "conv2_1_D"
  param {
    lr_mult: 1
    decay_mult: 1
  }
  param {
    lr_mult: 2
    decay_mult: 0
  }
  convolution_param {
    num_output: 64
    pad: 1
    kernel_size: 3
    weight_filler {
      type: "msra"
    }
    bias_filler {
      type: "constant"
    }
  }
}
layer {
  name: "conv2_1_D_bn"
  type: "BN"
  bottom: "conv2_1_D"
  top: "conv2_1_D"
  param {
    lr_mult: 1
    decay_mult: 1
  }
  param {
    lr_mult: 1
    decay_mult: 0
  }
  bn_param {
    scale_filler {
      type: "constant"
      value: 1
    }
    shift_filler {
      type: "constant"
      value: 0.001
    }
  }
}
layer {
  name: "relu2_1_D"
  type: "ReLU"
  bottom: "conv2_1_D"
  top: "conv2_1_D"
}
layer {
  name: "upsample1"
  type: "Upsample"
  bottom: "conv2_1_D"
  bottom: "pool1_mask"
  top: "pool1_D"
  upsample_param {
    scale: 2
  }
}
layer {
  name: "conv1_2_D"
  type: "Convolution"
  bottom: "pool1_D"
  top: "conv1_2_D"
  param {
    lr_mult: 1
    decay_mult: 1
  }
  param {
    lr_mult: 2
    decay_mult: 0
  }
  convolution_param {
    num_output: 64
    pad: 1
    kernel_size: 3
    weight_filler {
      type: "msra"
    }
    bias_filler {
      type: "constant"
    }
  }
}
layer {
  name: "conv1_2_D_bn"
  type: "BN"
  bottom: "conv1_2_D"
  top: "conv1_2_D"
  param {
    lr_mult: 1
    decay_mult: 1
  }
  param {
    lr_mult: 1
    decay_mult: 0
  }
  bn_param {
    scale_filler {
      type: "constant"
      value: 1
    }
    shift_filler {
      type: "constant"
      value: 0.001
    }
  }
}
layer {
  name: "relu1_2_D"
  type: "ReLU"
  bottom: "conv1_2_D"
  top: "conv1_2_D"
}
layer {
  name: "conv1_1_D"
  type: "Convolution"
  bottom: "conv1_2_D"
  top: "conv1_1_D"
  param {
    lr_mult: 1
    decay_mult: 1
  }
  param {
    lr_mult: 2
    decay_mult: 0
  }
  convolution_param {
    num_output: 4
    pad: 1
    kernel_size: 3
    weight_filler {
      type: "msra"
    }
    bias_filler {
      type: "constant"
    }
  }
}
layer {
  name: "loss"
  type: "SoftmaxWithLoss"
  bottom: "conv1_1_D"
  bottom: "label"
  top: "loss"
  loss_param {
    weight_by_label_freqs: true
    class_weighting: 0.9399
    class_weighting: 0.3649
    class_weighting: 1.5585
    class_weighting: 1.0683
  }
  softmax_param {
    engine: CAFFE
  }
}
layer {
  name: "accuracy"
  type: "Accuracy"
  bottom: "conv1_1_D"
  bottom: "label"
  top: "accuracy"
  top: "per_class_accuracy"
}
I0620 06:40:03.278926  6882 layer_factory.hpp:77] Creating layer dataIR1
I0620 06:40:03.278944  6882 net.cpp:100] Creating Layer dataIR1
I0620 06:40:03.278949  6882 net.cpp:408] dataIR1 -> dataIR1
I0620 06:40:03.278970  6882 dense_image_only_data_layer.cpp:49] Opening file /home/mpopovic/workspace/weedNet-devel/SegNet-Tutorial/train_and_test_data/rit-18/75m_100m_150m/trainir1.txt
I0620 06:40:03.279217  6882 dense_image_only_data_layer.cpp:65] A total of 563 examples.
I0620 06:40:03.288252  6882 dense_image_only_data_layer.cpp:118] output data size: 5,1,360,480
I0620 06:40:03.289142  6882 net.cpp:150] Setting up dataIR1
I0620 06:40:03.289160  6882 net.cpp:157] Top shape: 5 1 360 480 (864000)
I0620 06:40:03.289162  6882 net.cpp:165] Memory required for data: 3456000
I0620 06:40:03.289180  6882 layer_factory.hpp:77] Creating layer dataIR2
I0620 06:40:03.289189  6882 net.cpp:100] Creating Layer dataIR2
I0620 06:40:03.289197  6882 net.cpp:408] dataIR2 -> dataIR2
I0620 06:40:03.289204  6882 dense_image_only_data_layer.cpp:49] Opening file /home/mpopovic/workspace/weedNet-devel/SegNet-Tutorial/train_and_test_data/rit-18/75m_100m_150m/trainir2.txt
I0620 06:40:03.289342  6882 dense_image_only_data_layer.cpp:65] A total of 563 examples.
I0620 06:40:03.291260  6882 dense_image_only_data_layer.cpp:118] output data size: 5,1,360,480
I0620 06:40:03.293841  6882 net.cpp:150] Setting up dataIR2
I0620 06:40:03.293865  6882 net.cpp:157] Top shape: 5 1 360 480 (864000)
I0620 06:40:03.293869  6882 net.cpp:165] Memory required for data: 6912000
I0620 06:40:03.293871  6882 layer_factory.hpp:77] Creating layer dataIR3
I0620 06:40:03.293880  6882 net.cpp:100] Creating Layer dataIR3
I0620 06:40:03.293884  6882 net.cpp:408] dataIR3 -> dataIR3
I0620 06:40:03.293890  6882 dense_image_only_data_layer.cpp:49] Opening file /home/mpopovic/workspace/weedNet-devel/SegNet-Tutorial/train_and_test_data/rit-18/75m_100m_150m/trainir3.txt
I0620 06:40:03.294028  6882 dense_image_only_data_layer.cpp:65] A total of 563 examples.
I0620 06:40:03.296774  6882 dense_image_only_data_layer.cpp:118] output data size: 5,1,360,480
I0620 06:40:03.297817  6882 net.cpp:150] Setting up dataIR3
I0620 06:40:03.297834  6882 net.cpp:157] Top shape: 5 1 360 480 (864000)
I0620 06:40:03.297837  6882 net.cpp:165] Memory required for data: 10368000
I0620 06:40:03.297842  6882 layer_factory.hpp:77] Creating layer dataRGB
I0620 06:40:03.297848  6882 net.cpp:100] Creating Layer dataRGB
I0620 06:40:03.297852  6882 net.cpp:408] dataRGB -> dataRGB
I0620 06:40:03.297858  6882 net.cpp:408] dataRGB -> label
I0620 06:40:03.297868  6882 dense_image_data_layer.cpp:49] Opening file /home/mpopovic/workspace/weedNet-devel/SegNet-Tutorial/train_and_test_data/rit-18/75m_100m_150m/train.txt
I0620 06:40:03.298156  6882 dense_image_data_layer.cpp:64] A total of 563 examples.
I0620 06:40:03.307780  6882 dense_image_data_layer.cpp:117] output data size: 5,3,360,480
I0620 06:40:03.312765  6882 net.cpp:150] Setting up dataRGB
I0620 06:40:03.312783  6882 net.cpp:157] Top shape: 5 3 360 480 (2592000)
I0620 06:40:03.312788  6882 net.cpp:157] Top shape: 5 1 360 480 (864000)
I0620 06:40:03.312789  6882 net.cpp:165] Memory required for data: 24192000
I0620 06:40:03.312794  6882 layer_factory.hpp:77] Creating layer label_dataRGB_1_split
I0620 06:40:03.312810  6882 net.cpp:100] Creating Layer label_dataRGB_1_split
I0620 06:40:03.312816  6882 net.cpp:434] label_dataRGB_1_split <- label
I0620 06:40:03.312829  6882 net.cpp:408] label_dataRGB_1_split -> label_dataRGB_1_split_0
I0620 06:40:03.312835  6882 net.cpp:408] label_dataRGB_1_split -> label_dataRGB_1_split_1
I0620 06:40:03.312873  6882 net.cpp:150] Setting up label_dataRGB_1_split
I0620 06:40:03.312878  6882 net.cpp:157] Top shape: 5 1 360 480 (864000)
I0620 06:40:03.312880  6882 net.cpp:157] Top shape: 5 1 360 480 (864000)
I0620 06:40:03.312882  6882 net.cpp:165] Memory required for data: 31104000
I0620 06:40:03.312885  6882 layer_factory.hpp:77] Creating layer data
I0620 06:40:03.312889  6882 net.cpp:100] Creating Layer data
I0620 06:40:03.312892  6882 net.cpp:434] data <- dataIR1
I0620 06:40:03.312896  6882 net.cpp:434] data <- dataIR2
I0620 06:40:03.312898  6882 net.cpp:434] data <- dataIR3
I0620 06:40:03.312901  6882 net.cpp:434] data <- dataRGB
I0620 06:40:03.312902  6882 net.cpp:408] data -> data
I0620 06:40:03.312922  6882 net.cpp:150] Setting up data
I0620 06:40:03.312925  6882 net.cpp:157] Top shape: 5 6 360 480 (5184000)
I0620 06:40:03.312927  6882 net.cpp:165] Memory required for data: 51840000
I0620 06:40:03.312929  6882 layer_factory.hpp:77] Creating layer multiconv1_1
I0620 06:40:03.312942  6882 net.cpp:100] Creating Layer multiconv1_1
I0620 06:40:03.312943  6882 net.cpp:434] multiconv1_1 <- data
I0620 06:40:03.312947  6882 net.cpp:408] multiconv1_1 -> conv1_1
I0620 06:40:03.684026  6882 net.cpp:150] Setting up multiconv1_1
I0620 06:40:03.684043  6882 net.cpp:157] Top shape: 5 64 360 480 (55296000)
I0620 06:40:03.684046  6882 net.cpp:165] Memory required for data: 273024000
I0620 06:40:03.684058  6882 layer_factory.hpp:77] Creating layer conv1_1_bn
I0620 06:40:03.684070  6882 net.cpp:100] Creating Layer conv1_1_bn
I0620 06:40:03.684073  6882 net.cpp:434] conv1_1_bn <- conv1_1
I0620 06:40:03.684077  6882 net.cpp:395] conv1_1_bn -> conv1_1 (in-place)
I0620 06:40:03.684355  6882 net.cpp:150] Setting up conv1_1_bn
I0620 06:40:03.684360  6882 net.cpp:157] Top shape: 5 64 360 480 (55296000)
I0620 06:40:03.684362  6882 net.cpp:165] Memory required for data: 494208000
I0620 06:40:03.684367  6882 layer_factory.hpp:77] Creating layer relu1_1
I0620 06:40:03.684372  6882 net.cpp:100] Creating Layer relu1_1
I0620 06:40:03.684375  6882 net.cpp:434] relu1_1 <- conv1_1
I0620 06:40:03.684377  6882 net.cpp:395] relu1_1 -> conv1_1 (in-place)
I0620 06:40:03.684504  6882 net.cpp:150] Setting up relu1_1
I0620 06:40:03.684509  6882 net.cpp:157] Top shape: 5 64 360 480 (55296000)
I0620 06:40:03.684510  6882 net.cpp:165] Memory required for data: 715392000
I0620 06:40:03.684512  6882 layer_factory.hpp:77] Creating layer conv1_2
I0620 06:40:03.684517  6882 net.cpp:100] Creating Layer conv1_2
I0620 06:40:03.684520  6882 net.cpp:434] conv1_2 <- conv1_1
I0620 06:40:03.684522  6882 net.cpp:408] conv1_2 -> conv1_2
I0620 06:40:03.687214  6882 net.cpp:150] Setting up conv1_2
I0620 06:40:03.687223  6882 net.cpp:157] Top shape: 5 64 360 480 (55296000)
I0620 06:40:03.687227  6882 net.cpp:165] Memory required for data: 936576000
I0620 06:40:03.687232  6882 layer_factory.hpp:77] Creating layer conv1_2_bn
I0620 06:40:03.687237  6882 net.cpp:100] Creating Layer conv1_2_bn
I0620 06:40:03.687240  6882 net.cpp:434] conv1_2_bn <- conv1_2
I0620 06:40:03.687243  6882 net.cpp:395] conv1_2_bn -> conv1_2 (in-place)
I0620 06:40:03.687507  6882 net.cpp:150] Setting up conv1_2_bn
I0620 06:40:03.687512  6882 net.cpp:157] Top shape: 5 64 360 480 (55296000)
I0620 06:40:03.687515  6882 net.cpp:165] Memory required for data: 1157760000
I0620 06:40:03.687517  6882 layer_factory.hpp:77] Creating layer relu1_2
I0620 06:40:03.687521  6882 net.cpp:100] Creating Layer relu1_2
I0620 06:40:03.687523  6882 net.cpp:434] relu1_2 <- conv1_2
I0620 06:40:03.687526  6882 net.cpp:395] relu1_2 -> conv1_2 (in-place)
I0620 06:40:03.687647  6882 net.cpp:150] Setting up relu1_2
I0620 06:40:03.687652  6882 net.cpp:157] Top shape: 5 64 360 480 (55296000)
I0620 06:40:03.687654  6882 net.cpp:165] Memory required for data: 1378944000
I0620 06:40:03.687656  6882 layer_factory.hpp:77] Creating layer pool1
I0620 06:40:03.687659  6882 layer_factory.cpp:91] cuDNN does not support multiple tops. Using Caffe's own pooling layer.
I0620 06:40:03.687662  6882 net.cpp:100] Creating Layer pool1
I0620 06:40:03.687664  6882 net.cpp:434] pool1 <- conv1_2
I0620 06:40:03.687667  6882 net.cpp:408] pool1 -> pool1
I0620 06:40:03.687672  6882 net.cpp:408] pool1 -> pool1_mask
I0620 06:40:03.687711  6882 net.cpp:150] Setting up pool1
I0620 06:40:03.687716  6882 net.cpp:157] Top shape: 5 64 180 240 (13824000)
I0620 06:40:03.687718  6882 net.cpp:157] Top shape: 5 64 180 240 (13824000)
I0620 06:40:03.687721  6882 net.cpp:165] Memory required for data: 1489536000
I0620 06:40:03.687722  6882 layer_factory.hpp:77] Creating layer conv2_1
I0620 06:40:03.687727  6882 net.cpp:100] Creating Layer conv2_1
I0620 06:40:03.687729  6882 net.cpp:434] conv2_1 <- pool1
I0620 06:40:03.687732  6882 net.cpp:408] conv2_1 -> conv2_1
I0620 06:40:03.690583  6882 net.cpp:150] Setting up conv2_1
I0620 06:40:03.690591  6882 net.cpp:157] Top shape: 5 128 180 240 (27648000)
I0620 06:40:03.690594  6882 net.cpp:165] Memory required for data: 1600128000
I0620 06:40:03.690600  6882 layer_factory.hpp:77] Creating layer conv2_1_bn
I0620 06:40:03.690604  6882 net.cpp:100] Creating Layer conv2_1_bn
I0620 06:40:03.690608  6882 net.cpp:434] conv2_1_bn <- conv2_1
I0620 06:40:03.690610  6882 net.cpp:395] conv2_1_bn -> conv2_1 (in-place)
I0620 06:40:03.690862  6882 net.cpp:150] Setting up conv2_1_bn
I0620 06:40:03.690866  6882 net.cpp:157] Top shape: 5 128 180 240 (27648000)
I0620 06:40:03.690868  6882 net.cpp:165] Memory required for data: 1710720000
I0620 06:40:03.690872  6882 layer_factory.hpp:77] Creating layer relu2_1
I0620 06:40:03.690876  6882 net.cpp:100] Creating Layer relu2_1
I0620 06:40:03.690878  6882 net.cpp:434] relu2_1 <- conv2_1
I0620 06:40:03.690881  6882 net.cpp:395] relu2_1 -> conv2_1 (in-place)
I0620 06:40:03.691220  6882 net.cpp:150] Setting up relu2_1
I0620 06:40:03.691227  6882 net.cpp:157] Top shape: 5 128 180 240 (27648000)
I0620 06:40:03.691231  6882 net.cpp:165] Memory required for data: 1821312000
I0620 06:40:03.691232  6882 layer_factory.hpp:77] Creating layer conv2_2
I0620 06:40:03.691238  6882 net.cpp:100] Creating Layer conv2_2
I0620 06:40:03.691241  6882 net.cpp:434] conv2_2 <- conv2_1
I0620 06:40:03.691244  6882 net.cpp:408] conv2_2 -> conv2_2
I0620 06:40:03.694645  6882 net.cpp:150] Setting up conv2_2
I0620 06:40:03.694653  6882 net.cpp:157] Top shape: 5 128 180 240 (27648000)
I0620 06:40:03.694655  6882 net.cpp:165] Memory required for data: 1931904000
I0620 06:40:03.694659  6882 layer_factory.hpp:77] Creating layer conv2_2_bn
I0620 06:40:03.694664  6882 net.cpp:100] Creating Layer conv2_2_bn
I0620 06:40:03.694666  6882 net.cpp:434] conv2_2_bn <- conv2_2
I0620 06:40:03.694669  6882 net.cpp:395] conv2_2_bn -> conv2_2 (in-place)
I0620 06:40:03.694911  6882 net.cpp:150] Setting up conv2_2_bn
I0620 06:40:03.694914  6882 net.cpp:157] Top shape: 5 128 180 240 (27648000)
I0620 06:40:03.694916  6882 net.cpp:165] Memory required for data: 2042496000
I0620 06:40:03.694919  6882 layer_factory.hpp:77] Creating layer relu2_2
I0620 06:40:03.694923  6882 net.cpp:100] Creating Layer relu2_2
I0620 06:40:03.694926  6882 net.cpp:434] relu2_2 <- conv2_2
I0620 06:40:03.694928  6882 net.cpp:395] relu2_2 -> conv2_2 (in-place)
I0620 06:40:03.695039  6882 net.cpp:150] Setting up relu2_2
I0620 06:40:03.695044  6882 net.cpp:157] Top shape: 5 128 180 240 (27648000)
I0620 06:40:03.695045  6882 net.cpp:165] Memory required for data: 2153088000
I0620 06:40:03.695047  6882 layer_factory.hpp:77] Creating layer pool2
I0620 06:40:03.695050  6882 layer_factory.cpp:91] cuDNN does not support multiple tops. Using Caffe's own pooling layer.
I0620 06:40:03.695052  6882 net.cpp:100] Creating Layer pool2
I0620 06:40:03.695055  6882 net.cpp:434] pool2 <- conv2_2
I0620 06:40:03.695057  6882 net.cpp:408] pool2 -> pool2
I0620 06:40:03.695061  6882 net.cpp:408] pool2 -> pool2_mask
I0620 06:40:03.695096  6882 net.cpp:150] Setting up pool2
I0620 06:40:03.695101  6882 net.cpp:157] Top shape: 5 128 90 120 (6912000)
I0620 06:40:03.695102  6882 net.cpp:157] Top shape: 5 128 90 120 (6912000)
I0620 06:40:03.695104  6882 net.cpp:165] Memory required for data: 2208384000
I0620 06:40:03.695106  6882 layer_factory.hpp:77] Creating layer conv3_1
I0620 06:40:03.695109  6882 net.cpp:100] Creating Layer conv3_1
I0620 06:40:03.695112  6882 net.cpp:434] conv3_1 <- pool2
I0620 06:40:03.695116  6882 net.cpp:408] conv3_1 -> conv3_1
I0620 06:40:03.701508  6882 net.cpp:150] Setting up conv3_1
I0620 06:40:03.701516  6882 net.cpp:157] Top shape: 5 256 90 120 (13824000)
I0620 06:40:03.701519  6882 net.cpp:165] Memory required for data: 2263680000
I0620 06:40:03.701525  6882 layer_factory.hpp:77] Creating layer conv3_1_bn
I0620 06:40:03.701530  6882 net.cpp:100] Creating Layer conv3_1_bn
I0620 06:40:03.701534  6882 net.cpp:434] conv3_1_bn <- conv3_1
I0620 06:40:03.701537  6882 net.cpp:395] conv3_1_bn -> conv3_1 (in-place)
I0620 06:40:03.701750  6882 net.cpp:150] Setting up conv3_1_bn
I0620 06:40:03.701755  6882 net.cpp:157] Top shape: 5 256 90 120 (13824000)
I0620 06:40:03.701756  6882 net.cpp:165] Memory required for data: 2318976000
I0620 06:40:03.701759  6882 layer_factory.hpp:77] Creating layer relu3_1
I0620 06:40:03.701763  6882 net.cpp:100] Creating Layer relu3_1
I0620 06:40:03.701766  6882 net.cpp:434] relu3_1 <- conv3_1
I0620 06:40:03.701768  6882 net.cpp:395] relu3_1 -> conv3_1 (in-place)
I0620 06:40:03.701894  6882 net.cpp:150] Setting up relu3_1
I0620 06:40:03.701898  6882 net.cpp:157] Top shape: 5 256 90 120 (13824000)
I0620 06:40:03.701900  6882 net.cpp:165] Memory required for data: 2374272000
I0620 06:40:03.701902  6882 layer_factory.hpp:77] Creating layer conv3_2
I0620 06:40:03.701907  6882 net.cpp:100] Creating Layer conv3_2
I0620 06:40:03.701910  6882 net.cpp:434] conv3_2 <- conv3_1
I0620 06:40:03.701912  6882 net.cpp:408] conv3_2 -> conv3_2
I0620 06:40:03.713093  6882 net.cpp:150] Setting up conv3_2
I0620 06:40:03.713102  6882 net.cpp:157] Top shape: 5 256 90 120 (13824000)
I0620 06:40:03.713104  6882 net.cpp:165] Memory required for data: 2429568000
I0620 06:40:03.713109  6882 layer_factory.hpp:77] Creating layer conv3_2_bn
I0620 06:40:03.713114  6882 net.cpp:100] Creating Layer conv3_2_bn
I0620 06:40:03.713117  6882 net.cpp:434] conv3_2_bn <- conv3_2
I0620 06:40:03.713121  6882 net.cpp:395] conv3_2_bn -> conv3_2 (in-place)
I0620 06:40:03.713332  6882 net.cpp:150] Setting up conv3_2_bn
I0620 06:40:03.713336  6882 net.cpp:157] Top shape: 5 256 90 120 (13824000)
I0620 06:40:03.713338  6882 net.cpp:165] Memory required for data: 2484864000
I0620 06:40:03.713341  6882 layer_factory.hpp:77] Creating layer relu3_2
I0620 06:40:03.713346  6882 net.cpp:100] Creating Layer relu3_2
I0620 06:40:03.713348  6882 net.cpp:434] relu3_2 <- conv3_2
I0620 06:40:03.713351  6882 net.cpp:395] relu3_2 -> conv3_2 (in-place)
I0620 06:40:03.713685  6882 net.cpp:150] Setting up relu3_2
I0620 06:40:03.713691  6882 net.cpp:157] Top shape: 5 256 90 120 (13824000)
I0620 06:40:03.713695  6882 net.cpp:165] Memory required for data: 2540160000
I0620 06:40:03.713696  6882 layer_factory.hpp:77] Creating layer conv3_3
I0620 06:40:03.713701  6882 net.cpp:100] Creating Layer conv3_3
I0620 06:40:03.713703  6882 net.cpp:434] conv3_3 <- conv3_2
I0620 06:40:03.713707  6882 net.cpp:408] conv3_3 -> conv3_3
I0620 06:40:03.724889  6882 net.cpp:150] Setting up conv3_3
I0620 06:40:03.724898  6882 net.cpp:157] Top shape: 5 256 90 120 (13824000)
I0620 06:40:03.724901  6882 net.cpp:165] Memory required for data: 2595456000
I0620 06:40:03.724905  6882 layer_factory.hpp:77] Creating layer conv3_3_bn
I0620 06:40:03.724910  6882 net.cpp:100] Creating Layer conv3_3_bn
I0620 06:40:03.724913  6882 net.cpp:434] conv3_3_bn <- conv3_3
I0620 06:40:03.724916  6882 net.cpp:395] conv3_3_bn -> conv3_3 (in-place)
I0620 06:40:03.725129  6882 net.cpp:150] Setting up conv3_3_bn
I0620 06:40:03.725133  6882 net.cpp:157] Top shape: 5 256 90 120 (13824000)
I0620 06:40:03.725136  6882 net.cpp:165] Memory required for data: 2650752000
I0620 06:40:03.725138  6882 layer_factory.hpp:77] Creating layer relu3_3
I0620 06:40:03.725142  6882 net.cpp:100] Creating Layer relu3_3
I0620 06:40:03.725145  6882 net.cpp:434] relu3_3 <- conv3_3
I0620 06:40:03.725147  6882 net.cpp:395] relu3_3 -> conv3_3 (in-place)
I0620 06:40:03.725260  6882 net.cpp:150] Setting up relu3_3
I0620 06:40:03.725265  6882 net.cpp:157] Top shape: 5 256 90 120 (13824000)
I0620 06:40:03.725266  6882 net.cpp:165] Memory required for data: 2706048000
I0620 06:40:03.725267  6882 layer_factory.hpp:77] Creating layer pool3
I0620 06:40:03.725270  6882 layer_factory.cpp:91] cuDNN does not support multiple tops. Using Caffe's own pooling layer.
I0620 06:40:03.725272  6882 net.cpp:100] Creating Layer pool3
I0620 06:40:03.725275  6882 net.cpp:434] pool3 <- conv3_3
I0620 06:40:03.725277  6882 net.cpp:408] pool3 -> pool3
I0620 06:40:03.725282  6882 net.cpp:408] pool3 -> pool3_mask
I0620 06:40:03.725318  6882 net.cpp:150] Setting up pool3
I0620 06:40:03.725322  6882 net.cpp:157] Top shape: 5 256 45 60 (3456000)
I0620 06:40:03.725324  6882 net.cpp:157] Top shape: 5 256 45 60 (3456000)
I0620 06:40:03.725325  6882 net.cpp:165] Memory required for data: 2733696000
I0620 06:40:03.725327  6882 layer_factory.hpp:77] Creating layer conv4_1
I0620 06:40:03.725332  6882 net.cpp:100] Creating Layer conv4_1
I0620 06:40:03.725334  6882 net.cpp:434] conv4_1 <- pool3
I0620 06:40:03.725337  6882 net.cpp:408] conv4_1 -> conv4_1
I0620 06:40:03.747254  6882 net.cpp:150] Setting up conv4_1
I0620 06:40:03.747272  6882 net.cpp:157] Top shape: 5 512 45 60 (6912000)
I0620 06:40:03.747274  6882 net.cpp:165] Memory required for data: 2761344000
I0620 06:40:03.747282  6882 layer_factory.hpp:77] Creating layer conv4_1_bn
I0620 06:40:03.747292  6882 net.cpp:100] Creating Layer conv4_1_bn
I0620 06:40:03.747297  6882 net.cpp:434] conv4_1_bn <- conv4_1
I0620 06:40:03.747301  6882 net.cpp:395] conv4_1_bn -> conv4_1 (in-place)
I0620 06:40:03.747521  6882 net.cpp:150] Setting up conv4_1_bn
I0620 06:40:03.747525  6882 net.cpp:157] Top shape: 5 512 45 60 (6912000)
I0620 06:40:03.747527  6882 net.cpp:165] Memory required for data: 2788992000
I0620 06:40:03.747530  6882 layer_factory.hpp:77] Creating layer relu4_1
I0620 06:40:03.747537  6882 net.cpp:100] Creating Layer relu4_1
I0620 06:40:03.747539  6882 net.cpp:434] relu4_1 <- conv4_1
I0620 06:40:03.747562  6882 net.cpp:395] relu4_1 -> conv4_1 (in-place)
I0620 06:40:03.747678  6882 net.cpp:150] Setting up relu4_1
I0620 06:40:03.747683  6882 net.cpp:157] Top shape: 5 512 45 60 (6912000)
I0620 06:40:03.747684  6882 net.cpp:165] Memory required for data: 2816640000
I0620 06:40:03.747686  6882 layer_factory.hpp:77] Creating layer conv4_2
I0620 06:40:03.747691  6882 net.cpp:100] Creating Layer conv4_2
I0620 06:40:03.747694  6882 net.cpp:434] conv4_2 <- conv4_1
I0620 06:40:03.747697  6882 net.cpp:408] conv4_2 -> conv4_2
I0620 06:40:03.788493  6882 net.cpp:150] Setting up conv4_2
I0620 06:40:03.788511  6882 net.cpp:157] Top shape: 5 512 45 60 (6912000)
I0620 06:40:03.788513  6882 net.cpp:165] Memory required for data: 2844288000
I0620 06:40:03.788527  6882 layer_factory.hpp:77] Creating layer conv4_2_bn
I0620 06:40:03.788535  6882 net.cpp:100] Creating Layer conv4_2_bn
I0620 06:40:03.788539  6882 net.cpp:434] conv4_2_bn <- conv4_2
I0620 06:40:03.788543  6882 net.cpp:395] conv4_2_bn -> conv4_2 (in-place)
I0620 06:40:03.788761  6882 net.cpp:150] Setting up conv4_2_bn
I0620 06:40:03.788765  6882 net.cpp:157] Top shape: 5 512 45 60 (6912000)
I0620 06:40:03.788767  6882 net.cpp:165] Memory required for data: 2871936000
I0620 06:40:03.788770  6882 layer_factory.hpp:77] Creating layer relu4_2
I0620 06:40:03.788775  6882 net.cpp:100] Creating Layer relu4_2
I0620 06:40:03.788777  6882 net.cpp:434] relu4_2 <- conv4_2
I0620 06:40:03.788780  6882 net.cpp:395] relu4_2 -> conv4_2 (in-place)
I0620 06:40:03.788889  6882 net.cpp:150] Setting up relu4_2
I0620 06:40:03.788894  6882 net.cpp:157] Top shape: 5 512 45 60 (6912000)
I0620 06:40:03.788897  6882 net.cpp:165] Memory required for data: 2899584000
I0620 06:40:03.788898  6882 layer_factory.hpp:77] Creating layer conv4_3
I0620 06:40:03.788903  6882 net.cpp:100] Creating Layer conv4_3
I0620 06:40:03.788906  6882 net.cpp:434] conv4_3 <- conv4_2
I0620 06:40:03.788909  6882 net.cpp:408] conv4_3 -> conv4_3
I0620 06:40:03.829746  6882 net.cpp:150] Setting up conv4_3
I0620 06:40:03.829762  6882 net.cpp:157] Top shape: 5 512 45 60 (6912000)
I0620 06:40:03.829764  6882 net.cpp:165] Memory required for data: 2927232000
I0620 06:40:03.829771  6882 layer_factory.hpp:77] Creating layer conv4_3_bn
I0620 06:40:03.829779  6882 net.cpp:100] Creating Layer conv4_3_bn
I0620 06:40:03.829783  6882 net.cpp:434] conv4_3_bn <- conv4_3
I0620 06:40:03.829789  6882 net.cpp:395] conv4_3_bn -> conv4_3 (in-place)
I0620 06:40:03.830004  6882 net.cpp:150] Setting up conv4_3_bn
I0620 06:40:03.830008  6882 net.cpp:157] Top shape: 5 512 45 60 (6912000)
I0620 06:40:03.830010  6882 net.cpp:165] Memory required for data: 2954880000
I0620 06:40:03.830014  6882 layer_factory.hpp:77] Creating layer relu4_3
I0620 06:40:03.830018  6882 net.cpp:100] Creating Layer relu4_3
I0620 06:40:03.830020  6882 net.cpp:434] relu4_3 <- conv4_3
I0620 06:40:03.830024  6882 net.cpp:395] relu4_3 -> conv4_3 (in-place)
I0620 06:40:03.830386  6882 net.cpp:150] Setting up relu4_3
I0620 06:40:03.830394  6882 net.cpp:157] Top shape: 5 512 45 60 (6912000)
I0620 06:40:03.830396  6882 net.cpp:165] Memory required for data: 2982528000
I0620 06:40:03.830399  6882 layer_factory.hpp:77] Creating layer pool4
I0620 06:40:03.830410  6882 layer_factory.cpp:91] cuDNN does not support multiple tops. Using Caffe's own pooling layer.
I0620 06:40:03.830415  6882 net.cpp:100] Creating Layer pool4
I0620 06:40:03.830417  6882 net.cpp:434] pool4 <- conv4_3
I0620 06:40:03.830420  6882 net.cpp:408] pool4 -> pool4
I0620 06:40:03.830425  6882 net.cpp:408] pool4 -> pool4_mask
I0620 06:40:03.830464  6882 net.cpp:150] Setting up pool4
I0620 06:40:03.830468  6882 net.cpp:157] Top shape: 5 512 23 30 (1766400)
I0620 06:40:03.830471  6882 net.cpp:157] Top shape: 5 512 23 30 (1766400)
I0620 06:40:03.830472  6882 net.cpp:165] Memory required for data: 2996659200
I0620 06:40:03.830474  6882 layer_factory.hpp:77] Creating layer conv5_1
I0620 06:40:03.830478  6882 net.cpp:100] Creating Layer conv5_1
I0620 06:40:03.830482  6882 net.cpp:434] conv5_1 <- pool4
I0620 06:40:03.830484  6882 net.cpp:408] conv5_1 -> conv5_1
I0620 06:40:03.871318  6882 net.cpp:150] Setting up conv5_1
I0620 06:40:03.871336  6882 net.cpp:157] Top shape: 5 512 23 30 (1766400)
I0620 06:40:03.871340  6882 net.cpp:165] Memory required for data: 3003724800
I0620 06:40:03.871346  6882 layer_factory.hpp:77] Creating layer conv5_1_bn
I0620 06:40:03.871356  6882 net.cpp:100] Creating Layer conv5_1_bn
I0620 06:40:03.871362  6882 net.cpp:434] conv5_1_bn <- conv5_1
I0620 06:40:03.871366  6882 net.cpp:395] conv5_1_bn -> conv5_1 (in-place)
I0620 06:40:03.871587  6882 net.cpp:150] Setting up conv5_1_bn
I0620 06:40:03.871592  6882 net.cpp:157] Top shape: 5 512 23 30 (1766400)
I0620 06:40:03.871594  6882 net.cpp:165] Memory required for data: 3010790400
I0620 06:40:03.871598  6882 layer_factory.hpp:77] Creating layer relu5_1
I0620 06:40:03.871603  6882 net.cpp:100] Creating Layer relu5_1
I0620 06:40:03.871604  6882 net.cpp:434] relu5_1 <- conv5_1
I0620 06:40:03.871608  6882 net.cpp:395] relu5_1 -> conv5_1 (in-place)
I0620 06:40:03.871716  6882 net.cpp:150] Setting up relu5_1
I0620 06:40:03.871721  6882 net.cpp:157] Top shape: 5 512 23 30 (1766400)
I0620 06:40:03.871723  6882 net.cpp:165] Memory required for data: 3017856000
I0620 06:40:03.871726  6882 layer_factory.hpp:77] Creating layer conv5_2
I0620 06:40:03.871729  6882 net.cpp:100] Creating Layer conv5_2
I0620 06:40:03.871732  6882 net.cpp:434] conv5_2 <- conv5_1
I0620 06:40:03.871736  6882 net.cpp:408] conv5_2 -> conv5_2
I0620 06:40:03.912735  6882 net.cpp:150] Setting up conv5_2
I0620 06:40:03.912753  6882 net.cpp:157] Top shape: 5 512 23 30 (1766400)
I0620 06:40:03.912755  6882 net.cpp:165] Memory required for data: 3024921600
I0620 06:40:03.912763  6882 layer_factory.hpp:77] Creating layer conv5_2_bn
I0620 06:40:03.912772  6882 net.cpp:100] Creating Layer conv5_2_bn
I0620 06:40:03.912777  6882 net.cpp:434] conv5_2_bn <- conv5_2
I0620 06:40:03.912781  6882 net.cpp:395] conv5_2_bn -> conv5_2 (in-place)
I0620 06:40:03.912988  6882 net.cpp:150] Setting up conv5_2_bn
I0620 06:40:03.912993  6882 net.cpp:157] Top shape: 5 512 23 30 (1766400)
I0620 06:40:03.912995  6882 net.cpp:165] Memory required for data: 3031987200
I0620 06:40:03.912998  6882 layer_factory.hpp:77] Creating layer relu5_2
I0620 06:40:03.913002  6882 net.cpp:100] Creating Layer relu5_2
I0620 06:40:03.913005  6882 net.cpp:434] relu5_2 <- conv5_2
I0620 06:40:03.913007  6882 net.cpp:395] relu5_2 -> conv5_2 (in-place)
I0620 06:40:03.913116  6882 net.cpp:150] Setting up relu5_2
I0620 06:40:03.913121  6882 net.cpp:157] Top shape: 5 512 23 30 (1766400)
I0620 06:40:03.913123  6882 net.cpp:165] Memory required for data: 3039052800
I0620 06:40:03.913125  6882 layer_factory.hpp:77] Creating layer conv5_3
I0620 06:40:03.913130  6882 net.cpp:100] Creating Layer conv5_3
I0620 06:40:03.913132  6882 net.cpp:434] conv5_3 <- conv5_2
I0620 06:40:03.913136  6882 net.cpp:408] conv5_3 -> conv5_3
I0620 06:40:03.954116  6882 net.cpp:150] Setting up conv5_3
I0620 06:40:03.954138  6882 net.cpp:157] Top shape: 5 512 23 30 (1766400)
I0620 06:40:03.954139  6882 net.cpp:165] Memory required for data: 3046118400
I0620 06:40:03.954149  6882 layer_factory.hpp:77] Creating layer conv5_3_bn
I0620 06:40:03.954172  6882 net.cpp:100] Creating Layer conv5_3_bn
I0620 06:40:03.954177  6882 net.cpp:434] conv5_3_bn <- conv5_3
I0620 06:40:03.954183  6882 net.cpp:395] conv5_3_bn -> conv5_3 (in-place)
I0620 06:40:03.954404  6882 net.cpp:150] Setting up conv5_3_bn
I0620 06:40:03.954409  6882 net.cpp:157] Top shape: 5 512 23 30 (1766400)
I0620 06:40:03.954411  6882 net.cpp:165] Memory required for data: 3053184000
I0620 06:40:03.954414  6882 layer_factory.hpp:77] Creating layer relu5_3
I0620 06:40:03.954418  6882 net.cpp:100] Creating Layer relu5_3
I0620 06:40:03.954421  6882 net.cpp:434] relu5_3 <- conv5_3
I0620 06:40:03.954424  6882 net.cpp:395] relu5_3 -> conv5_3 (in-place)
I0620 06:40:03.954826  6882 net.cpp:150] Setting up relu5_3
I0620 06:40:03.954833  6882 net.cpp:157] Top shape: 5 512 23 30 (1766400)
I0620 06:40:03.954836  6882 net.cpp:165] Memory required for data: 3060249600
I0620 06:40:03.954838  6882 layer_factory.hpp:77] Creating layer pool5
I0620 06:40:03.954841  6882 layer_factory.cpp:91] cuDNN does not support multiple tops. Using Caffe's own pooling layer.
I0620 06:40:03.954844  6882 net.cpp:100] Creating Layer pool5
I0620 06:40:03.954847  6882 net.cpp:434] pool5 <- conv5_3
I0620 06:40:03.954850  6882 net.cpp:408] pool5 -> pool5
I0620 06:40:03.954855  6882 net.cpp:408] pool5 -> pool5_mask
I0620 06:40:03.954897  6882 net.cpp:150] Setting up pool5
I0620 06:40:03.954901  6882 net.cpp:157] Top shape: 5 512 12 15 (460800)
I0620 06:40:03.954905  6882 net.cpp:157] Top shape: 5 512 12 15 (460800)
I0620 06:40:03.954905  6882 net.cpp:165] Memory required for data: 3063936000
I0620 06:40:03.954907  6882 layer_factory.hpp:77] Creating layer upsample5
I0620 06:40:03.954912  6882 net.cpp:100] Creating Layer upsample5
I0620 06:40:03.954916  6882 net.cpp:434] upsample5 <- pool5
I0620 06:40:03.954917  6882 net.cpp:434] upsample5 <- pool5_mask
I0620 06:40:03.954921  6882 net.cpp:408] upsample5 -> pool5_D
I0620 06:40:03.954942  6882 net.cpp:150] Setting up upsample5
I0620 06:40:03.954947  6882 net.cpp:157] Top shape: 5 512 23 30 (1766400)
I0620 06:40:03.954949  6882 net.cpp:165] Memory required for data: 3071001600
I0620 06:40:03.954952  6882 layer_factory.hpp:77] Creating layer conv5_3_D
I0620 06:40:03.954955  6882 net.cpp:100] Creating Layer conv5_3_D
I0620 06:40:03.954957  6882 net.cpp:434] conv5_3_D <- pool5_D
I0620 06:40:03.954960  6882 net.cpp:408] conv5_3_D -> conv5_3_D
I0620 06:40:03.996281  6882 net.cpp:150] Setting up conv5_3_D
I0620 06:40:03.996299  6882 net.cpp:157] Top shape: 5 512 23 30 (1766400)
I0620 06:40:03.996301  6882 net.cpp:165] Memory required for data: 3078067200
I0620 06:40:03.996310  6882 layer_factory.hpp:77] Creating layer conv5_3_D_bn
I0620 06:40:03.996320  6882 net.cpp:100] Creating Layer conv5_3_D_bn
I0620 06:40:03.996325  6882 net.cpp:434] conv5_3_D_bn <- conv5_3_D
I0620 06:40:03.996330  6882 net.cpp:395] conv5_3_D_bn -> conv5_3_D (in-place)
I0620 06:40:03.996542  6882 net.cpp:150] Setting up conv5_3_D_bn
I0620 06:40:03.996546  6882 net.cpp:157] Top shape: 5 512 23 30 (1766400)
I0620 06:40:03.996548  6882 net.cpp:165] Memory required for data: 3085132800
I0620 06:40:03.996551  6882 layer_factory.hpp:77] Creating layer relu5_3_D
I0620 06:40:03.996556  6882 net.cpp:100] Creating Layer relu5_3_D
I0620 06:40:03.996557  6882 net.cpp:434] relu5_3_D <- conv5_3_D
I0620 06:40:03.996560  6882 net.cpp:395] relu5_3_D -> conv5_3_D (in-place)
I0620 06:40:03.996673  6882 net.cpp:150] Setting up relu5_3_D
I0620 06:40:03.996678  6882 net.cpp:157] Top shape: 5 512 23 30 (1766400)
I0620 06:40:03.996680  6882 net.cpp:165] Memory required for data: 3092198400
I0620 06:40:03.996682  6882 layer_factory.hpp:77] Creating layer conv5_2_D
I0620 06:40:03.996686  6882 net.cpp:100] Creating Layer conv5_2_D
I0620 06:40:03.996690  6882 net.cpp:434] conv5_2_D <- conv5_3_D
I0620 06:40:03.996692  6882 net.cpp:408] conv5_2_D -> conv5_2_D
I0620 06:40:04.037829  6882 net.cpp:150] Setting up conv5_2_D
I0620 06:40:04.037845  6882 net.cpp:157] Top shape: 5 512 23 30 (1766400)
I0620 06:40:04.037847  6882 net.cpp:165] Memory required for data: 3099264000
I0620 06:40:04.037869  6882 layer_factory.hpp:77] Creating layer conv5_2_D_bn
I0620 06:40:04.037878  6882 net.cpp:100] Creating Layer conv5_2_D_bn
I0620 06:40:04.037883  6882 net.cpp:434] conv5_2_D_bn <- conv5_2_D
I0620 06:40:04.037886  6882 net.cpp:395] conv5_2_D_bn -> conv5_2_D (in-place)
I0620 06:40:04.038102  6882 net.cpp:150] Setting up conv5_2_D_bn
I0620 06:40:04.038106  6882 net.cpp:157] Top shape: 5 512 23 30 (1766400)
I0620 06:40:04.038108  6882 net.cpp:165] Memory required for data: 3106329600
I0620 06:40:04.038111  6882 layer_factory.hpp:77] Creating layer relu5_2_D
I0620 06:40:04.038115  6882 net.cpp:100] Creating Layer relu5_2_D
I0620 06:40:04.038118  6882 net.cpp:434] relu5_2_D <- conv5_2_D
I0620 06:40:04.038120  6882 net.cpp:395] relu5_2_D -> conv5_2_D (in-place)
I0620 06:40:04.038236  6882 net.cpp:150] Setting up relu5_2_D
I0620 06:40:04.038241  6882 net.cpp:157] Top shape: 5 512 23 30 (1766400)
I0620 06:40:04.038244  6882 net.cpp:165] Memory required for data: 3113395200
I0620 06:40:04.038245  6882 layer_factory.hpp:77] Creating layer conv5_1_D
I0620 06:40:04.038250  6882 net.cpp:100] Creating Layer conv5_1_D
I0620 06:40:04.038252  6882 net.cpp:434] conv5_1_D <- conv5_2_D
I0620 06:40:04.038256  6882 net.cpp:408] conv5_1_D -> conv5_1_D
I0620 06:40:04.079102  6882 net.cpp:150] Setting up conv5_1_D
I0620 06:40:04.079118  6882 net.cpp:157] Top shape: 5 512 23 30 (1766400)
I0620 06:40:04.079119  6882 net.cpp:165] Memory required for data: 3120460800
I0620 06:40:04.079128  6882 layer_factory.hpp:77] Creating layer conv5_1_D_bn
I0620 06:40:04.079138  6882 net.cpp:100] Creating Layer conv5_1_D_bn
I0620 06:40:04.079144  6882 net.cpp:434] conv5_1_D_bn <- conv5_1_D
I0620 06:40:04.079149  6882 net.cpp:395] conv5_1_D_bn -> conv5_1_D (in-place)
I0620 06:40:04.079367  6882 net.cpp:150] Setting up conv5_1_D_bn
I0620 06:40:04.079371  6882 net.cpp:157] Top shape: 5 512 23 30 (1766400)
I0620 06:40:04.079373  6882 net.cpp:165] Memory required for data: 3127526400
I0620 06:40:04.079376  6882 layer_factory.hpp:77] Creating layer relu5_1_D
I0620 06:40:04.079380  6882 net.cpp:100] Creating Layer relu5_1_D
I0620 06:40:04.079382  6882 net.cpp:434] relu5_1_D <- conv5_1_D
I0620 06:40:04.079385  6882 net.cpp:395] relu5_1_D -> conv5_1_D (in-place)
I0620 06:40:04.079759  6882 net.cpp:150] Setting up relu5_1_D
I0620 06:40:04.079766  6882 net.cpp:157] Top shape: 5 512 23 30 (1766400)
I0620 06:40:04.079769  6882 net.cpp:165] Memory required for data: 3134592000
I0620 06:40:04.079771  6882 layer_factory.hpp:77] Creating layer upsample4
I0620 06:40:04.079776  6882 net.cpp:100] Creating Layer upsample4
I0620 06:40:04.079778  6882 net.cpp:434] upsample4 <- conv5_1_D
I0620 06:40:04.079780  6882 net.cpp:434] upsample4 <- pool4_mask
I0620 06:40:04.079784  6882 net.cpp:408] upsample4 -> pool4_D
I0620 06:40:04.079813  6882 net.cpp:150] Setting up upsample4
I0620 06:40:04.079816  6882 net.cpp:157] Top shape: 5 512 45 60 (6912000)
I0620 06:40:04.079818  6882 net.cpp:165] Memory required for data: 3162240000
I0620 06:40:04.079819  6882 layer_factory.hpp:77] Creating layer conv4_3_D
I0620 06:40:04.079824  6882 net.cpp:100] Creating Layer conv4_3_D
I0620 06:40:04.079828  6882 net.cpp:434] conv4_3_D <- pool4_D
I0620 06:40:04.079830  6882 net.cpp:408] conv4_3_D -> conv4_3_D
I0620 06:40:04.120724  6882 net.cpp:150] Setting up conv4_3_D
I0620 06:40:04.120741  6882 net.cpp:157] Top shape: 5 512 45 60 (6912000)
I0620 06:40:04.120743  6882 net.cpp:165] Memory required for data: 3189888000
I0620 06:40:04.120759  6882 layer_factory.hpp:77] Creating layer conv4_3_D_bn
I0620 06:40:04.120766  6882 net.cpp:100] Creating Layer conv4_3_D_bn
I0620 06:40:04.120770  6882 net.cpp:434] conv4_3_D_bn <- conv4_3_D
I0620 06:40:04.120775  6882 net.cpp:395] conv4_3_D_bn -> conv4_3_D (in-place)
I0620 06:40:04.121003  6882 net.cpp:150] Setting up conv4_3_D_bn
I0620 06:40:04.121007  6882 net.cpp:157] Top shape: 5 512 45 60 (6912000)
I0620 06:40:04.121009  6882 net.cpp:165] Memory required for data: 3217536000
I0620 06:40:04.121012  6882 layer_factory.hpp:77] Creating layer relu4_3_D
I0620 06:40:04.121027  6882 net.cpp:100] Creating Layer relu4_3_D
I0620 06:40:04.121031  6882 net.cpp:434] relu4_3_D <- conv4_3_D
I0620 06:40:04.121032  6882 net.cpp:395] relu4_3_D -> conv4_3_D (in-place)
I0620 06:40:04.121146  6882 net.cpp:150] Setting up relu4_3_D
I0620 06:40:04.121151  6882 net.cpp:157] Top shape: 5 512 45 60 (6912000)
I0620 06:40:04.121153  6882 net.cpp:165] Memory required for data: 3245184000
I0620 06:40:04.121155  6882 layer_factory.hpp:77] Creating layer conv4_2_D
I0620 06:40:04.121163  6882 net.cpp:100] Creating Layer conv4_2_D
I0620 06:40:04.121166  6882 net.cpp:434] conv4_2_D <- conv4_3_D
I0620 06:40:04.121170  6882 net.cpp:408] conv4_2_D -> conv4_2_D
I0620 06:40:04.162037  6882 net.cpp:150] Setting up conv4_2_D
I0620 06:40:04.162053  6882 net.cpp:157] Top shape: 5 512 45 60 (6912000)
I0620 06:40:04.162055  6882 net.cpp:165] Memory required for data: 3272832000
I0620 06:40:04.162065  6882 layer_factory.hpp:77] Creating layer conv4_2_D_bn
I0620 06:40:04.162072  6882 net.cpp:100] Creating Layer conv4_2_D_bn
I0620 06:40:04.162077  6882 net.cpp:434] conv4_2_D_bn <- conv4_2_D
I0620 06:40:04.162081  6882 net.cpp:395] conv4_2_D_bn -> conv4_2_D (in-place)
I0620 06:40:04.162313  6882 net.cpp:150] Setting up conv4_2_D_bn
I0620 06:40:04.162317  6882 net.cpp:157] Top shape: 5 512 45 60 (6912000)
I0620 06:40:04.162319  6882 net.cpp:165] Memory required for data: 3300480000
I0620 06:40:04.162323  6882 layer_factory.hpp:77] Creating layer relu4_2_D
I0620 06:40:04.162328  6882 net.cpp:100] Creating Layer relu4_2_D
I0620 06:40:04.162330  6882 net.cpp:434] relu4_2_D <- conv4_2_D
I0620 06:40:04.162333  6882 net.cpp:395] relu4_2_D -> conv4_2_D (in-place)
I0620 06:40:04.162444  6882 net.cpp:150] Setting up relu4_2_D
I0620 06:40:04.162449  6882 net.cpp:157] Top shape: 5 512 45 60 (6912000)
I0620 06:40:04.162451  6882 net.cpp:165] Memory required for data: 3328128000
I0620 06:40:04.162452  6882 layer_factory.hpp:77] Creating layer conv4_1_D
I0620 06:40:04.162457  6882 net.cpp:100] Creating Layer conv4_1_D
I0620 06:40:04.162461  6882 net.cpp:434] conv4_1_D <- conv4_2_D
I0620 06:40:04.162463  6882 net.cpp:408] conv4_1_D -> conv4_1_D
I0620 06:40:04.183725  6882 net.cpp:150] Setting up conv4_1_D
I0620 06:40:04.183738  6882 net.cpp:157] Top shape: 5 256 45 60 (3456000)
I0620 06:40:04.183740  6882 net.cpp:165] Memory required for data: 3341952000
I0620 06:40:04.183748  6882 layer_factory.hpp:77] Creating layer conv4_1_D_bn
I0620 06:40:04.183755  6882 net.cpp:100] Creating Layer conv4_1_D_bn
I0620 06:40:04.183759  6882 net.cpp:434] conv4_1_D_bn <- conv4_1_D
I0620 06:40:04.183764  6882 net.cpp:395] conv4_1_D_bn -> conv4_1_D (in-place)
I0620 06:40:04.184002  6882 net.cpp:150] Setting up conv4_1_D_bn
I0620 06:40:04.184006  6882 net.cpp:157] Top shape: 5 256 45 60 (3456000)
I0620 06:40:04.184008  6882 net.cpp:165] Memory required for data: 3355776000
I0620 06:40:04.184011  6882 layer_factory.hpp:77] Creating layer relu4_1_D
I0620 06:40:04.184015  6882 net.cpp:100] Creating Layer relu4_1_D
I0620 06:40:04.184018  6882 net.cpp:434] relu4_1_D <- conv4_1_D
I0620 06:40:04.184020  6882 net.cpp:395] relu4_1_D -> conv4_1_D (in-place)
I0620 06:40:04.184134  6882 net.cpp:150] Setting up relu4_1_D
I0620 06:40:04.184139  6882 net.cpp:157] Top shape: 5 256 45 60 (3456000)
I0620 06:40:04.184141  6882 net.cpp:165] Memory required for data: 3369600000
I0620 06:40:04.184144  6882 layer_factory.hpp:77] Creating layer upsample3
I0620 06:40:04.184147  6882 net.cpp:100] Creating Layer upsample3
I0620 06:40:04.184149  6882 net.cpp:434] upsample3 <- conv4_1_D
I0620 06:40:04.184152  6882 net.cpp:434] upsample3 <- pool3_mask
I0620 06:40:04.184155  6882 net.cpp:408] upsample3 -> pool3_D
I0620 06:40:04.184160  6882 upsample_layer.cpp:27] Params 'pad_out_{}_' are deprecated. Please declare upsample height and width useing the upsample_h, upsample_w parameters.
I0620 06:40:04.184182  6882 net.cpp:150] Setting up upsample3
I0620 06:40:04.184185  6882 net.cpp:157] Top shape: 5 256 90 120 (13824000)
I0620 06:40:04.184197  6882 net.cpp:165] Memory required for data: 3424896000
I0620 06:40:04.184200  6882 layer_factory.hpp:77] Creating layer conv3_3_D
I0620 06:40:04.184204  6882 net.cpp:100] Creating Layer conv3_3_D
I0620 06:40:04.184207  6882 net.cpp:434] conv3_3_D <- pool3_D
I0620 06:40:04.184211  6882 net.cpp:408] conv3_3_D -> conv3_3_D
I0620 06:40:04.195484  6882 net.cpp:150] Setting up conv3_3_D
I0620 06:40:04.195493  6882 net.cpp:157] Top shape: 5 256 90 120 (13824000)
I0620 06:40:04.195495  6882 net.cpp:165] Memory required for data: 3480192000
I0620 06:40:04.195500  6882 layer_factory.hpp:77] Creating layer conv3_3_D_bn
I0620 06:40:04.195505  6882 net.cpp:100] Creating Layer conv3_3_D_bn
I0620 06:40:04.195508  6882 net.cpp:434] conv3_3_D_bn <- conv3_3_D
I0620 06:40:04.195511  6882 net.cpp:395] conv3_3_D_bn -> conv3_3_D (in-place)
I0620 06:40:04.195758  6882 net.cpp:150] Setting up conv3_3_D_bn
I0620 06:40:04.195763  6882 net.cpp:157] Top shape: 5 256 90 120 (13824000)
I0620 06:40:04.195765  6882 net.cpp:165] Memory required for data: 3535488000
I0620 06:40:04.195768  6882 layer_factory.hpp:77] Creating layer relu3_3_D
I0620 06:40:04.195771  6882 net.cpp:100] Creating Layer relu3_3_D
I0620 06:40:04.195775  6882 net.cpp:434] relu3_3_D <- conv3_3_D
I0620 06:40:04.195777  6882 net.cpp:395] relu3_3_D -> conv3_3_D (in-place)
I0620 06:40:04.196131  6882 net.cpp:150] Setting up relu3_3_D
I0620 06:40:04.196138  6882 net.cpp:157] Top shape: 5 256 90 120 (13824000)
I0620 06:40:04.196141  6882 net.cpp:165] Memory required for data: 3590784000
I0620 06:40:04.196142  6882 layer_factory.hpp:77] Creating layer conv3_2_D
I0620 06:40:04.196147  6882 net.cpp:100] Creating Layer conv3_2_D
I0620 06:40:04.196151  6882 net.cpp:434] conv3_2_D <- conv3_3_D
I0620 06:40:04.196153  6882 net.cpp:408] conv3_2_D -> conv3_2_D
I0620 06:40:04.207437  6882 net.cpp:150] Setting up conv3_2_D
I0620 06:40:04.207448  6882 net.cpp:157] Top shape: 5 256 90 120 (13824000)
I0620 06:40:04.207449  6882 net.cpp:165] Memory required for data: 3646080000
I0620 06:40:04.207453  6882 layer_factory.hpp:77] Creating layer conv3_2_D_bn
I0620 06:40:04.207459  6882 net.cpp:100] Creating Layer conv3_2_D_bn
I0620 06:40:04.207463  6882 net.cpp:434] conv3_2_D_bn <- conv3_2_D
I0620 06:40:04.207465  6882 net.cpp:395] conv3_2_D_bn -> conv3_2_D (in-place)
I0620 06:40:04.207716  6882 net.cpp:150] Setting up conv3_2_D_bn
I0620 06:40:04.207721  6882 net.cpp:157] Top shape: 5 256 90 120 (13824000)
I0620 06:40:04.207722  6882 net.cpp:165] Memory required for data: 3701376000
I0620 06:40:04.207726  6882 layer_factory.hpp:77] Creating layer relu3_2_D
I0620 06:40:04.207731  6882 net.cpp:100] Creating Layer relu3_2_D
I0620 06:40:04.207732  6882 net.cpp:434] relu3_2_D <- conv3_2_D
I0620 06:40:04.207736  6882 net.cpp:395] relu3_2_D -> conv3_2_D (in-place)
I0620 06:40:04.207850  6882 net.cpp:150] Setting up relu3_2_D
I0620 06:40:04.207856  6882 net.cpp:157] Top shape: 5 256 90 120 (13824000)
I0620 06:40:04.207857  6882 net.cpp:165] Memory required for data: 3756672000
I0620 06:40:04.207859  6882 layer_factory.hpp:77] Creating layer conv3_1_D
I0620 06:40:04.207864  6882 net.cpp:100] Creating Layer conv3_1_D
I0620 06:40:04.207866  6882 net.cpp:434] conv3_1_D <- conv3_2_D
I0620 06:40:04.207870  6882 net.cpp:408] conv3_1_D -> conv3_1_D
I0620 06:40:04.214395  6882 net.cpp:150] Setting up conv3_1_D
I0620 06:40:04.214403  6882 net.cpp:157] Top shape: 5 128 90 120 (6912000)
I0620 06:40:04.214406  6882 net.cpp:165] Memory required for data: 3784320000
I0620 06:40:04.214411  6882 layer_factory.hpp:77] Creating layer conv3_1_D_bn
I0620 06:40:04.214416  6882 net.cpp:100] Creating Layer conv3_1_D_bn
I0620 06:40:04.214417  6882 net.cpp:434] conv3_1_D_bn <- conv3_1_D
I0620 06:40:04.214421  6882 net.cpp:395] conv3_1_D_bn -> conv3_1_D (in-place)
I0620 06:40:04.214664  6882 net.cpp:150] Setting up conv3_1_D_bn
I0620 06:40:04.214668  6882 net.cpp:157] Top shape: 5 128 90 120 (6912000)
I0620 06:40:04.214670  6882 net.cpp:165] Memory required for data: 3811968000
I0620 06:40:04.214673  6882 layer_factory.hpp:77] Creating layer relu3_1_D
I0620 06:40:04.214686  6882 net.cpp:100] Creating Layer relu3_1_D
I0620 06:40:04.214689  6882 net.cpp:434] relu3_1_D <- conv3_1_D
I0620 06:40:04.214691  6882 net.cpp:395] relu3_1_D -> conv3_1_D (in-place)
I0620 06:40:04.214804  6882 net.cpp:150] Setting up relu3_1_D
I0620 06:40:04.214809  6882 net.cpp:157] Top shape: 5 128 90 120 (6912000)
I0620 06:40:04.214812  6882 net.cpp:165] Memory required for data: 3839616000
I0620 06:40:04.214813  6882 layer_factory.hpp:77] Creating layer upsample2
I0620 06:40:04.214817  6882 net.cpp:100] Creating Layer upsample2
I0620 06:40:04.214818  6882 net.cpp:434] upsample2 <- conv3_1_D
I0620 06:40:04.214821  6882 net.cpp:434] upsample2 <- pool2_mask
I0620 06:40:04.214825  6882 net.cpp:408] upsample2 -> pool2_D
I0620 06:40:04.214829  6882 upsample_layer.cpp:27] Params 'pad_out_{}_' are deprecated. Please declare upsample height and width useing the upsample_h, upsample_w parameters.
I0620 06:40:04.214853  6882 net.cpp:150] Setting up upsample2
I0620 06:40:04.214855  6882 net.cpp:157] Top shape: 5 128 180 240 (27648000)
I0620 06:40:04.214857  6882 net.cpp:165] Memory required for data: 3950208000
I0620 06:40:04.214859  6882 layer_factory.hpp:77] Creating layer conv2_2_D
I0620 06:40:04.214864  6882 net.cpp:100] Creating Layer conv2_2_D
I0620 06:40:04.214866  6882 net.cpp:434] conv2_2_D <- pool2_D
I0620 06:40:04.214869  6882 net.cpp:408] conv2_2_D -> conv2_2_D
I0620 06:40:04.218344  6882 net.cpp:150] Setting up conv2_2_D
I0620 06:40:04.218351  6882 net.cpp:157] Top shape: 5 128 180 240 (27648000)
I0620 06:40:04.218353  6882 net.cpp:165] Memory required for data: 4060800000
I0620 06:40:04.218358  6882 layer_factory.hpp:77] Creating layer conv2_2_D_bn
I0620 06:40:04.218363  6882 net.cpp:100] Creating Layer conv2_2_D_bn
I0620 06:40:04.218364  6882 net.cpp:434] conv2_2_D_bn <- conv2_2_D
I0620 06:40:04.218369  6882 net.cpp:395] conv2_2_D_bn -> conv2_2_D (in-place)
I0620 06:40:04.218637  6882 net.cpp:150] Setting up conv2_2_D_bn
I0620 06:40:04.218641  6882 net.cpp:157] Top shape: 5 128 180 240 (27648000)
I0620 06:40:04.218643  6882 net.cpp:165] Memory required for data: 4171392000
I0620 06:40:04.218647  6882 layer_factory.hpp:77] Creating layer relu2_2_D
I0620 06:40:04.218650  6882 net.cpp:100] Creating Layer relu2_2_D
I0620 06:40:04.218653  6882 net.cpp:434] relu2_2_D <- conv2_2_D
I0620 06:40:04.218655  6882 net.cpp:395] relu2_2_D -> conv2_2_D (in-place)
I0620 06:40:04.219013  6882 net.cpp:150] Setting up relu2_2_D
I0620 06:40:04.219019  6882 net.cpp:157] Top shape: 5 128 180 240 (27648000)
I0620 06:40:04.219023  6882 net.cpp:165] Memory required for data: 4281984000
I0620 06:40:04.219025  6882 layer_factory.hpp:77] Creating layer conv2_1_D
I0620 06:40:04.219029  6882 net.cpp:100] Creating Layer conv2_1_D
I0620 06:40:04.219033  6882 net.cpp:434] conv2_1_D <- conv2_2_D
I0620 06:40:04.219036  6882 net.cpp:408] conv2_1_D -> conv2_1_D
I0620 06:40:04.221331  6882 net.cpp:150] Setting up conv2_1_D
I0620 06:40:04.221338  6882 net.cpp:157] Top shape: 5 64 180 240 (13824000)
I0620 06:40:04.221340  6882 net.cpp:165] Memory required for data: 4337280000
I0620 06:40:04.221344  6882 layer_factory.hpp:77] Creating layer conv2_1_D_bn
I0620 06:40:04.221349  6882 net.cpp:100] Creating Layer conv2_1_D_bn
I0620 06:40:04.221352  6882 net.cpp:434] conv2_1_D_bn <- conv2_1_D
I0620 06:40:04.221355  6882 net.cpp:395] conv2_1_D_bn -> conv2_1_D (in-place)
I0620 06:40:04.222290  6882 net.cpp:150] Setting up conv2_1_D_bn
I0620 06:40:04.222296  6882 net.cpp:157] Top shape: 5 64 180 240 (13824000)
I0620 06:40:04.222298  6882 net.cpp:165] Memory required for data: 4392576000
I0620 06:40:04.222302  6882 layer_factory.hpp:77] Creating layer relu2_1_D
I0620 06:40:04.222307  6882 net.cpp:100] Creating Layer relu2_1_D
I0620 06:40:04.222309  6882 net.cpp:434] relu2_1_D <- conv2_1_D
I0620 06:40:04.222312  6882 net.cpp:395] relu2_1_D -> conv2_1_D (in-place)
I0620 06:40:04.222431  6882 net.cpp:150] Setting up relu2_1_D
I0620 06:40:04.222436  6882 net.cpp:157] Top shape: 5 64 180 240 (13824000)
I0620 06:40:04.222437  6882 net.cpp:165] Memory required for data: 4447872000
I0620 06:40:04.222447  6882 layer_factory.hpp:77] Creating layer upsample1
I0620 06:40:04.222450  6882 net.cpp:100] Creating Layer upsample1
I0620 06:40:04.222453  6882 net.cpp:434] upsample1 <- conv2_1_D
I0620 06:40:04.222456  6882 net.cpp:434] upsample1 <- pool1_mask
I0620 06:40:04.222458  6882 net.cpp:408] upsample1 -> pool1_D
I0620 06:40:04.222463  6882 upsample_layer.cpp:27] Params 'pad_out_{}_' are deprecated. Please declare upsample height and width useing the upsample_h, upsample_w parameters.
I0620 06:40:04.222486  6882 net.cpp:150] Setting up upsample1
I0620 06:40:04.222491  6882 net.cpp:157] Top shape: 5 64 360 480 (55296000)
I0620 06:40:04.222491  6882 net.cpp:165] Memory required for data: 4669056000
I0620 06:40:04.222493  6882 layer_factory.hpp:77] Creating layer conv1_2_D
I0620 06:40:04.222497  6882 net.cpp:100] Creating Layer conv1_2_D
I0620 06:40:04.222501  6882 net.cpp:434] conv1_2_D <- pool1_D
I0620 06:40:04.222503  6882 net.cpp:408] conv1_2_D -> conv1_2_D
I0620 06:40:04.224653  6882 net.cpp:150] Setting up conv1_2_D
I0620 06:40:04.224661  6882 net.cpp:157] Top shape: 5 64 360 480 (55296000)
I0620 06:40:04.224663  6882 net.cpp:165] Memory required for data: 4890240000
I0620 06:40:04.224668  6882 layer_factory.hpp:77] Creating layer conv1_2_D_bn
I0620 06:40:04.224673  6882 net.cpp:100] Creating Layer conv1_2_D_bn
I0620 06:40:04.224675  6882 net.cpp:434] conv1_2_D_bn <- conv1_2_D
I0620 06:40:04.224678  6882 net.cpp:395] conv1_2_D_bn -> conv1_2_D (in-place)
I0620 06:40:04.224980  6882 net.cpp:150] Setting up conv1_2_D_bn
I0620 06:40:04.224984  6882 net.cpp:157] Top shape: 5 64 360 480 (55296000)
I0620 06:40:04.224987  6882 net.cpp:165] Memory required for data: 5111424000
I0620 06:40:04.224989  6882 layer_factory.hpp:77] Creating layer relu1_2_D
I0620 06:40:04.224993  6882 net.cpp:100] Creating Layer relu1_2_D
I0620 06:40:04.224995  6882 net.cpp:434] relu1_2_D <- conv1_2_D
I0620 06:40:04.224997  6882 net.cpp:395] relu1_2_D -> conv1_2_D (in-place)
I0620 06:40:04.225114  6882 net.cpp:150] Setting up relu1_2_D
I0620 06:40:04.225119  6882 net.cpp:157] Top shape: 5 64 360 480 (55296000)
I0620 06:40:04.225121  6882 net.cpp:165] Memory required for data: 5332608000
I0620 06:40:04.225123  6882 layer_factory.hpp:77] Creating layer conv1_1_D
I0620 06:40:04.225128  6882 net.cpp:100] Creating Layer conv1_1_D
I0620 06:40:04.225131  6882 net.cpp:434] conv1_1_D <- conv1_2_D
I0620 06:40:04.225133  6882 net.cpp:408] conv1_1_D -> conv1_1_D
I0620 06:40:04.226724  6882 net.cpp:150] Setting up conv1_1_D
I0620 06:40:04.226732  6882 net.cpp:157] Top shape: 5 4 360 480 (3456000)
I0620 06:40:04.226734  6882 net.cpp:165] Memory required for data: 5346432000
I0620 06:40:04.226739  6882 layer_factory.hpp:77] Creating layer conv1_1_D_conv1_1_D_0_split
I0620 06:40:04.226743  6882 net.cpp:100] Creating Layer conv1_1_D_conv1_1_D_0_split
I0620 06:40:04.226747  6882 net.cpp:434] conv1_1_D_conv1_1_D_0_split <- conv1_1_D
I0620 06:40:04.226749  6882 net.cpp:408] conv1_1_D_conv1_1_D_0_split -> conv1_1_D_conv1_1_D_0_split_0
I0620 06:40:04.226753  6882 net.cpp:408] conv1_1_D_conv1_1_D_0_split -> conv1_1_D_conv1_1_D_0_split_1
I0620 06:40:04.226799  6882 net.cpp:150] Setting up conv1_1_D_conv1_1_D_0_split
I0620 06:40:04.226804  6882 net.cpp:157] Top shape: 5 4 360 480 (3456000)
I0620 06:40:04.226805  6882 net.cpp:157] Top shape: 5 4 360 480 (3456000)
I0620 06:40:04.226807  6882 net.cpp:165] Memory required for data: 5374080000
I0620 06:40:04.226809  6882 layer_factory.hpp:77] Creating layer loss
I0620 06:40:04.226819  6882 net.cpp:100] Creating Layer loss
I0620 06:40:04.226821  6882 net.cpp:434] loss <- conv1_1_D_conv1_1_D_0_split_0
I0620 06:40:04.226824  6882 net.cpp:434] loss <- label_dataRGB_1_split_0
I0620 06:40:04.226826  6882 net.cpp:408] loss -> loss
I0620 06:40:04.226835  6882 layer_factory.hpp:77] Creating layer loss
I0620 06:40:04.231320  6882 net.cpp:150] Setting up loss
I0620 06:40:04.231340  6882 net.cpp:157] Top shape: (1)
I0620 06:40:04.231343  6882 net.cpp:160]     with loss weight 1
I0620 06:40:04.231380  6882 net.cpp:165] Memory required for data: 5374080004
I0620 06:40:04.231385  6882 layer_factory.hpp:77] Creating layer accuracy
I0620 06:40:04.231392  6882 net.cpp:100] Creating Layer accuracy
I0620 06:40:04.231395  6882 net.cpp:434] accuracy <- conv1_1_D_conv1_1_D_0_split_1
I0620 06:40:04.231401  6882 net.cpp:434] accuracy <- label_dataRGB_1_split_1
I0620 06:40:04.231405  6882 net.cpp:408] accuracy -> accuracy
I0620 06:40:04.231410  6882 net.cpp:408] accuracy -> per_class_accuracy
I0620 06:40:04.231477  6882 net.cpp:150] Setting up accuracy
I0620 06:40:04.231480  6882 net.cpp:157] Top shape: (1)
I0620 06:40:04.231482  6882 net.cpp:157] Top shape: 4 (4)
I0620 06:40:04.231484  6882 net.cpp:165] Memory required for data: 5374080024
I0620 06:40:04.231487  6882 net.cpp:228] accuracy does not need backward computation.
I0620 06:40:04.231489  6882 net.cpp:226] loss needs backward computation.
I0620 06:40:04.231492  6882 net.cpp:226] conv1_1_D_conv1_1_D_0_split needs backward computation.
I0620 06:40:04.231493  6882 net.cpp:226] conv1_1_D needs backward computation.
…
